node {
  name: "input_placeholder"
  op: "Placeholder"
  attr {
    key: "dtype"
    value {
      type: DT_FLOAT
    }
  }
  attr {
    key: "shape"
    value {
      shape {
        dim {
          size: -1
        }
        dim {
          size: -1
        }
        dim {
          size: 4
        }
      }
    }
  }
}
node {
  name: "cudnn_lstm/state_placeholder"
  op: "Placeholder"
  attr {
    key: "dtype"
    value {
      type: DT_FLOAT
    }
  }
  attr {
    key: "shape"
    value {
      shape {
        dim {
          size: 1
        }
        dim {
          size: 2
        }
        dim {
          size: -1
        }
        dim {
          size: 16
        }
      }
    }
  }
}
node {
  name: "cudnn_lstm/strided_slice/stack"
  op: "Const"
  attr {
    key: "dtype"
    value {
      type: DT_INT32
    }
  }
  attr {
    key: "value"
    value {
      tensor {
        dtype: DT_INT32
        tensor_shape {
          dim {
            size: 2
          }
        }
        tensor_content: "\000\000\000\000\000\000\000\000"
      }
    }
  }
}
node {
  name: "cudnn_lstm/strided_slice/stack_1"
  op: "Const"
  attr {
    key: "dtype"
    value {
      type: DT_INT32
    }
  }
  attr {
    key: "value"
    value {
      tensor {
        dtype: DT_INT32
        tensor_shape {
          dim {
            size: 2
          }
        }
        tensor_content: "\001\000\000\000\001\000\000\000"
      }
    }
  }
}
node {
  name: "cudnn_lstm/strided_slice/stack_2"
  op: "Const"
  attr {
    key: "dtype"
    value {
      type: DT_INT32
    }
  }
  attr {
    key: "value"
    value {
      tensor {
        dtype: DT_INT32
        tensor_shape {
          dim {
            size: 2
          }
        }
        tensor_content: "\001\000\000\000\001\000\000\000"
      }
    }
  }
}
node {
  name: "cudnn_lstm/strided_slice"
  op: "StridedSlice"
  input: "cudnn_lstm/state_placeholder"
  input: "cudnn_lstm/strided_slice/stack"
  input: "cudnn_lstm/strided_slice/stack_1"
  input: "cudnn_lstm/strided_slice/stack_2"
  attr {
    key: "Index"
    value {
      type: DT_INT32
    }
  }
  attr {
    key: "T"
    value {
      type: DT_FLOAT
    }
  }
  attr {
    key: "begin_mask"
    value {
      i: 0
    }
  }
  attr {
    key: "ellipsis_mask"
    value {
      i: 0
    }
  }
  attr {
    key: "end_mask"
    value {
      i: 0
    }
  }
  attr {
    key: "new_axis_mask"
    value {
      i: 0
    }
  }
  attr {
    key: "shrink_axis_mask"
    value {
      i: 3
    }
  }
}
node {
  name: "cudnn_lstm/strided_slice_1/stack"
  op: "Const"
  attr {
    key: "dtype"
    value {
      type: DT_INT32
    }
  }
  attr {
    key: "value"
    value {
      tensor {
        dtype: DT_INT32
        tensor_shape {
          dim {
            size: 2
          }
        }
        tensor_content: "\000\000\000\000\001\000\000\000"
      }
    }
  }
}
node {
  name: "cudnn_lstm/strided_slice_1/stack_1"
  op: "Const"
  attr {
    key: "dtype"
    value {
      type: DT_INT32
    }
  }
  attr {
    key: "value"
    value {
      tensor {
        dtype: DT_INT32
        tensor_shape {
          dim {
            size: 2
          }
        }
        tensor_content: "\001\000\000\000\002\000\000\000"
      }
    }
  }
}
node {
  name: "cudnn_lstm/strided_slice_1/stack_2"
  op: "Const"
  attr {
    key: "dtype"
    value {
      type: DT_INT32
    }
  }
  attr {
    key: "value"
    value {
      tensor {
        dtype: DT_INT32
        tensor_shape {
          dim {
            size: 2
          }
        }
        tensor_content: "\001\000\000\000\001\000\000\000"
      }
    }
  }
}
node {
  name: "cudnn_lstm/strided_slice_1"
  op: "StridedSlice"
  input: "cudnn_lstm/state_placeholder"
  input: "cudnn_lstm/strided_slice_1/stack"
  input: "cudnn_lstm/strided_slice_1/stack_1"
  input: "cudnn_lstm/strided_slice_1/stack_2"
  attr {
    key: "Index"
    value {
      type: DT_INT32
    }
  }
  attr {
    key: "T"
    value {
      type: DT_FLOAT
    }
  }
  attr {
    key: "begin_mask"
    value {
      i: 0
    }
  }
  attr {
    key: "ellipsis_mask"
    value {
      i: 0
    }
  }
  attr {
    key: "end_mask"
    value {
      i: 0
    }
  }
  attr {
    key: "new_axis_mask"
    value {
      i: 0
    }
  }
  attr {
    key: "shrink_axis_mask"
    value {
      i: 3
    }
  }
}
node {
  name: "cudnn_lstm/rnn/Shape"
  op: "Shape"
  input: "input_placeholder"
  attr {
    key: "T"
    value {
      type: DT_FLOAT
    }
  }
  attr {
    key: "out_type"
    value {
      type: DT_INT32
    }
  }
}
node {
  name: "cudnn_lstm/rnn/strided_slice/stack"
  op: "Const"
  attr {
    key: "dtype"
    value {
      type: DT_INT32
    }
  }
  attr {
    key: "value"
    value {
      tensor {
        dtype: DT_INT32
        tensor_shape {
          dim {
            size: 1
          }
        }
        int_val: 1
      }
    }
  }
}
node {
  name: "cudnn_lstm/rnn/strided_slice/stack_1"
  op: "Const"
  attr {
    key: "dtype"
    value {
      type: DT_INT32
    }
  }
  attr {
    key: "value"
    value {
      tensor {
        dtype: DT_INT32
        tensor_shape {
          dim {
            size: 1
          }
        }
        int_val: 2
      }
    }
  }
}
node {
  name: "cudnn_lstm/rnn/strided_slice/stack_2"
  op: "Const"
  attr {
    key: "dtype"
    value {
      type: DT_INT32
    }
  }
  attr {
    key: "value"
    value {
      tensor {
        dtype: DT_INT32
        tensor_shape {
          dim {
            size: 1
          }
        }
        int_val: 1
      }
    }
  }
}
node {
  name: "cudnn_lstm/rnn/strided_slice"
  op: "StridedSlice"
  input: "cudnn_lstm/rnn/Shape"
  input: "cudnn_lstm/rnn/strided_slice/stack"
  input: "cudnn_lstm/rnn/strided_slice/stack_1"
  input: "cudnn_lstm/rnn/strided_slice/stack_2"
  attr {
    key: "Index"
    value {
      type: DT_INT32
    }
  }
  attr {
    key: "T"
    value {
      type: DT_INT32
    }
  }
  attr {
    key: "begin_mask"
    value {
      i: 0
    }
  }
  attr {
    key: "ellipsis_mask"
    value {
      i: 0
    }
  }
  attr {
    key: "end_mask"
    value {
      i: 0
    }
  }
  attr {
    key: "new_axis_mask"
    value {
      i: 0
    }
  }
  attr {
    key: "shrink_axis_mask"
    value {
      i: 1
    }
  }
}
node {
  name: "cudnn_lstm/rnn/Shape_1"
  op: "Shape"
  input: "input_placeholder"
  attr {
    key: "T"
    value {
      type: DT_FLOAT
    }
  }
  attr {
    key: "out_type"
    value {
      type: DT_INT32
    }
  }
}
node {
  name: "cudnn_lstm/rnn/strided_slice_1/stack"
  op: "Const"
  attr {
    key: "dtype"
    value {
      type: DT_INT32
    }
  }
  attr {
    key: "value"
    value {
      tensor {
        dtype: DT_INT32
        tensor_shape {
          dim {
            size: 1
          }
        }
        int_val: 0
      }
    }
  }
}
node {
  name: "cudnn_lstm/rnn/strided_slice_1/stack_1"
  op: "Const"
  attr {
    key: "dtype"
    value {
      type: DT_INT32
    }
  }
  attr {
    key: "value"
    value {
      tensor {
        dtype: DT_INT32
        tensor_shape {
          dim {
            size: 1
          }
        }
        int_val: 1
      }
    }
  }
}
node {
  name: "cudnn_lstm/rnn/strided_slice_1/stack_2"
  op: "Const"
  attr {
    key: "dtype"
    value {
      type: DT_INT32
    }
  }
  attr {
    key: "value"
    value {
      tensor {
        dtype: DT_INT32
        tensor_shape {
          dim {
            size: 1
          }
        }
        int_val: 1
      }
    }
  }
}
node {
  name: "cudnn_lstm/rnn/strided_slice_1"
  op: "StridedSlice"
  input: "cudnn_lstm/rnn/Shape_1"
  input: "cudnn_lstm/rnn/strided_slice_1/stack"
  input: "cudnn_lstm/rnn/strided_slice_1/stack_1"
  input: "cudnn_lstm/rnn/strided_slice_1/stack_2"
  attr {
    key: "Index"
    value {
      type: DT_INT32
    }
  }
  attr {
    key: "T"
    value {
      type: DT_INT32
    }
  }
  attr {
    key: "begin_mask"
    value {
      i: 0
    }
  }
  attr {
    key: "ellipsis_mask"
    value {
      i: 0
    }
  }
  attr {
    key: "end_mask"
    value {
      i: 0
    }
  }
  attr {
    key: "new_axis_mask"
    value {
      i: 0
    }
  }
  attr {
    key: "shrink_axis_mask"
    value {
      i: 1
    }
  }
}
node {
  name: "cudnn_lstm/rnn/Shape_2"
  op: "Shape"
  input: "input_placeholder"
  attr {
    key: "T"
    value {
      type: DT_FLOAT
    }
  }
  attr {
    key: "out_type"
    value {
      type: DT_INT32
    }
  }
}
node {
  name: "cudnn_lstm/rnn/strided_slice_2/stack"
  op: "Const"
  attr {
    key: "dtype"
    value {
      type: DT_INT32
    }
  }
  attr {
    key: "value"
    value {
      tensor {
        dtype: DT_INT32
        tensor_shape {
          dim {
            size: 1
          }
        }
        int_val: 1
      }
    }
  }
}
node {
  name: "cudnn_lstm/rnn/strided_slice_2/stack_1"
  op: "Const"
  attr {
    key: "dtype"
    value {
      type: DT_INT32
    }
  }
  attr {
    key: "value"
    value {
      tensor {
        dtype: DT_INT32
        tensor_shape {
          dim {
            size: 1
          }
        }
        int_val: 2
      }
    }
  }
}
node {
  name: "cudnn_lstm/rnn/strided_slice_2/stack_2"
  op: "Const"
  attr {
    key: "dtype"
    value {
      type: DT_INT32
    }
  }
  attr {
    key: "value"
    value {
      tensor {
        dtype: DT_INT32
        tensor_shape {
          dim {
            size: 1
          }
        }
        int_val: 1
      }
    }
  }
}
node {
  name: "cudnn_lstm/rnn/strided_slice_2"
  op: "StridedSlice"
  input: "cudnn_lstm/rnn/Shape_2"
  input: "cudnn_lstm/rnn/strided_slice_2/stack"
  input: "cudnn_lstm/rnn/strided_slice_2/stack_1"
  input: "cudnn_lstm/rnn/strided_slice_2/stack_2"
  attr {
    key: "Index"
    value {
      type: DT_INT32
    }
  }
  attr {
    key: "T"
    value {
      type: DT_INT32
    }
  }
  attr {
    key: "begin_mask"
    value {
      i: 0
    }
  }
  attr {
    key: "ellipsis_mask"
    value {
      i: 0
    }
  }
  attr {
    key: "end_mask"
    value {
      i: 0
    }
  }
  attr {
    key: "new_axis_mask"
    value {
      i: 0
    }
  }
  attr {
    key: "shrink_axis_mask"
    value {
      i: 1
    }
  }
}
node {
  name: "cudnn_lstm/rnn/ExpandDims/dim"
  op: "Const"
  attr {
    key: "dtype"
    value {
      type: DT_INT32
    }
  }
  attr {
    key: "value"
    value {
      tensor {
        dtype: DT_INT32
        tensor_shape {
        }
        int_val: 0
      }
    }
  }
}
node {
  name: "cudnn_lstm/rnn/ExpandDims"
  op: "ExpandDims"
  input: "cudnn_lstm/rnn/strided_slice_2"
  input: "cudnn_lstm/rnn/ExpandDims/dim"
  attr {
    key: "T"
    value {
      type: DT_INT32
    }
  }
  attr {
    key: "Tdim"
    value {
      type: DT_INT32
    }
  }
}
node {
  name: "cudnn_lstm/rnn/Const"
  op: "Const"
  attr {
    key: "dtype"
    value {
      type: DT_INT32
    }
  }
  attr {
    key: "value"
    value {
      tensor {
        dtype: DT_INT32
        tensor_shape {
          dim {
            size: 1
          }
        }
        int_val: 16
      }
    }
  }
}
node {
  name: "cudnn_lstm/rnn/concat/axis"
  op: "Const"
  attr {
    key: "dtype"
    value {
      type: DT_INT32
    }
  }
  attr {
    key: "value"
    value {
      tensor {
        dtype: DT_INT32
        tensor_shape {
        }
        int_val: 0
      }
    }
  }
}
node {
  name: "cudnn_lstm/rnn/concat"
  op: "ConcatV2"
  input: "cudnn_lstm/rnn/ExpandDims"
  input: "cudnn_lstm/rnn/Const"
  input: "cudnn_lstm/rnn/concat/axis"
  attr {
    key: "N"
    value {
      i: 2
    }
  }
  attr {
    key: "T"
    value {
      type: DT_INT32
    }
  }
  attr {
    key: "Tidx"
    value {
      type: DT_INT32
    }
  }
}
node {
  name: "cudnn_lstm/rnn/zeros/Const"
  op: "Const"
  attr {
    key: "dtype"
    value {
      type: DT_FLOAT
    }
  }
  attr {
    key: "value"
    value {
      tensor {
        dtype: DT_FLOAT
        tensor_shape {
        }
        float_val: 0.0
      }
    }
  }
}
node {
  name: "cudnn_lstm/rnn/zeros"
  op: "Fill"
  input: "cudnn_lstm/rnn/concat"
  input: "cudnn_lstm/rnn/zeros/Const"
  attr {
    key: "T"
    value {
      type: DT_FLOAT
    }
  }
  attr {
    key: "index_type"
    value {
      type: DT_INT32
    }
  }
}
node {
  name: "cudnn_lstm/rnn/time"
  op: "Const"
  attr {
    key: "dtype"
    value {
      type: DT_INT32
    }
  }
  attr {
    key: "value"
    value {
      tensor {
        dtype: DT_INT32
        tensor_shape {
        }
        int_val: 0
      }
    }
  }
}
node {
  name: "cudnn_lstm/rnn/TensorArray"
  op: "TensorArrayV3"
  input: "cudnn_lstm/rnn/strided_slice_1"
  attr {
    key: "clear_after_read"
    value {
      b: true
    }
  }
  attr {
    key: "dtype"
    value {
      type: DT_FLOAT
    }
  }
  attr {
    key: "dynamic_size"
    value {
      b: false
    }
  }
  attr {
    key: "element_shape"
    value {
      shape {
        dim {
          size: -1
        }
        dim {
          size: 16
        }
      }
    }
  }
  attr {
    key: "identical_element_shapes"
    value {
      b: true
    }
  }
  attr {
    key: "tensor_array_name"
    value {
      s: "cudnn_lstm/rnn/dynamic_rnn/output_0"
    }
  }
}
node {
  name: "cudnn_lstm/rnn/TensorArray_1"
  op: "TensorArrayV3"
  input: "cudnn_lstm/rnn/strided_slice_1"
  attr {
    key: "clear_after_read"
    value {
      b: true
    }
  }
  attr {
    key: "dtype"
    value {
      type: DT_FLOAT
    }
  }
  attr {
    key: "dynamic_size"
    value {
      b: false
    }
  }
  attr {
    key: "element_shape"
    value {
      shape {
        dim {
          size: -1
        }
        dim {
          size: 4
        }
      }
    }
  }
  attr {
    key: "identical_element_shapes"
    value {
      b: true
    }
  }
  attr {
    key: "tensor_array_name"
    value {
      s: "cudnn_lstm/rnn/dynamic_rnn/input_0"
    }
  }
}
node {
  name: "cudnn_lstm/rnn/TensorArrayUnstack/Shape"
  op: "Shape"
  input: "input_placeholder"
  attr {
    key: "T"
    value {
      type: DT_FLOAT
    }
  }
  attr {
    key: "out_type"
    value {
      type: DT_INT32
    }
  }
}
node {
  name: "cudnn_lstm/rnn/TensorArrayUnstack/strided_slice/stack"
  op: "Const"
  attr {
    key: "dtype"
    value {
      type: DT_INT32
    }
  }
  attr {
    key: "value"
    value {
      tensor {
        dtype: DT_INT32
        tensor_shape {
          dim {
            size: 1
          }
        }
        int_val: 0
      }
    }
  }
}
node {
  name: "cudnn_lstm/rnn/TensorArrayUnstack/strided_slice/stack_1"
  op: "Const"
  attr {
    key: "dtype"
    value {
      type: DT_INT32
    }
  }
  attr {
    key: "value"
    value {
      tensor {
        dtype: DT_INT32
        tensor_shape {
          dim {
            size: 1
          }
        }
        int_val: 1
      }
    }
  }
}
node {
  name: "cudnn_lstm/rnn/TensorArrayUnstack/strided_slice/stack_2"
  op: "Const"
  attr {
    key: "dtype"
    value {
      type: DT_INT32
    }
  }
  attr {
    key: "value"
    value {
      tensor {
        dtype: DT_INT32
        tensor_shape {
          dim {
            size: 1
          }
        }
        int_val: 1
      }
    }
  }
}
node {
  name: "cudnn_lstm/rnn/TensorArrayUnstack/strided_slice"
  op: "StridedSlice"
  input: "cudnn_lstm/rnn/TensorArrayUnstack/Shape"
  input: "cudnn_lstm/rnn/TensorArrayUnstack/strided_slice/stack"
  input: "cudnn_lstm/rnn/TensorArrayUnstack/strided_slice/stack_1"
  input: "cudnn_lstm/rnn/TensorArrayUnstack/strided_slice/stack_2"
  attr {
    key: "Index"
    value {
      type: DT_INT32
    }
  }
  attr {
    key: "T"
    value {
      type: DT_INT32
    }
  }
  attr {
    key: "begin_mask"
    value {
      i: 0
    }
  }
  attr {
    key: "ellipsis_mask"
    value {
      i: 0
    }
  }
  attr {
    key: "end_mask"
    value {
      i: 0
    }
  }
  attr {
    key: "new_axis_mask"
    value {
      i: 0
    }
  }
  attr {
    key: "shrink_axis_mask"
    value {
      i: 1
    }
  }
}
node {
  name: "cudnn_lstm/rnn/TensorArrayUnstack/range/start"
  op: "Const"
  attr {
    key: "dtype"
    value {
      type: DT_INT32
    }
  }
  attr {
    key: "value"
    value {
      tensor {
        dtype: DT_INT32
        tensor_shape {
        }
        int_val: 0
      }
    }
  }
}
node {
  name: "cudnn_lstm/rnn/TensorArrayUnstack/range/delta"
  op: "Const"
  attr {
    key: "dtype"
    value {
      type: DT_INT32
    }
  }
  attr {
    key: "value"
    value {
      tensor {
        dtype: DT_INT32
        tensor_shape {
        }
        int_val: 1
      }
    }
  }
}
node {
  name: "cudnn_lstm/rnn/TensorArrayUnstack/range"
  op: "Range"
  input: "cudnn_lstm/rnn/TensorArrayUnstack/range/start"
  input: "cudnn_lstm/rnn/TensorArrayUnstack/strided_slice"
  input: "cudnn_lstm/rnn/TensorArrayUnstack/range/delta"
  attr {
    key: "Tidx"
    value {
      type: DT_INT32
    }
  }
}
node {
  name: "cudnn_lstm/rnn/TensorArrayUnstack/TensorArrayScatter/TensorArrayScatterV3"
  op: "TensorArrayScatterV3"
  input: "cudnn_lstm/rnn/TensorArray_1"
  input: "cudnn_lstm/rnn/TensorArrayUnstack/range"
  input: "input_placeholder"
  input: "cudnn_lstm/rnn/TensorArray_1:1"
  attr {
    key: "T"
    value {
      type: DT_FLOAT
    }
  }
  attr {
    key: "_class"
    value {
      list {
        s: "loc:@input_placeholder"
      }
    }
  }
}
node {
  name: "cudnn_lstm/rnn/Maximum/x"
  op: "Const"
  attr {
    key: "dtype"
    value {
      type: DT_INT32
    }
  }
  attr {
    key: "value"
    value {
      tensor {
        dtype: DT_INT32
        tensor_shape {
        }
        int_val: 1
      }
    }
  }
}
node {
  name: "cudnn_lstm/rnn/Maximum"
  op: "Maximum"
  input: "cudnn_lstm/rnn/Maximum/x"
  input: "cudnn_lstm/rnn/strided_slice_1"
  attr {
    key: "T"
    value {
      type: DT_INT32
    }
  }
}
node {
  name: "cudnn_lstm/rnn/Minimum"
  op: "Minimum"
  input: "cudnn_lstm/rnn/strided_slice_1"
  input: "cudnn_lstm/rnn/Maximum"
  attr {
    key: "T"
    value {
      type: DT_INT32
    }
  }
}
node {
  name: "cudnn_lstm/rnn/while/iteration_counter"
  op: "Const"
  attr {
    key: "dtype"
    value {
      type: DT_INT32
    }
  }
  attr {
    key: "value"
    value {
      tensor {
        dtype: DT_INT32
        tensor_shape {
        }
        int_val: 0
      }
    }
  }
}
node {
  name: "cudnn_lstm/rnn/while/Enter"
  op: "Enter"
  input: "cudnn_lstm/rnn/while/iteration_counter"
  attr {
    key: "T"
    value {
      type: DT_INT32
    }
  }
  attr {
    key: "frame_name"
    value {
      s: "cudnn_lstm/rnn/while/while_context"
    }
  }
  attr {
    key: "is_constant"
    value {
      b: false
    }
  }
  attr {
    key: "parallel_iterations"
    value {
      i: 32
    }
  }
}
node {
  name: "cudnn_lstm/rnn/while/Enter_1"
  op: "Enter"
  input: "cudnn_lstm/rnn/time"
  attr {
    key: "T"
    value {
      type: DT_INT32
    }
  }
  attr {
    key: "frame_name"
    value {
      s: "cudnn_lstm/rnn/while/while_context"
    }
  }
  attr {
    key: "is_constant"
    value {
      b: false
    }
  }
  attr {
    key: "parallel_iterations"
    value {
      i: 32
    }
  }
}
node {
  name: "cudnn_lstm/rnn/while/Enter_2"
  op: "Enter"
  input: "cudnn_lstm/rnn/TensorArray:1"
  attr {
    key: "T"
    value {
      type: DT_FLOAT
    }
  }
  attr {
    key: "frame_name"
    value {
      s: "cudnn_lstm/rnn/while/while_context"
    }
  }
  attr {
    key: "is_constant"
    value {
      b: false
    }
  }
  attr {
    key: "parallel_iterations"
    value {
      i: 32
    }
  }
}
node {
  name: "cudnn_lstm/rnn/while/Enter_3"
  op: "Enter"
  input: "cudnn_lstm/strided_slice"
  attr {
    key: "T"
    value {
      type: DT_FLOAT
    }
  }
  attr {
    key: "frame_name"
    value {
      s: "cudnn_lstm/rnn/while/while_context"
    }
  }
  attr {
    key: "is_constant"
    value {
      b: false
    }
  }
  attr {
    key: "parallel_iterations"
    value {
      i: 32
    }
  }
}
node {
  name: "cudnn_lstm/rnn/while/Enter_4"
  op: "Enter"
  input: "cudnn_lstm/strided_slice_1"
  attr {
    key: "T"
    value {
      type: DT_FLOAT
    }
  }
  attr {
    key: "frame_name"
    value {
      s: "cudnn_lstm/rnn/while/while_context"
    }
  }
  attr {
    key: "is_constant"
    value {
      b: false
    }
  }
  attr {
    key: "parallel_iterations"
    value {
      i: 32
    }
  }
}
node {
  name: "cudnn_lstm/rnn/while/Merge"
  op: "Merge"
  input: "cudnn_lstm/rnn/while/Enter"
  input: "cudnn_lstm/rnn/while/NextIteration"
  attr {
    key: "N"
    value {
      i: 2
    }
  }
  attr {
    key: "T"
    value {
      type: DT_INT32
    }
  }
}
node {
  name: "cudnn_lstm/rnn/while/Merge_1"
  op: "Merge"
  input: "cudnn_lstm/rnn/while/Enter_1"
  input: "cudnn_lstm/rnn/while/NextIteration_1"
  attr {
    key: "N"
    value {
      i: 2
    }
  }
  attr {
    key: "T"
    value {
      type: DT_INT32
    }
  }
}
node {
  name: "cudnn_lstm/rnn/while/Merge_2"
  op: "Merge"
  input: "cudnn_lstm/rnn/while/Enter_2"
  input: "cudnn_lstm/rnn/while/NextIteration_2"
  attr {
    key: "N"
    value {
      i: 2
    }
  }
  attr {
    key: "T"
    value {
      type: DT_FLOAT
    }
  }
}
node {
  name: "cudnn_lstm/rnn/while/Merge_3"
  op: "Merge"
  input: "cudnn_lstm/rnn/while/Enter_3"
  input: "cudnn_lstm/rnn/while/NextIteration_3"
  attr {
    key: "N"
    value {
      i: 2
    }
  }
  attr {
    key: "T"
    value {
      type: DT_FLOAT
    }
  }
}
node {
  name: "cudnn_lstm/rnn/while/Merge_4"
  op: "Merge"
  input: "cudnn_lstm/rnn/while/Enter_4"
  input: "cudnn_lstm/rnn/while/NextIteration_4"
  attr {
    key: "N"
    value {
      i: 2
    }
  }
  attr {
    key: "T"
    value {
      type: DT_FLOAT
    }
  }
}
node {
  name: "cudnn_lstm/rnn/while/Less"
  op: "Less"
  input: "cudnn_lstm/rnn/while/Merge"
  input: "cudnn_lstm/rnn/while/Less/Enter"
  attr {
    key: "T"
    value {
      type: DT_INT32
    }
  }
}
node {
  name: "cudnn_lstm/rnn/while/Less/Enter"
  op: "Enter"
  input: "cudnn_lstm/rnn/strided_slice_1"
  attr {
    key: "T"
    value {
      type: DT_INT32
    }
  }
  attr {
    key: "frame_name"
    value {
      s: "cudnn_lstm/rnn/while/while_context"
    }
  }
  attr {
    key: "is_constant"
    value {
      b: true
    }
  }
  attr {
    key: "parallel_iterations"
    value {
      i: 32
    }
  }
}
node {
  name: "cudnn_lstm/rnn/while/Less_1"
  op: "Less"
  input: "cudnn_lstm/rnn/while/Merge_1"
  input: "cudnn_lstm/rnn/while/Less_1/Enter"
  attr {
    key: "T"
    value {
      type: DT_INT32
    }
  }
}
node {
  name: "cudnn_lstm/rnn/while/Less_1/Enter"
  op: "Enter"
  input: "cudnn_lstm/rnn/Minimum"
  attr {
    key: "T"
    value {
      type: DT_INT32
    }
  }
  attr {
    key: "frame_name"
    value {
      s: "cudnn_lstm/rnn/while/while_context"
    }
  }
  attr {
    key: "is_constant"
    value {
      b: true
    }
  }
  attr {
    key: "parallel_iterations"
    value {
      i: 32
    }
  }
}
node {
  name: "cudnn_lstm/rnn/while/LogicalAnd"
  op: "LogicalAnd"
  input: "cudnn_lstm/rnn/while/Less"
  input: "cudnn_lstm/rnn/while/Less_1"
}
node {
  name: "cudnn_lstm/rnn/while/LoopCond"
  op: "LoopCond"
  input: "cudnn_lstm/rnn/while/LogicalAnd"
}
node {
  name: "cudnn_lstm/rnn/while/Switch"
  op: "Switch"
  input: "cudnn_lstm/rnn/while/Merge"
  input: "cudnn_lstm/rnn/while/LoopCond"
  attr {
    key: "T"
    value {
      type: DT_INT32
    }
  }
  attr {
    key: "_class"
    value {
      list {
        s: "loc:@cudnn_lstm/rnn/while/Merge"
      }
    }
  }
}
node {
  name: "cudnn_lstm/rnn/while/Switch_1"
  op: "Switch"
  input: "cudnn_lstm/rnn/while/Merge_1"
  input: "cudnn_lstm/rnn/while/LoopCond"
  attr {
    key: "T"
    value {
      type: DT_INT32
    }
  }
  attr {
    key: "_class"
    value {
      list {
        s: "loc:@cudnn_lstm/rnn/while/Merge_1"
      }
    }
  }
}
node {
  name: "cudnn_lstm/rnn/while/Switch_2"
  op: "Switch"
  input: "cudnn_lstm/rnn/while/Merge_2"
  input: "cudnn_lstm/rnn/while/LoopCond"
  attr {
    key: "T"
    value {
      type: DT_FLOAT
    }
  }
  attr {
    key: "_class"
    value {
      list {
        s: "loc:@cudnn_lstm/rnn/while/Merge_2"
      }
    }
  }
}
node {
  name: "cudnn_lstm/rnn/while/Switch_3"
  op: "Switch"
  input: "cudnn_lstm/rnn/while/Merge_3"
  input: "cudnn_lstm/rnn/while/LoopCond"
  attr {
    key: "T"
    value {
      type: DT_FLOAT
    }
  }
  attr {
    key: "_class"
    value {
      list {
        s: "loc:@cudnn_lstm/rnn/while/Merge_3"
      }
    }
  }
}
node {
  name: "cudnn_lstm/rnn/while/Switch_4"
  op: "Switch"
  input: "cudnn_lstm/rnn/while/Merge_4"
  input: "cudnn_lstm/rnn/while/LoopCond"
  attr {
    key: "T"
    value {
      type: DT_FLOAT
    }
  }
  attr {
    key: "_class"
    value {
      list {
        s: "loc:@cudnn_lstm/rnn/while/Merge_4"
      }
    }
  }
}
node {
  name: "cudnn_lstm/rnn/while/Identity"
  op: "Identity"
  input: "cudnn_lstm/rnn/while/Switch:1"
  attr {
    key: "T"
    value {
      type: DT_INT32
    }
  }
}
node {
  name: "cudnn_lstm/rnn/while/Identity_1"
  op: "Identity"
  input: "cudnn_lstm/rnn/while/Switch_1:1"
  attr {
    key: "T"
    value {
      type: DT_INT32
    }
  }
}
node {
  name: "cudnn_lstm/rnn/while/Identity_2"
  op: "Identity"
  input: "cudnn_lstm/rnn/while/Switch_2:1"
  attr {
    key: "T"
    value {
      type: DT_FLOAT
    }
  }
}
node {
  name: "cudnn_lstm/rnn/while/Identity_3"
  op: "Identity"
  input: "cudnn_lstm/rnn/while/Switch_3:1"
  attr {
    key: "T"
    value {
      type: DT_FLOAT
    }
  }
}
node {
  name: "cudnn_lstm/rnn/while/Identity_4"
  op: "Identity"
  input: "cudnn_lstm/rnn/while/Switch_4:1"
  attr {
    key: "T"
    value {
      type: DT_FLOAT
    }
  }
}
node {
  name: "cudnn_lstm/rnn/while/add/y"
  op: "Const"
  input: "^cudnn_lstm/rnn/while/Identity"
  attr {
    key: "dtype"
    value {
      type: DT_INT32
    }
  }
  attr {
    key: "value"
    value {
      tensor {
        dtype: DT_INT32
        tensor_shape {
        }
        int_val: 1
      }
    }
  }
}
node {
  name: "cudnn_lstm/rnn/while/add"
  op: "Add"
  input: "cudnn_lstm/rnn/while/Identity"
  input: "cudnn_lstm/rnn/while/add/y"
  attr {
    key: "T"
    value {
      type: DT_INT32
    }
  }
}
node {
  name: "cudnn_lstm/rnn/while/TensorArrayReadV3"
  op: "TensorArrayReadV3"
  input: "cudnn_lstm/rnn/while/TensorArrayReadV3/Enter"
  input: "cudnn_lstm/rnn/while/Identity_1"
  input: "cudnn_lstm/rnn/while/TensorArrayReadV3/Enter_1"
  attr {
    key: "dtype"
    value {
      type: DT_FLOAT
    }
  }
}
node {
  name: "cudnn_lstm/rnn/while/TensorArrayReadV3/Enter"
  op: "Enter"
  input: "cudnn_lstm/rnn/TensorArray_1"
  attr {
    key: "T"
    value {
      type: DT_RESOURCE
    }
  }
  attr {
    key: "frame_name"
    value {
      s: "cudnn_lstm/rnn/while/while_context"
    }
  }
  attr {
    key: "is_constant"
    value {
      b: true
    }
  }
  attr {
    key: "parallel_iterations"
    value {
      i: 32
    }
  }
}
node {
  name: "cudnn_lstm/rnn/while/TensorArrayReadV3/Enter_1"
  op: "Enter"
  input: "cudnn_lstm/rnn/TensorArrayUnstack/TensorArrayScatter/TensorArrayScatterV3"
  attr {
    key: "T"
    value {
      type: DT_FLOAT
    }
  }
  attr {
    key: "frame_name"
    value {
      s: "cudnn_lstm/rnn/while/while_context"
    }
  }
  attr {
    key: "is_constant"
    value {
      b: true
    }
  }
  attr {
    key: "parallel_iterations"
    value {
      i: 32
    }
  }
}
node {
  name: "cudnn_lstm/rnn/multi_rnn_cell/cell_0/lstm_cell/kernel/Initializer/random_uniform/shape"
  op: "Const"
  attr {
    key: "_class"
    value {
      list {
        s: "loc:@cudnn_lstm/rnn/multi_rnn_cell/cell_0/lstm_cell/kernel"
      }
    }
  }
  attr {
    key: "dtype"
    value {
      type: DT_INT32
    }
  }
  attr {
    key: "value"
    value {
      tensor {
        dtype: DT_INT32
        tensor_shape {
          dim {
            size: 2
          }
        }
        tensor_content: "\024\000\000\000@\000\000\000"
      }
    }
  }
}
node {
  name: "cudnn_lstm/rnn/multi_rnn_cell/cell_0/lstm_cell/kernel/Initializer/random_uniform/min"
  op: "Const"
  attr {
    key: "_class"
    value {
      list {
        s: "loc:@cudnn_lstm/rnn/multi_rnn_cell/cell_0/lstm_cell/kernel"
      }
    }
  }
  attr {
    key: "dtype"
    value {
      type: DT_FLOAT
    }
  }
  attr {
    key: "value"
    value {
      tensor {
        dtype: DT_FLOAT
        tensor_shape {
        }
        float_val: -0.26726123690605164
      }
    }
  }
}
node {
  name: "cudnn_lstm/rnn/multi_rnn_cell/cell_0/lstm_cell/kernel/Initializer/random_uniform/max"
  op: "Const"
  attr {
    key: "_class"
    value {
      list {
        s: "loc:@cudnn_lstm/rnn/multi_rnn_cell/cell_0/lstm_cell/kernel"
      }
    }
  }
  attr {
    key: "dtype"
    value {
      type: DT_FLOAT
    }
  }
  attr {
    key: "value"
    value {
      tensor {
        dtype: DT_FLOAT
        tensor_shape {
        }
        float_val: 0.26726123690605164
      }
    }
  }
}
node {
  name: "cudnn_lstm/rnn/multi_rnn_cell/cell_0/lstm_cell/kernel/Initializer/random_uniform/RandomUniform"
  op: "RandomUniform"
  input: "cudnn_lstm/rnn/multi_rnn_cell/cell_0/lstm_cell/kernel/Initializer/random_uniform/shape"
  attr {
    key: "T"
    value {
      type: DT_INT32
    }
  }
  attr {
    key: "_class"
    value {
      list {
        s: "loc:@cudnn_lstm/rnn/multi_rnn_cell/cell_0/lstm_cell/kernel"
      }
    }
  }
  attr {
    key: "dtype"
    value {
      type: DT_FLOAT
    }
  }
  attr {
    key: "seed"
    value {
      i: 0
    }
  }
  attr {
    key: "seed2"
    value {
      i: 82
    }
  }
}
node {
  name: "cudnn_lstm/rnn/multi_rnn_cell/cell_0/lstm_cell/kernel/Initializer/random_uniform/sub"
  op: "Sub"
  input: "cudnn_lstm/rnn/multi_rnn_cell/cell_0/lstm_cell/kernel/Initializer/random_uniform/max"
  input: "cudnn_lstm/rnn/multi_rnn_cell/cell_0/lstm_cell/kernel/Initializer/random_uniform/min"
  attr {
    key: "T"
    value {
      type: DT_FLOAT
    }
  }
  attr {
    key: "_class"
    value {
      list {
        s: "loc:@cudnn_lstm/rnn/multi_rnn_cell/cell_0/lstm_cell/kernel"
      }
    }
  }
}
node {
  name: "cudnn_lstm/rnn/multi_rnn_cell/cell_0/lstm_cell/kernel/Initializer/random_uniform/mul"
  op: "Mul"
  input: "cudnn_lstm/rnn/multi_rnn_cell/cell_0/lstm_cell/kernel/Initializer/random_uniform/RandomUniform"
  input: "cudnn_lstm/rnn/multi_rnn_cell/cell_0/lstm_cell/kernel/Initializer/random_uniform/sub"
  attr {
    key: "T"
    value {
      type: DT_FLOAT
    }
  }
  attr {
    key: "_class"
    value {
      list {
        s: "loc:@cudnn_lstm/rnn/multi_rnn_cell/cell_0/lstm_cell/kernel"
      }
    }
  }
}
node {
  name: "cudnn_lstm/rnn/multi_rnn_cell/cell_0/lstm_cell/kernel/Initializer/random_uniform"
  op: "Add"
  input: "cudnn_lstm/rnn/multi_rnn_cell/cell_0/lstm_cell/kernel/Initializer/random_uniform/mul"
  input: "cudnn_lstm/rnn/multi_rnn_cell/cell_0/lstm_cell/kernel/Initializer/random_uniform/min"
  attr {
    key: "T"
    value {
      type: DT_FLOAT
    }
  }
  attr {
    key: "_class"
    value {
      list {
        s: "loc:@cudnn_lstm/rnn/multi_rnn_cell/cell_0/lstm_cell/kernel"
      }
    }
  }
}
node {
  name: "cudnn_lstm/rnn/multi_rnn_cell/cell_0/lstm_cell/kernel"
  op: "VariableV2"
  attr {
    key: "_class"
    value {
      list {
        s: "loc:@cudnn_lstm/rnn/multi_rnn_cell/cell_0/lstm_cell/kernel"
      }
    }
  }
  attr {
    key: "container"
    value {
      s: ""
    }
  }
  attr {
    key: "dtype"
    value {
      type: DT_FLOAT
    }
  }
  attr {
    key: "shape"
    value {
      shape {
        dim {
          size: 20
        }
        dim {
          size: 64
        }
      }
    }
  }
  attr {
    key: "shared_name"
    value {
      s: ""
    }
  }
}
node {
  name: "cudnn_lstm/rnn/multi_rnn_cell/cell_0/lstm_cell/kernel/Assign"
  op: "Assign"
  input: "cudnn_lstm/rnn/multi_rnn_cell/cell_0/lstm_cell/kernel"
  input: "cudnn_lstm/rnn/multi_rnn_cell/cell_0/lstm_cell/kernel/Initializer/random_uniform"
  attr {
    key: "T"
    value {
      type: DT_FLOAT
    }
  }
  attr {
    key: "_class"
    value {
      list {
        s: "loc:@cudnn_lstm/rnn/multi_rnn_cell/cell_0/lstm_cell/kernel"
      }
    }
  }
  attr {
    key: "use_locking"
    value {
      b: true
    }
  }
  attr {
    key: "validate_shape"
    value {
      b: true
    }
  }
}
node {
  name: "cudnn_lstm/rnn/multi_rnn_cell/cell_0/lstm_cell/kernel/read"
  op: "Identity"
  input: "cudnn_lstm/rnn/multi_rnn_cell/cell_0/lstm_cell/kernel"
  attr {
    key: "T"
    value {
      type: DT_FLOAT
    }
  }
}
node {
  name: "cudnn_lstm/rnn/multi_rnn_cell/cell_0/lstm_cell/bias/Initializer/zeros"
  op: "Const"
  attr {
    key: "_class"
    value {
      list {
        s: "loc:@cudnn_lstm/rnn/multi_rnn_cell/cell_0/lstm_cell/bias"
      }
    }
  }
  attr {
    key: "dtype"
    value {
      type: DT_FLOAT
    }
  }
  attr {
    key: "value"
    value {
      tensor {
        dtype: DT_FLOAT
        tensor_shape {
          dim {
            size: 64
          }
        }
        float_val: 0.0
      }
    }
  }
}
node {
  name: "cudnn_lstm/rnn/multi_rnn_cell/cell_0/lstm_cell/bias"
  op: "VariableV2"
  attr {
    key: "_class"
    value {
      list {
        s: "loc:@cudnn_lstm/rnn/multi_rnn_cell/cell_0/lstm_cell/bias"
      }
    }
  }
  attr {
    key: "container"
    value {
      s: ""
    }
  }
  attr {
    key: "dtype"
    value {
      type: DT_FLOAT
    }
  }
  attr {
    key: "shape"
    value {
      shape {
        dim {
          size: 64
        }
      }
    }
  }
  attr {
    key: "shared_name"
    value {
      s: ""
    }
  }
}
node {
  name: "cudnn_lstm/rnn/multi_rnn_cell/cell_0/lstm_cell/bias/Assign"
  op: "Assign"
  input: "cudnn_lstm/rnn/multi_rnn_cell/cell_0/lstm_cell/bias"
  input: "cudnn_lstm/rnn/multi_rnn_cell/cell_0/lstm_cell/bias/Initializer/zeros"
  attr {
    key: "T"
    value {
      type: DT_FLOAT
    }
  }
  attr {
    key: "_class"
    value {
      list {
        s: "loc:@cudnn_lstm/rnn/multi_rnn_cell/cell_0/lstm_cell/bias"
      }
    }
  }
  attr {
    key: "use_locking"
    value {
      b: true
    }
  }
  attr {
    key: "validate_shape"
    value {
      b: true
    }
  }
}
node {
  name: "cudnn_lstm/rnn/multi_rnn_cell/cell_0/lstm_cell/bias/read"
  op: "Identity"
  input: "cudnn_lstm/rnn/multi_rnn_cell/cell_0/lstm_cell/bias"
  attr {
    key: "T"
    value {
      type: DT_FLOAT
    }
  }
}
node {
  name: "cudnn_lstm/rnn/while/rnn/multi_rnn_cell/cell_0/lstm_cell/concat/axis"
  op: "Const"
  input: "^cudnn_lstm/rnn/while/Identity"
  attr {
    key: "dtype"
    value {
      type: DT_INT32
    }
  }
  attr {
    key: "value"
    value {
      tensor {
        dtype: DT_INT32
        tensor_shape {
        }
        int_val: 1
      }
    }
  }
}
node {
  name: "cudnn_lstm/rnn/while/rnn/multi_rnn_cell/cell_0/lstm_cell/concat"
  op: "ConcatV2"
  input: "cudnn_lstm/rnn/while/TensorArrayReadV3"
  input: "cudnn_lstm/rnn/while/Identity_4"
  input: "cudnn_lstm/rnn/while/rnn/multi_rnn_cell/cell_0/lstm_cell/concat/axis"
  attr {
    key: "N"
    value {
      i: 2
    }
  }
  attr {
    key: "T"
    value {
      type: DT_FLOAT
    }
  }
  attr {
    key: "Tidx"
    value {
      type: DT_INT32
    }
  }
}
node {
  name: "cudnn_lstm/rnn/while/rnn/multi_rnn_cell/cell_0/lstm_cell/MatMul"
  op: "MatMul"
  input: "cudnn_lstm/rnn/while/rnn/multi_rnn_cell/cell_0/lstm_cell/concat"
  input: "cudnn_lstm/rnn/while/rnn/multi_rnn_cell/cell_0/lstm_cell/MatMul/Enter"
  attr {
    key: "T"
    value {
      type: DT_FLOAT
    }
  }
  attr {
    key: "transpose_a"
    value {
      b: false
    }
  }
  attr {
    key: "transpose_b"
    value {
      b: false
    }
  }
}
node {
  name: "cudnn_lstm/rnn/while/rnn/multi_rnn_cell/cell_0/lstm_cell/MatMul/Enter"
  op: "Enter"
  input: "cudnn_lstm/rnn/multi_rnn_cell/cell_0/lstm_cell/kernel/read"
  attr {
    key: "T"
    value {
      type: DT_FLOAT
    }
  }
  attr {
    key: "frame_name"
    value {
      s: "cudnn_lstm/rnn/while/while_context"
    }
  }
  attr {
    key: "is_constant"
    value {
      b: true
    }
  }
  attr {
    key: "parallel_iterations"
    value {
      i: 32
    }
  }
}
node {
  name: "cudnn_lstm/rnn/while/rnn/multi_rnn_cell/cell_0/lstm_cell/BiasAdd"
  op: "BiasAdd"
  input: "cudnn_lstm/rnn/while/rnn/multi_rnn_cell/cell_0/lstm_cell/MatMul"
  input: "cudnn_lstm/rnn/while/rnn/multi_rnn_cell/cell_0/lstm_cell/BiasAdd/Enter"
  attr {
    key: "T"
    value {
      type: DT_FLOAT
    }
  }
  attr {
    key: "data_format"
    value {
      s: "NHWC"
    }
  }
}
node {
  name: "cudnn_lstm/rnn/while/rnn/multi_rnn_cell/cell_0/lstm_cell/BiasAdd/Enter"
  op: "Enter"
  input: "cudnn_lstm/rnn/multi_rnn_cell/cell_0/lstm_cell/bias/read"
  attr {
    key: "T"
    value {
      type: DT_FLOAT
    }
  }
  attr {
    key: "frame_name"
    value {
      s: "cudnn_lstm/rnn/while/while_context"
    }
  }
  attr {
    key: "is_constant"
    value {
      b: true
    }
  }
  attr {
    key: "parallel_iterations"
    value {
      i: 32
    }
  }
}
node {
  name: "cudnn_lstm/rnn/while/rnn/multi_rnn_cell/cell_0/lstm_cell/Const"
  op: "Const"
  input: "^cudnn_lstm/rnn/while/Identity"
  attr {
    key: "dtype"
    value {
      type: DT_INT32
    }
  }
  attr {
    key: "value"
    value {
      tensor {
        dtype: DT_INT32
        tensor_shape {
        }
        int_val: 4
      }
    }
  }
}
node {
  name: "cudnn_lstm/rnn/while/rnn/multi_rnn_cell/cell_0/lstm_cell/split/split_dim"
  op: "Const"
  input: "^cudnn_lstm/rnn/while/Identity"
  attr {
    key: "dtype"
    value {
      type: DT_INT32
    }
  }
  attr {
    key: "value"
    value {
      tensor {
        dtype: DT_INT32
        tensor_shape {
        }
        int_val: 1
      }
    }
  }
}
node {
  name: "cudnn_lstm/rnn/while/rnn/multi_rnn_cell/cell_0/lstm_cell/split"
  op: "Split"
  input: "cudnn_lstm/rnn/while/rnn/multi_rnn_cell/cell_0/lstm_cell/split/split_dim"
  input: "cudnn_lstm/rnn/while/rnn/multi_rnn_cell/cell_0/lstm_cell/BiasAdd"
  attr {
    key: "T"
    value {
      type: DT_FLOAT
    }
  }
  attr {
    key: "num_split"
    value {
      i: 4
    }
  }
}
node {
  name: "cudnn_lstm/rnn/while/rnn/multi_rnn_cell/cell_0/lstm_cell/add/y"
  op: "Const"
  input: "^cudnn_lstm/rnn/while/Identity"
  attr {
    key: "dtype"
    value {
      type: DT_FLOAT
    }
  }
  attr {
    key: "value"
    value {
      tensor {
        dtype: DT_FLOAT
        tensor_shape {
        }
        float_val: 1.0
      }
    }
  }
}
node {
  name: "cudnn_lstm/rnn/while/rnn/multi_rnn_cell/cell_0/lstm_cell/add"
  op: "Add"
  input: "cudnn_lstm/rnn/while/rnn/multi_rnn_cell/cell_0/lstm_cell/split:2"
  input: "cudnn_lstm/rnn/while/rnn/multi_rnn_cell/cell_0/lstm_cell/add/y"
  attr {
    key: "T"
    value {
      type: DT_FLOAT
    }
  }
}
node {
  name: "cudnn_lstm/rnn/while/rnn/multi_rnn_cell/cell_0/lstm_cell/Sigmoid"
  op: "Sigmoid"
  input: "cudnn_lstm/rnn/while/rnn/multi_rnn_cell/cell_0/lstm_cell/add"
  attr {
    key: "T"
    value {
      type: DT_FLOAT
    }
  }
}
node {
  name: "cudnn_lstm/rnn/while/rnn/multi_rnn_cell/cell_0/lstm_cell/mul"
  op: "Mul"
  input: "cudnn_lstm/rnn/while/rnn/multi_rnn_cell/cell_0/lstm_cell/Sigmoid"
  input: "cudnn_lstm/rnn/while/Identity_3"
  attr {
    key: "T"
    value {
      type: DT_FLOAT
    }
  }
}
node {
  name: "cudnn_lstm/rnn/while/rnn/multi_rnn_cell/cell_0/lstm_cell/Sigmoid_1"
  op: "Sigmoid"
  input: "cudnn_lstm/rnn/while/rnn/multi_rnn_cell/cell_0/lstm_cell/split"
  attr {
    key: "T"
    value {
      type: DT_FLOAT
    }
  }
}
node {
  name: "cudnn_lstm/rnn/while/rnn/multi_rnn_cell/cell_0/lstm_cell/Tanh"
  op: "Tanh"
  input: "cudnn_lstm/rnn/while/rnn/multi_rnn_cell/cell_0/lstm_cell/split:1"
  attr {
    key: "T"
    value {
      type: DT_FLOAT
    }
  }
}
node {
  name: "cudnn_lstm/rnn/while/rnn/multi_rnn_cell/cell_0/lstm_cell/mul_1"
  op: "Mul"
  input: "cudnn_lstm/rnn/while/rnn/multi_rnn_cell/cell_0/lstm_cell/Sigmoid_1"
  input: "cudnn_lstm/rnn/while/rnn/multi_rnn_cell/cell_0/lstm_cell/Tanh"
  attr {
    key: "T"
    value {
      type: DT_FLOAT
    }
  }
}
node {
  name: "cudnn_lstm/rnn/while/rnn/multi_rnn_cell/cell_0/lstm_cell/add_1"
  op: "Add"
  input: "cudnn_lstm/rnn/while/rnn/multi_rnn_cell/cell_0/lstm_cell/mul"
  input: "cudnn_lstm/rnn/while/rnn/multi_rnn_cell/cell_0/lstm_cell/mul_1"
  attr {
    key: "T"
    value {
      type: DT_FLOAT
    }
  }
}
node {
  name: "cudnn_lstm/rnn/while/rnn/multi_rnn_cell/cell_0/lstm_cell/Sigmoid_2"
  op: "Sigmoid"
  input: "cudnn_lstm/rnn/while/rnn/multi_rnn_cell/cell_0/lstm_cell/split:3"
  attr {
    key: "T"
    value {
      type: DT_FLOAT
    }
  }
}
node {
  name: "cudnn_lstm/rnn/while/rnn/multi_rnn_cell/cell_0/lstm_cell/Tanh_1"
  op: "Tanh"
  input: "cudnn_lstm/rnn/while/rnn/multi_rnn_cell/cell_0/lstm_cell/add_1"
  attr {
    key: "T"
    value {
      type: DT_FLOAT
    }
  }
}
node {
  name: "cudnn_lstm/rnn/while/rnn/multi_rnn_cell/cell_0/lstm_cell/mul_2"
  op: "Mul"
  input: "cudnn_lstm/rnn/while/rnn/multi_rnn_cell/cell_0/lstm_cell/Sigmoid_2"
  input: "cudnn_lstm/rnn/while/rnn/multi_rnn_cell/cell_0/lstm_cell/Tanh_1"
  attr {
    key: "T"
    value {
      type: DT_FLOAT
    }
  }
}
node {
  name: "cudnn_lstm/rnn/while/TensorArrayWrite/TensorArrayWriteV3"
  op: "TensorArrayWriteV3"
  input: "cudnn_lstm/rnn/while/TensorArrayWrite/TensorArrayWriteV3/Enter"
  input: "cudnn_lstm/rnn/while/Identity_1"
  input: "cudnn_lstm/rnn/while/rnn/multi_rnn_cell/cell_0/lstm_cell/mul_2"
  input: "cudnn_lstm/rnn/while/Identity_2"
  attr {
    key: "T"
    value {
      type: DT_FLOAT
    }
  }
  attr {
    key: "_class"
    value {
      list {
        s: "loc:@cudnn_lstm/rnn/while/rnn/multi_rnn_cell/cell_0/lstm_cell/mul_2"
      }
    }
  }
}
node {
  name: "cudnn_lstm/rnn/while/TensorArrayWrite/TensorArrayWriteV3/Enter"
  op: "Enter"
  input: "cudnn_lstm/rnn/TensorArray"
  attr {
    key: "T"
    value {
      type: DT_RESOURCE
    }
  }
  attr {
    key: "_class"
    value {
      list {
        s: "loc:@cudnn_lstm/rnn/while/rnn/multi_rnn_cell/cell_0/lstm_cell/mul_2"
      }
    }
  }
  attr {
    key: "frame_name"
    value {
      s: "cudnn_lstm/rnn/while/while_context"
    }
  }
  attr {
    key: "is_constant"
    value {
      b: true
    }
  }
  attr {
    key: "parallel_iterations"
    value {
      i: 32
    }
  }
}
node {
  name: "cudnn_lstm/rnn/while/add_1/y"
  op: "Const"
  input: "^cudnn_lstm/rnn/while/Identity"
  attr {
    key: "dtype"
    value {
      type: DT_INT32
    }
  }
  attr {
    key: "value"
    value {
      tensor {
        dtype: DT_INT32
        tensor_shape {
        }
        int_val: 1
      }
    }
  }
}
node {
  name: "cudnn_lstm/rnn/while/add_1"
  op: "Add"
  input: "cudnn_lstm/rnn/while/Identity_1"
  input: "cudnn_lstm/rnn/while/add_1/y"
  attr {
    key: "T"
    value {
      type: DT_INT32
    }
  }
}
node {
  name: "cudnn_lstm/rnn/while/NextIteration"
  op: "NextIteration"
  input: "cudnn_lstm/rnn/while/add"
  attr {
    key: "T"
    value {
      type: DT_INT32
    }
  }
}
node {
  name: "cudnn_lstm/rnn/while/NextIteration_1"
  op: "NextIteration"
  input: "cudnn_lstm/rnn/while/add_1"
  attr {
    key: "T"
    value {
      type: DT_INT32
    }
  }
}
node {
  name: "cudnn_lstm/rnn/while/NextIteration_2"
  op: "NextIteration"
  input: "cudnn_lstm/rnn/while/TensorArrayWrite/TensorArrayWriteV3"
  attr {
    key: "T"
    value {
      type: DT_FLOAT
    }
  }
}
node {
  name: "cudnn_lstm/rnn/while/NextIteration_3"
  op: "NextIteration"
  input: "cudnn_lstm/rnn/while/rnn/multi_rnn_cell/cell_0/lstm_cell/add_1"
  attr {
    key: "T"
    value {
      type: DT_FLOAT
    }
  }
}
node {
  name: "cudnn_lstm/rnn/while/NextIteration_4"
  op: "NextIteration"
  input: "cudnn_lstm/rnn/while/rnn/multi_rnn_cell/cell_0/lstm_cell/mul_2"
  attr {
    key: "T"
    value {
      type: DT_FLOAT
    }
  }
}
node {
  name: "cudnn_lstm/rnn/while/Exit"
  op: "Exit"
  input: "cudnn_lstm/rnn/while/Switch"
  attr {
    key: "T"
    value {
      type: DT_INT32
    }
  }
}
node {
  name: "cudnn_lstm/rnn/while/Exit_1"
  op: "Exit"
  input: "cudnn_lstm/rnn/while/Switch_1"
  attr {
    key: "T"
    value {
      type: DT_INT32
    }
  }
}
node {
  name: "cudnn_lstm/rnn/while/Exit_2"
  op: "Exit"
  input: "cudnn_lstm/rnn/while/Switch_2"
  attr {
    key: "T"
    value {
      type: DT_FLOAT
    }
  }
}
node {
  name: "cudnn_lstm/rnn/while/Exit_3"
  op: "Exit"
  input: "cudnn_lstm/rnn/while/Switch_3"
  attr {
    key: "T"
    value {
      type: DT_FLOAT
    }
  }
}
node {
  name: "cudnn_lstm/rnn/while/Exit_4"
  op: "Exit"
  input: "cudnn_lstm/rnn/while/Switch_4"
  attr {
    key: "T"
    value {
      type: DT_FLOAT
    }
  }
}
node {
  name: "cudnn_lstm/rnn/TensorArrayStack/TensorArraySizeV3"
  op: "TensorArraySizeV3"
  input: "cudnn_lstm/rnn/TensorArray"
  input: "cudnn_lstm/rnn/while/Exit_2"
  attr {
    key: "_class"
    value {
      list {
        s: "loc:@cudnn_lstm/rnn/TensorArray"
      }
    }
  }
}
node {
  name: "cudnn_lstm/rnn/TensorArrayStack/range/start"
  op: "Const"
  attr {
    key: "_class"
    value {
      list {
        s: "loc:@cudnn_lstm/rnn/TensorArray"
      }
    }
  }
  attr {
    key: "dtype"
    value {
      type: DT_INT32
    }
  }
  attr {
    key: "value"
    value {
      tensor {
        dtype: DT_INT32
        tensor_shape {
        }
        int_val: 0
      }
    }
  }
}
node {
  name: "cudnn_lstm/rnn/TensorArrayStack/range/delta"
  op: "Const"
  attr {
    key: "_class"
    value {
      list {
        s: "loc:@cudnn_lstm/rnn/TensorArray"
      }
    }
  }
  attr {
    key: "dtype"
    value {
      type: DT_INT32
    }
  }
  attr {
    key: "value"
    value {
      tensor {
        dtype: DT_INT32
        tensor_shape {
        }
        int_val: 1
      }
    }
  }
}
node {
  name: "cudnn_lstm/rnn/TensorArrayStack/range"
  op: "Range"
  input: "cudnn_lstm/rnn/TensorArrayStack/range/start"
  input: "cudnn_lstm/rnn/TensorArrayStack/TensorArraySizeV3"
  input: "cudnn_lstm/rnn/TensorArrayStack/range/delta"
  attr {
    key: "Tidx"
    value {
      type: DT_INT32
    }
  }
  attr {
    key: "_class"
    value {
      list {
        s: "loc:@cudnn_lstm/rnn/TensorArray"
      }
    }
  }
}
node {
  name: "cudnn_lstm/rnn/TensorArrayStack/TensorArrayGatherV3"
  op: "TensorArrayGatherV3"
  input: "cudnn_lstm/rnn/TensorArray"
  input: "cudnn_lstm/rnn/TensorArrayStack/range"
  input: "cudnn_lstm/rnn/while/Exit_2"
  attr {
    key: "_class"
    value {
      list {
        s: "loc:@cudnn_lstm/rnn/TensorArray"
      }
    }
  }
  attr {
    key: "dtype"
    value {
      type: DT_FLOAT
    }
  }
  attr {
    key: "element_shape"
    value {
      shape {
        dim {
          size: -1
        }
        dim {
          size: 16
        }
      }
    }
  }
}
node {
  name: "cudnn_lstm/rnn/Const_1"
  op: "Const"
  attr {
    key: "dtype"
    value {
      type: DT_INT32
    }
  }
  attr {
    key: "value"
    value {
      tensor {
        dtype: DT_INT32
        tensor_shape {
          dim {
            size: 1
          }
        }
        int_val: 16
      }
    }
  }
}
node {
  name: "cudnn_lstm/stack"
  op: "Pack"
  input: "cudnn_lstm/rnn/while/Exit_3"
  input: "cudnn_lstm/rnn/while/Exit_4"
  attr {
    key: "N"
    value {
      i: 2
    }
  }
  attr {
    key: "T"
    value {
      type: DT_FLOAT
    }
  }
  attr {
    key: "axis"
    value {
      i: 0
    }
  }
}
node {
  name: "cudnn_lstm/output_state"
  op: "Pack"
  input: "cudnn_lstm/stack"
  attr {
    key: "N"
    value {
      i: 1
    }
  }
  attr {
    key: "T"
    value {
      type: DT_FLOAT
    }
  }
  attr {
    key: "axis"
    value {
      i: 0
    }
  }
}
node {
  name: "logits/kernel/Initializer/random_uniform/shape"
  op: "Const"
  attr {
    key: "_class"
    value {
      list {
        s: "loc:@logits/kernel"
      }
    }
  }
  attr {
    key: "dtype"
    value {
      type: DT_INT32
    }
  }
  attr {
    key: "value"
    value {
      tensor {
        dtype: DT_INT32
        tensor_shape {
          dim {
            size: 2
          }
        }
        tensor_content: "\020\000\000\000\004\000\000\000"
      }
    }
  }
}
node {
  name: "logits/kernel/Initializer/random_uniform/min"
  op: "Const"
  attr {
    key: "_class"
    value {
      list {
        s: "loc:@logits/kernel"
      }
    }
  }
  attr {
    key: "dtype"
    value {
      type: DT_FLOAT
    }
  }
  attr {
    key: "value"
    value {
      tensor {
        dtype: DT_FLOAT
        tensor_shape {
        }
        float_val: -0.547722578048706
      }
    }
  }
}
node {
  name: "logits/kernel/Initializer/random_uniform/max"
  op: "Const"
  attr {
    key: "_class"
    value {
      list {
        s: "loc:@logits/kernel"
      }
    }
  }
  attr {
    key: "dtype"
    value {
      type: DT_FLOAT
    }
  }
  attr {
    key: "value"
    value {
      tensor {
        dtype: DT_FLOAT
        tensor_shape {
        }
        float_val: 0.547722578048706
      }
    }
  }
}
node {
  name: "logits/kernel/Initializer/random_uniform/RandomUniform"
  op: "RandomUniform"
  input: "logits/kernel/Initializer/random_uniform/shape"
  attr {
    key: "T"
    value {
      type: DT_INT32
    }
  }
  attr {
    key: "_class"
    value {
      list {
        s: "loc:@logits/kernel"
      }
    }
  }
  attr {
    key: "dtype"
    value {
      type: DT_FLOAT
    }
  }
  attr {
    key: "seed"
    value {
      i: 0
    }
  }
  attr {
    key: "seed2"
    value {
      i: 138
    }
  }
}
node {
  name: "logits/kernel/Initializer/random_uniform/sub"
  op: "Sub"
  input: "logits/kernel/Initializer/random_uniform/max"
  input: "logits/kernel/Initializer/random_uniform/min"
  attr {
    key: "T"
    value {
      type: DT_FLOAT
    }
  }
  attr {
    key: "_class"
    value {
      list {
        s: "loc:@logits/kernel"
      }
    }
  }
}
node {
  name: "logits/kernel/Initializer/random_uniform/mul"
  op: "Mul"
  input: "logits/kernel/Initializer/random_uniform/RandomUniform"
  input: "logits/kernel/Initializer/random_uniform/sub"
  attr {
    key: "T"
    value {
      type: DT_FLOAT
    }
  }
  attr {
    key: "_class"
    value {
      list {
        s: "loc:@logits/kernel"
      }
    }
  }
}
node {
  name: "logits/kernel/Initializer/random_uniform"
  op: "Add"
  input: "logits/kernel/Initializer/random_uniform/mul"
  input: "logits/kernel/Initializer/random_uniform/min"
  attr {
    key: "T"
    value {
      type: DT_FLOAT
    }
  }
  attr {
    key: "_class"
    value {
      list {
        s: "loc:@logits/kernel"
      }
    }
  }
}
node {
  name: "logits/kernel"
  op: "VariableV2"
  attr {
    key: "_class"
    value {
      list {
        s: "loc:@logits/kernel"
      }
    }
  }
  attr {
    key: "container"
    value {
      s: ""
    }
  }
  attr {
    key: "dtype"
    value {
      type: DT_FLOAT
    }
  }
  attr {
    key: "shape"
    value {
      shape {
        dim {
          size: 16
        }
        dim {
          size: 4
        }
      }
    }
  }
  attr {
    key: "shared_name"
    value {
      s: ""
    }
  }
}
node {
  name: "logits/kernel/Assign"
  op: "Assign"
  input: "logits/kernel"
  input: "logits/kernel/Initializer/random_uniform"
  attr {
    key: "T"
    value {
      type: DT_FLOAT
    }
  }
  attr {
    key: "_class"
    value {
      list {
        s: "loc:@logits/kernel"
      }
    }
  }
  attr {
    key: "use_locking"
    value {
      b: true
    }
  }
  attr {
    key: "validate_shape"
    value {
      b: true
    }
  }
}
node {
  name: "logits/kernel/read"
  op: "Identity"
  input: "logits/kernel"
  attr {
    key: "T"
    value {
      type: DT_FLOAT
    }
  }
  attr {
    key: "_class"
    value {
      list {
        s: "loc:@logits/kernel"
      }
    }
  }
}
node {
  name: "logits/bias/Initializer/zeros"
  op: "Const"
  attr {
    key: "_class"
    value {
      list {
        s: "loc:@logits/bias"
      }
    }
  }
  attr {
    key: "dtype"
    value {
      type: DT_FLOAT
    }
  }
  attr {
    key: "value"
    value {
      tensor {
        dtype: DT_FLOAT
        tensor_shape {
          dim {
            size: 4
          }
        }
        float_val: 0.0
      }
    }
  }
}
node {
  name: "logits/bias"
  op: "VariableV2"
  attr {
    key: "_class"
    value {
      list {
        s: "loc:@logits/bias"
      }
    }
  }
  attr {
    key: "container"
    value {
      s: ""
    }
  }
  attr {
    key: "dtype"
    value {
      type: DT_FLOAT
    }
  }
  attr {
    key: "shape"
    value {
      shape {
        dim {
          size: 4
        }
      }
    }
  }
  attr {
    key: "shared_name"
    value {
      s: ""
    }
  }
}
node {
  name: "logits/bias/Assign"
  op: "Assign"
  input: "logits/bias"
  input: "logits/bias/Initializer/zeros"
  attr {
    key: "T"
    value {
      type: DT_FLOAT
    }
  }
  attr {
    key: "_class"
    value {
      list {
        s: "loc:@logits/bias"
      }
    }
  }
  attr {
    key: "use_locking"
    value {
      b: true
    }
  }
  attr {
    key: "validate_shape"
    value {
      b: true
    }
  }
}
node {
  name: "logits/bias/read"
  op: "Identity"
  input: "logits/bias"
  attr {
    key: "T"
    value {
      type: DT_FLOAT
    }
  }
  attr {
    key: "_class"
    value {
      list {
        s: "loc:@logits/bias"
      }
    }
  }
}
node {
  name: "logits/Tensordot/Shape"
  op: "Shape"
  input: "cudnn_lstm/rnn/TensorArrayStack/TensorArrayGatherV3"
  attr {
    key: "T"
    value {
      type: DT_FLOAT
    }
  }
  attr {
    key: "out_type"
    value {
      type: DT_INT32
    }
  }
}
node {
  name: "logits/Tensordot/Rank"
  op: "Const"
  attr {
    key: "dtype"
    value {
      type: DT_INT32
    }
  }
  attr {
    key: "value"
    value {
      tensor {
        dtype: DT_INT32
        tensor_shape {
        }
        int_val: 3
      }
    }
  }
}
node {
  name: "logits/Tensordot/axes"
  op: "Const"
  attr {
    key: "dtype"
    value {
      type: DT_INT32
    }
  }
  attr {
    key: "value"
    value {
      tensor {
        dtype: DT_INT32
        tensor_shape {
          dim {
            size: 1
          }
        }
        int_val: 2
      }
    }
  }
}
node {
  name: "logits/Tensordot/GreaterEqual/y"
  op: "Const"
  attr {
    key: "dtype"
    value {
      type: DT_INT32
    }
  }
  attr {
    key: "value"
    value {
      tensor {
        dtype: DT_INT32
        tensor_shape {
        }
        int_val: 0
      }
    }
  }
}
node {
  name: "logits/Tensordot/GreaterEqual"
  op: "GreaterEqual"
  input: "logits/Tensordot/axes"
  input: "logits/Tensordot/GreaterEqual/y"
  attr {
    key: "T"
    value {
      type: DT_INT32
    }
  }
}
node {
  name: "logits/Tensordot/Cast"
  op: "Cast"
  input: "logits/Tensordot/GreaterEqual"
  attr {
    key: "DstT"
    value {
      type: DT_INT32
    }
  }
  attr {
    key: "SrcT"
    value {
      type: DT_BOOL
    }
  }
}
node {
  name: "logits/Tensordot/mul"
  op: "Mul"
  input: "logits/Tensordot/Cast"
  input: "logits/Tensordot/axes"
  attr {
    key: "T"
    value {
      type: DT_INT32
    }
  }
}
node {
  name: "logits/Tensordot/Less/y"
  op: "Const"
  attr {
    key: "dtype"
    value {
      type: DT_INT32
    }
  }
  attr {
    key: "value"
    value {
      tensor {
        dtype: DT_INT32
        tensor_shape {
        }
        int_val: 0
      }
    }
  }
}
node {
  name: "logits/Tensordot/Less"
  op: "Less"
  input: "logits/Tensordot/axes"
  input: "logits/Tensordot/Less/y"
  attr {
    key: "T"
    value {
      type: DT_INT32
    }
  }
}
node {
  name: "logits/Tensordot/Cast_1"
  op: "Cast"
  input: "logits/Tensordot/Less"
  attr {
    key: "DstT"
    value {
      type: DT_INT32
    }
  }
  attr {
    key: "SrcT"
    value {
      type: DT_BOOL
    }
  }
}
node {
  name: "logits/Tensordot/add"
  op: "Add"
  input: "logits/Tensordot/axes"
  input: "logits/Tensordot/Rank"
  attr {
    key: "T"
    value {
      type: DT_INT32
    }
  }
}
node {
  name: "logits/Tensordot/mul_1"
  op: "Mul"
  input: "logits/Tensordot/Cast_1"
  input: "logits/Tensordot/add"
  attr {
    key: "T"
    value {
      type: DT_INT32
    }
  }
}
node {
  name: "logits/Tensordot/add_1"
  op: "Add"
  input: "logits/Tensordot/mul"
  input: "logits/Tensordot/mul_1"
  attr {
    key: "T"
    value {
      type: DT_INT32
    }
  }
}
node {
  name: "logits/Tensordot/range/start"
  op: "Const"
  attr {
    key: "dtype"
    value {
      type: DT_INT32
    }
  }
  attr {
    key: "value"
    value {
      tensor {
        dtype: DT_INT32
        tensor_shape {
        }
        int_val: 0
      }
    }
  }
}
node {
  name: "logits/Tensordot/range/delta"
  op: "Const"
  attr {
    key: "dtype"
    value {
      type: DT_INT32
    }
  }
  attr {
    key: "value"
    value {
      tensor {
        dtype: DT_INT32
        tensor_shape {
        }
        int_val: 1
      }
    }
  }
}
node {
  name: "logits/Tensordot/range"
  op: "Range"
  input: "logits/Tensordot/range/start"
  input: "logits/Tensordot/Rank"
  input: "logits/Tensordot/range/delta"
  attr {
    key: "Tidx"
    value {
      type: DT_INT32
    }
  }
}
node {
  name: "logits/Tensordot/ListDiff"
  op: "ListDiff"
  input: "logits/Tensordot/range"
  input: "logits/Tensordot/add_1"
  attr {
    key: "T"
    value {
      type: DT_INT32
    }
  }
  attr {
    key: "out_idx"
    value {
      type: DT_INT32
    }
  }
}
node {
  name: "logits/Tensordot/GatherV2/axis"
  op: "Const"
  attr {
    key: "dtype"
    value {
      type: DT_INT32
    }
  }
  attr {
    key: "value"
    value {
      tensor {
        dtype: DT_INT32
        tensor_shape {
        }
        int_val: 0
      }
    }
  }
}
node {
  name: "logits/Tensordot/GatherV2"
  op: "GatherV2"
  input: "logits/Tensordot/Shape"
  input: "logits/Tensordot/ListDiff"
  input: "logits/Tensordot/GatherV2/axis"
  attr {
    key: "Taxis"
    value {
      type: DT_INT32
    }
  }
  attr {
    key: "Tindices"
    value {
      type: DT_INT32
    }
  }
  attr {
    key: "Tparams"
    value {
      type: DT_INT32
    }
  }
}
node {
  name: "logits/Tensordot/GatherV2_1/axis"
  op: "Const"
  attr {
    key: "dtype"
    value {
      type: DT_INT32
    }
  }
  attr {
    key: "value"
    value {
      tensor {
        dtype: DT_INT32
        tensor_shape {
        }
        int_val: 0
      }
    }
  }
}
node {
  name: "logits/Tensordot/GatherV2_1"
  op: "GatherV2"
  input: "logits/Tensordot/Shape"
  input: "logits/Tensordot/add_1"
  input: "logits/Tensordot/GatherV2_1/axis"
  attr {
    key: "Taxis"
    value {
      type: DT_INT32
    }
  }
  attr {
    key: "Tindices"
    value {
      type: DT_INT32
    }
  }
  attr {
    key: "Tparams"
    value {
      type: DT_INT32
    }
  }
}
node {
  name: "logits/Tensordot/Const"
  op: "Const"
  attr {
    key: "dtype"
    value {
      type: DT_INT32
    }
  }
  attr {
    key: "value"
    value {
      tensor {
        dtype: DT_INT32
        tensor_shape {
          dim {
            size: 1
          }
        }
        int_val: 0
      }
    }
  }
}
node {
  name: "logits/Tensordot/Prod"
  op: "Prod"
  input: "logits/Tensordot/GatherV2"
  input: "logits/Tensordot/Const"
  attr {
    key: "T"
    value {
      type: DT_INT32
    }
  }
  attr {
    key: "Tidx"
    value {
      type: DT_INT32
    }
  }
  attr {
    key: "keep_dims"
    value {
      b: false
    }
  }
}
node {
  name: "logits/Tensordot/Const_1"
  op: "Const"
  attr {
    key: "dtype"
    value {
      type: DT_INT32
    }
  }
  attr {
    key: "value"
    value {
      tensor {
        dtype: DT_INT32
        tensor_shape {
          dim {
            size: 1
          }
        }
        int_val: 0
      }
    }
  }
}
node {
  name: "logits/Tensordot/Prod_1"
  op: "Prod"
  input: "logits/Tensordot/GatherV2_1"
  input: "logits/Tensordot/Const_1"
  attr {
    key: "T"
    value {
      type: DT_INT32
    }
  }
  attr {
    key: "Tidx"
    value {
      type: DT_INT32
    }
  }
  attr {
    key: "keep_dims"
    value {
      b: false
    }
  }
}
node {
  name: "logits/Tensordot/concat/axis"
  op: "Const"
  attr {
    key: "dtype"
    value {
      type: DT_INT32
    }
  }
  attr {
    key: "value"
    value {
      tensor {
        dtype: DT_INT32
        tensor_shape {
        }
        int_val: 0
      }
    }
  }
}
node {
  name: "logits/Tensordot/concat"
  op: "ConcatV2"
  input: "logits/Tensordot/GatherV2_1"
  input: "logits/Tensordot/GatherV2"
  input: "logits/Tensordot/concat/axis"
  attr {
    key: "N"
    value {
      i: 2
    }
  }
  attr {
    key: "T"
    value {
      type: DT_INT32
    }
  }
  attr {
    key: "Tidx"
    value {
      type: DT_INT32
    }
  }
}
node {
  name: "logits/Tensordot/concat_1/axis"
  op: "Const"
  attr {
    key: "dtype"
    value {
      type: DT_INT32
    }
  }
  attr {
    key: "value"
    value {
      tensor {
        dtype: DT_INT32
        tensor_shape {
        }
        int_val: 0
      }
    }
  }
}
node {
  name: "logits/Tensordot/concat_1"
  op: "ConcatV2"
  input: "logits/Tensordot/ListDiff"
  input: "logits/Tensordot/add_1"
  input: "logits/Tensordot/concat_1/axis"
  attr {
    key: "N"
    value {
      i: 2
    }
  }
  attr {
    key: "T"
    value {
      type: DT_INT32
    }
  }
  attr {
    key: "Tidx"
    value {
      type: DT_INT32
    }
  }
}
node {
  name: "logits/Tensordot/stack"
  op: "Pack"
  input: "logits/Tensordot/Prod"
  input: "logits/Tensordot/Prod_1"
  attr {
    key: "N"
    value {
      i: 2
    }
  }
  attr {
    key: "T"
    value {
      type: DT_INT32
    }
  }
  attr {
    key: "axis"
    value {
      i: 0
    }
  }
}
node {
  name: "logits/Tensordot/transpose"
  op: "Transpose"
  input: "cudnn_lstm/rnn/TensorArrayStack/TensorArrayGatherV3"
  input: "logits/Tensordot/concat_1"
  attr {
    key: "T"
    value {
      type: DT_FLOAT
    }
  }
  attr {
    key: "Tperm"
    value {
      type: DT_INT32
    }
  }
}
node {
  name: "logits/Tensordot/Reshape"
  op: "Reshape"
  input: "logits/Tensordot/transpose"
  input: "logits/Tensordot/stack"
  attr {
    key: "T"
    value {
      type: DT_FLOAT
    }
  }
  attr {
    key: "Tshape"
    value {
      type: DT_INT32
    }
  }
}
node {
  name: "logits/Tensordot/transpose_1/perm"
  op: "Const"
  attr {
    key: "dtype"
    value {
      type: DT_INT32
    }
  }
  attr {
    key: "value"
    value {
      tensor {
        dtype: DT_INT32
        tensor_shape {
          dim {
            size: 2
          }
        }
        tensor_content: "\000\000\000\000\001\000\000\000"
      }
    }
  }
}
node {
  name: "logits/Tensordot/transpose_1"
  op: "Transpose"
  input: "logits/kernel/read"
  input: "logits/Tensordot/transpose_1/perm"
  attr {
    key: "T"
    value {
      type: DT_FLOAT
    }
  }
  attr {
    key: "Tperm"
    value {
      type: DT_INT32
    }
  }
}
node {
  name: "logits/Tensordot/Reshape_1/shape"
  op: "Const"
  attr {
    key: "dtype"
    value {
      type: DT_INT32
    }
  }
  attr {
    key: "value"
    value {
      tensor {
        dtype: DT_INT32
        tensor_shape {
          dim {
            size: 2
          }
        }
        tensor_content: "\020\000\000\000\004\000\000\000"
      }
    }
  }
}
node {
  name: "logits/Tensordot/Reshape_1"
  op: "Reshape"
  input: "logits/Tensordot/transpose_1"
  input: "logits/Tensordot/Reshape_1/shape"
  attr {
    key: "T"
    value {
      type: DT_FLOAT
    }
  }
  attr {
    key: "Tshape"
    value {
      type: DT_INT32
    }
  }
}
node {
  name: "logits/Tensordot/MatMul"
  op: "MatMul"
  input: "logits/Tensordot/Reshape"
  input: "logits/Tensordot/Reshape_1"
  attr {
    key: "T"
    value {
      type: DT_FLOAT
    }
  }
  attr {
    key: "transpose_a"
    value {
      b: false
    }
  }
  attr {
    key: "transpose_b"
    value {
      b: false
    }
  }
}
node {
  name: "logits/Tensordot/Const_2"
  op: "Const"
  attr {
    key: "dtype"
    value {
      type: DT_INT32
    }
  }
  attr {
    key: "value"
    value {
      tensor {
        dtype: DT_INT32
        tensor_shape {
          dim {
            size: 1
          }
        }
        int_val: 4
      }
    }
  }
}
node {
  name: "logits/Tensordot/concat_2/axis"
  op: "Const"
  attr {
    key: "dtype"
    value {
      type: DT_INT32
    }
  }
  attr {
    key: "value"
    value {
      tensor {
        dtype: DT_INT32
        tensor_shape {
        }
        int_val: 0
      }
    }
  }
}
node {
  name: "logits/Tensordot/concat_2"
  op: "ConcatV2"
  input: "logits/Tensordot/GatherV2"
  input: "logits/Tensordot/Const_2"
  input: "logits/Tensordot/concat_2/axis"
  attr {
    key: "N"
    value {
      i: 2
    }
  }
  attr {
    key: "T"
    value {
      type: DT_INT32
    }
  }
  attr {
    key: "Tidx"
    value {
      type: DT_INT32
    }
  }
}
node {
  name: "logits/Tensordot"
  op: "Reshape"
  input: "logits/Tensordot/MatMul"
  input: "logits/Tensordot/concat_2"
  attr {
    key: "T"
    value {
      type: DT_FLOAT
    }
  }
  attr {
    key: "Tshape"
    value {
      type: DT_INT32
    }
  }
}
node {
  name: "logits/BiasAdd"
  op: "BiasAdd"
  input: "logits/Tensordot"
  input: "logits/bias/read"
  attr {
    key: "T"
    value {
      type: DT_FLOAT
    }
  }
  attr {
    key: "data_format"
    value {
      s: "NHWC"
    }
  }
}
node {
  name: "strided_slice/stack"
  op: "Const"
  attr {
    key: "dtype"
    value {
      type: DT_INT32
    }
  }
  attr {
    key: "value"
    value {
      tensor {
        dtype: DT_INT32
        tensor_shape {
          dim {
            size: 3
          }
        }
        tensor_content: "\000\000\000\000\000\000\000\000\000\000\000\000"
      }
    }
  }
}
node {
  name: "strided_slice/stack_1"
  op: "Const"
  attr {
    key: "dtype"
    value {
      type: DT_INT32
    }
  }
  attr {
    key: "value"
    value {
      tensor {
        dtype: DT_INT32
        tensor_shape {
          dim {
            size: 3
          }
        }
        tensor_content: "\000\000\000\000\000\000\000\000\001\000\000\000"
      }
    }
  }
}
node {
  name: "strided_slice/stack_2"
  op: "Const"
  attr {
    key: "dtype"
    value {
      type: DT_INT32
    }
  }
  attr {
    key: "value"
    value {
      tensor {
        dtype: DT_INT32
        tensor_shape {
          dim {
            size: 3
          }
        }
        tensor_content: "\001\000\000\000\001\000\000\000\001\000\000\000"
      }
    }
  }
}
node {
  name: "strided_slice"
  op: "StridedSlice"
  input: "logits/BiasAdd"
  input: "strided_slice/stack"
  input: "strided_slice/stack_1"
  input: "strided_slice/stack_2"
  attr {
    key: "Index"
    value {
      type: DT_INT32
    }
  }
  attr {
    key: "T"
    value {
      type: DT_FLOAT
    }
  }
  attr {
    key: "begin_mask"
    value {
      i: 3
    }
  }
  attr {
    key: "ellipsis_mask"
    value {
      i: 0
    }
  }
  attr {
    key: "end_mask"
    value {
      i: 3
    }
  }
  attr {
    key: "new_axis_mask"
    value {
      i: 0
    }
  }
  attr {
    key: "shrink_axis_mask"
    value {
      i: 4
    }
  }
}
node {
  name: "strided_slice_1/stack"
  op: "Const"
  attr {
    key: "dtype"
    value {
      type: DT_INT32
    }
  }
  attr {
    key: "value"
    value {
      tensor {
        dtype: DT_INT32
        tensor_shape {
          dim {
            size: 3
          }
        }
        tensor_content: "\000\000\000\000\000\000\000\000\001\000\000\000"
      }
    }
  }
}
node {
  name: "strided_slice_1/stack_1"
  op: "Const"
  attr {
    key: "dtype"
    value {
      type: DT_INT32
    }
  }
  attr {
    key: "value"
    value {
      tensor {
        dtype: DT_INT32
        tensor_shape {
          dim {
            size: 3
          }
        }
        tensor_content: "\000\000\000\000\000\000\000\000\002\000\000\000"
      }
    }
  }
}
node {
  name: "strided_slice_1/stack_2"
  op: "Const"
  attr {
    key: "dtype"
    value {
      type: DT_INT32
    }
  }
  attr {
    key: "value"
    value {
      tensor {
        dtype: DT_INT32
        tensor_shape {
          dim {
            size: 3
          }
        }
        tensor_content: "\001\000\000\000\001\000\000\000\001\000\000\000"
      }
    }
  }
}
node {
  name: "strided_slice_1"
  op: "StridedSlice"
  input: "logits/BiasAdd"
  input: "strided_slice_1/stack"
  input: "strided_slice_1/stack_1"
  input: "strided_slice_1/stack_2"
  attr {
    key: "Index"
    value {
      type: DT_INT32
    }
  }
  attr {
    key: "T"
    value {
      type: DT_FLOAT
    }
  }
  attr {
    key: "begin_mask"
    value {
      i: 3
    }
  }
  attr {
    key: "ellipsis_mask"
    value {
      i: 0
    }
  }
  attr {
    key: "end_mask"
    value {
      i: 3
    }
  }
  attr {
    key: "new_axis_mask"
    value {
      i: 0
    }
  }
  attr {
    key: "shrink_axis_mask"
    value {
      i: 4
    }
  }
}
node {
  name: "Atan2"
  op: "Atan2"
  input: "strided_slice"
  input: "strided_slice_1"
  attr {
    key: "T"
    value {
      type: DT_FLOAT
    }
  }
}
node {
  name: "strided_slice_2/stack"
  op: "Const"
  attr {
    key: "dtype"
    value {
      type: DT_INT32
    }
  }
  attr {
    key: "value"
    value {
      tensor {
        dtype: DT_INT32
        tensor_shape {
          dim {
            size: 3
          }
        }
        tensor_content: "\000\000\000\000\000\000\000\000\002\000\000\000"
      }
    }
  }
}
node {
  name: "strided_slice_2/stack_1"
  op: "Const"
  attr {
    key: "dtype"
    value {
      type: DT_INT32
    }
  }
  attr {
    key: "value"
    value {
      tensor {
        dtype: DT_INT32
        tensor_shape {
          dim {
            size: 3
          }
        }
        tensor_content: "\000\000\000\000\000\000\000\000\003\000\000\000"
      }
    }
  }
}
node {
  name: "strided_slice_2/stack_2"
  op: "Const"
  attr {
    key: "dtype"
    value {
      type: DT_INT32
    }
  }
  attr {
    key: "value"
    value {
      tensor {
        dtype: DT_INT32
        tensor_shape {
          dim {
            size: 3
          }
        }
        tensor_content: "\001\000\000\000\001\000\000\000\001\000\000\000"
      }
    }
  }
}
node {
  name: "strided_slice_2"
  op: "StridedSlice"
  input: "logits/BiasAdd"
  input: "strided_slice_2/stack"
  input: "strided_slice_2/stack_1"
  input: "strided_slice_2/stack_2"
  attr {
    key: "Index"
    value {
      type: DT_INT32
    }
  }
  attr {
    key: "T"
    value {
      type: DT_FLOAT
    }
  }
  attr {
    key: "begin_mask"
    value {
      i: 3
    }
  }
  attr {
    key: "ellipsis_mask"
    value {
      i: 0
    }
  }
  attr {
    key: "end_mask"
    value {
      i: 3
    }
  }
  attr {
    key: "new_axis_mask"
    value {
      i: 0
    }
  }
  attr {
    key: "shrink_axis_mask"
    value {
      i: 4
    }
  }
}
node {
  name: "strided_slice_3/stack"
  op: "Const"
  attr {
    key: "dtype"
    value {
      type: DT_INT32
    }
  }
  attr {
    key: "value"
    value {
      tensor {
        dtype: DT_INT32
        tensor_shape {
          dim {
            size: 3
          }
        }
        tensor_content: "\000\000\000\000\000\000\000\000\003\000\000\000"
      }
    }
  }
}
node {
  name: "strided_slice_3/stack_1"
  op: "Const"
  attr {
    key: "dtype"
    value {
      type: DT_INT32
    }
  }
  attr {
    key: "value"
    value {
      tensor {
        dtype: DT_INT32
        tensor_shape {
          dim {
            size: 3
          }
        }
        tensor_content: "\000\000\000\000\000\000\000\000\004\000\000\000"
      }
    }
  }
}
node {
  name: "strided_slice_3/stack_2"
  op: "Const"
  attr {
    key: "dtype"
    value {
      type: DT_INT32
    }
  }
  attr {
    key: "value"
    value {
      tensor {
        dtype: DT_INT32
        tensor_shape {
          dim {
            size: 3
          }
        }
        tensor_content: "\001\000\000\000\001\000\000\000\001\000\000\000"
      }
    }
  }
}
node {
  name: "strided_slice_3"
  op: "StridedSlice"
  input: "logits/BiasAdd"
  input: "strided_slice_3/stack"
  input: "strided_slice_3/stack_1"
  input: "strided_slice_3/stack_2"
  attr {
    key: "Index"
    value {
      type: DT_INT32
    }
  }
  attr {
    key: "T"
    value {
      type: DT_FLOAT
    }
  }
  attr {
    key: "begin_mask"
    value {
      i: 3
    }
  }
  attr {
    key: "ellipsis_mask"
    value {
      i: 0
    }
  }
  attr {
    key: "end_mask"
    value {
      i: 3
    }
  }
  attr {
    key: "new_axis_mask"
    value {
      i: 0
    }
  }
  attr {
    key: "shrink_axis_mask"
    value {
      i: 4
    }
  }
}
node {
  name: "Atan2_1"
  op: "Atan2"
  input: "strided_slice_2"
  input: "strided_slice_3"
  attr {
    key: "T"
    value {
      type: DT_FLOAT
    }
  }
}
node {
  name: "predictions"
  op: "Pack"
  input: "Atan2"
  input: "Atan2_1"
  attr {
    key: "N"
    value {
      i: 2
    }
  }
  attr {
    key: "T"
    value {
      type: DT_FLOAT
    }
  }
  attr {
    key: "axis"
    value {
      i: 2
    }
  }
}
node {
  name: "label_placeholder"
  op: "Placeholder"
  attr {
    key: "dtype"
    value {
      type: DT_FLOAT
    }
  }
  attr {
    key: "shape"
    value {
      shape {
        dim {
          size: -1
        }
        dim {
          size: -1
        }
        dim {
          size: 2
        }
      }
    }
  }
}
node {
  name: "sub"
  op: "Sub"
  input: "predictions"
  input: "label_placeholder"
  attr {
    key: "T"
    value {
      type: DT_FLOAT
    }
  }
}
node {
  name: "Sin"
  op: "Sin"
  input: "sub"
  attr {
    key: "T"
    value {
      type: DT_FLOAT
    }
  }
}
node {
  name: "Cos"
  op: "Cos"
  input: "sub"
  attr {
    key: "T"
    value {
      type: DT_FLOAT
    }
  }
}
node {
  name: "Atan2_2"
  op: "Atan2"
  input: "Sin"
  input: "Cos"
  attr {
    key: "T"
    value {
      type: DT_FLOAT
    }
  }
}
node {
  name: "Abs"
  op: "Abs"
  input: "Atan2_2"
  attr {
    key: "T"
    value {
      type: DT_FLOAT
    }
  }
}
node {
  name: "Const"
  op: "Const"
  attr {
    key: "dtype"
    value {
      type: DT_INT32
    }
  }
  attr {
    key: "value"
    value {
      tensor {
        dtype: DT_INT32
        tensor_shape {
          dim {
            size: 3
          }
        }
        tensor_content: "\000\000\000\000\001\000\000\000\002\000\000\000"
      }
    }
  }
}
node {
  name: "loss"
  op: "Mean"
  input: "Abs"
  input: "Const"
  attr {
    key: "T"
    value {
      type: DT_FLOAT
    }
  }
  attr {
    key: "Tidx"
    value {
      type: DT_INT32
    }
  }
  attr {
    key: "keep_dims"
    value {
      b: false
    }
  }
}
node {
  name: "save/Const"
  op: "Const"
  attr {
    key: "dtype"
    value {
      type: DT_STRING
    }
  }
  attr {
    key: "value"
    value {
      tensor {
        dtype: DT_STRING
        tensor_shape {
        }
        string_val: "model"
      }
    }
  }
}
node {
  name: "save/SaveV2/tensor_names"
  op: "Const"
  attr {
    key: "dtype"
    value {
      type: DT_STRING
    }
  }
  attr {
    key: "value"
    value {
      tensor {
        dtype: DT_STRING
        tensor_shape {
          dim {
            size: 4
          }
        }
        string_val: "cudnn_lstm/rnn/multi_rnn_cell/cell_0/lstm_cell/bias"
        string_val: "cudnn_lstm/rnn/multi_rnn_cell/cell_0/lstm_cell/kernel"
        string_val: "logits/bias"
        string_val: "logits/kernel"
      }
    }
  }
}
node {
  name: "save/SaveV2/shape_and_slices"
  op: "Const"
  attr {
    key: "dtype"
    value {
      type: DT_STRING
    }
  }
  attr {
    key: "value"
    value {
      tensor {
        dtype: DT_STRING
        tensor_shape {
          dim {
            size: 4
          }
        }
        string_val: ""
        string_val: ""
        string_val: ""
        string_val: ""
      }
    }
  }
}
node {
  name: "save/SaveV2"
  op: "SaveV2"
  input: "save/Const"
  input: "save/SaveV2/tensor_names"
  input: "save/SaveV2/shape_and_slices"
  input: "cudnn_lstm/rnn/multi_rnn_cell/cell_0/lstm_cell/bias"
  input: "cudnn_lstm/rnn/multi_rnn_cell/cell_0/lstm_cell/kernel"
  input: "logits/bias"
  input: "logits/kernel"
  attr {
    key: "dtypes"
    value {
      list {
        type: DT_FLOAT
        type: DT_FLOAT
        type: DT_FLOAT
        type: DT_FLOAT
      }
    }
  }
}
node {
  name: "save/control_dependency"
  op: "Identity"
  input: "save/Const"
  input: "^save/SaveV2"
  attr {
    key: "T"
    value {
      type: DT_STRING
    }
  }
  attr {
    key: "_class"
    value {
      list {
        s: "loc:@save/Const"
      }
    }
  }
}
node {
  name: "save/RestoreV2/tensor_names"
  op: "Const"
  device: "/device:CPU:0"
  attr {
    key: "dtype"
    value {
      type: DT_STRING
    }
  }
  attr {
    key: "value"
    value {
      tensor {
        dtype: DT_STRING
        tensor_shape {
          dim {
            size: 4
          }
        }
        string_val: "cudnn_lstm/rnn/multi_rnn_cell/cell_0/lstm_cell/bias"
        string_val: "cudnn_lstm/rnn/multi_rnn_cell/cell_0/lstm_cell/kernel"
        string_val: "logits/bias"
        string_val: "logits/kernel"
      }
    }
  }
}
node {
  name: "save/RestoreV2/shape_and_slices"
  op: "Const"
  device: "/device:CPU:0"
  attr {
    key: "dtype"
    value {
      type: DT_STRING
    }
  }
  attr {
    key: "value"
    value {
      tensor {
        dtype: DT_STRING
        tensor_shape {
          dim {
            size: 4
          }
        }
        string_val: ""
        string_val: ""
        string_val: ""
        string_val: ""
      }
    }
  }
}
node {
  name: "save/RestoreV2"
  op: "RestoreV2"
  input: "save/Const"
  input: "save/RestoreV2/tensor_names"
  input: "save/RestoreV2/shape_and_slices"
  device: "/device:CPU:0"
  attr {
    key: "dtypes"
    value {
      list {
        type: DT_FLOAT
        type: DT_FLOAT
        type: DT_FLOAT
        type: DT_FLOAT
      }
    }
  }
}
node {
  name: "save/Assign"
  op: "Assign"
  input: "cudnn_lstm/rnn/multi_rnn_cell/cell_0/lstm_cell/bias"
  input: "save/RestoreV2"
  attr {
    key: "T"
    value {
      type: DT_FLOAT
    }
  }
  attr {
    key: "_class"
    value {
      list {
        s: "loc:@cudnn_lstm/rnn/multi_rnn_cell/cell_0/lstm_cell/bias"
      }
    }
  }
  attr {
    key: "use_locking"
    value {
      b: true
    }
  }
  attr {
    key: "validate_shape"
    value {
      b: true
    }
  }
}
node {
  name: "save/Assign_1"
  op: "Assign"
  input: "cudnn_lstm/rnn/multi_rnn_cell/cell_0/lstm_cell/kernel"
  input: "save/RestoreV2:1"
  attr {
    key: "T"
    value {
      type: DT_FLOAT
    }
  }
  attr {
    key: "_class"
    value {
      list {
        s: "loc:@cudnn_lstm/rnn/multi_rnn_cell/cell_0/lstm_cell/kernel"
      }
    }
  }
  attr {
    key: "use_locking"
    value {
      b: true
    }
  }
  attr {
    key: "validate_shape"
    value {
      b: true
    }
  }
}
node {
  name: "save/Assign_2"
  op: "Assign"
  input: "logits/bias"
  input: "save/RestoreV2:2"
  attr {
    key: "T"
    value {
      type: DT_FLOAT
    }
  }
  attr {
    key: "_class"
    value {
      list {
        s: "loc:@logits/bias"
      }
    }
  }
  attr {
    key: "use_locking"
    value {
      b: true
    }
  }
  attr {
    key: "validate_shape"
    value {
      b: true
    }
  }
}
node {
  name: "save/Assign_3"
  op: "Assign"
  input: "logits/kernel"
  input: "save/RestoreV2:3"
  attr {
    key: "T"
    value {
      type: DT_FLOAT
    }
  }
  attr {
    key: "_class"
    value {
      list {
        s: "loc:@logits/kernel"
      }
    }
  }
  attr {
    key: "use_locking"
    value {
      b: true
    }
  }
  attr {
    key: "validate_shape"
    value {
      b: true
    }
  }
}
node {
  name: "save/restore_all"
  op: "NoOp"
  input: "^save/Assign"
  input: "^save/Assign_1"
  input: "^save/Assign_2"
  input: "^save/Assign_3"
}
node {
  name: "Assign/value"
  op: "Const"
  attr {
    key: "dtype"
    value {
      type: DT_FLOAT
    }
  }
  attr {
    key: "value"
    value {
      tensor {
        dtype: DT_FLOAT
        tensor_shape {
          dim {
            size: 4
          }
        }
        tensor_content: "j}\273\272?\352:=\377\223{=(\245\020="
      }
    }
  }
}
node {
  name: "Assign"
  op: "Assign"
  input: "logits/bias"
  input: "Assign/value"
  attr {
    key: "T"
    value {
      type: DT_FLOAT
    }
  }
  attr {
    key: "_class"
    value {
      list {
        s: "loc:@logits/bias"
      }
    }
  }
  attr {
    key: "use_locking"
    value {
      b: true
    }
  }
  attr {
    key: "validate_shape"
    value {
      b: true
    }
  }
}
node {
  name: "Assign_1/value"
  op: "Const"
  attr {
    key: "dtype"
    value {
      type: DT_FLOAT
    }
  }
  attr {
    key: "value"
    value {
      tensor {
        dtype: DT_FLOAT
        tensor_shape {
          dim {
            size: 64
          }
        }
        tensor_content: "…"
      }
    }
  }
}
node {
  name: "Assign_1"
  op: "Assign"
  input: "cudnn_lstm/rnn/multi_rnn_cell/cell_0/lstm_cell/bias"
  input: "Assign_1/value"
  attr {
    key: "T"
    value {
      type: DT_FLOAT
    }
  }
  attr {
    key: "_class"
    value {
      list {
        s: "loc:@cudnn_lstm/rnn/multi_rnn_cell/cell_0/lstm_cell/bias"
      }
    }
  }
  attr {
    key: "use_locking"
    value {
      b: true
    }
  }
  attr {
    key: "validate_shape"
    value {
      b: true
    }
  }
}
node {
  name: "Assign_2/value"
  op: "Const"
  attr {
    key: "dtype"
    value {
      type: DT_FLOAT
    }
  }
  attr {
    key: "value"
    value {
      tensor {
        dtype: DT_FLOAT
        tensor_shape {
          dim {
            size: 16
          }
          dim {
            size: 4
          }
        }
        tensor_content: "…"
      }
    }
  }
}
node {
  name: "Assign_2"
  op: "Assign"
  input: "logits/kernel"
  input: "Assign_2/value"
  attr {
    key: "T"
    value {
      type: DT_FLOAT
    }
  }
  attr {
    key: "_class"
    value {
      list {
        s: "loc:@logits/kernel"
      }
    }
  }
  attr {
    key: "use_locking"
    value {
      b: true
    }
  }
  attr {
    key: "validate_shape"
    value {
      b: true
    }
  }
}
node {
  name: "Assign_3/value"
  op: "Const"
  attr {
    key: "dtype"
    value {
      type: DT_FLOAT
    }
  }
  attr {
    key: "value"
    value {
      tensor {
        dtype: DT_FLOAT
        tensor_shape {
          dim {
            size: 20
          }
          dim {
            size: 64
          }
        }
        tensor_content: "…"
      }
    }
  }
}
node {
  name: "Assign_3"
  op: "Assign"
  input: "cudnn_lstm/rnn/multi_rnn_cell/cell_0/lstm_cell/kernel"
  input: "Assign_3/value"
  attr {
    key: "T"
    value {
      type: DT_FLOAT
    }
  }
  attr {
    key: "_class"
    value {
      list {
        s: "loc:@cudnn_lstm/rnn/multi_rnn_cell/cell_0/lstm_cell/kernel"
      }
    }
  }
  attr {
    key: "use_locking"
    value {
      b: true
    }
  }
  attr {
    key: "validate_shape"
    value {
      b: true
    }
  }
}
versions {
  producer: 26
}
