node {
  name: "input_X"
  op: "Placeholder"
  attr {
    key: "dtype"
    value {
      type: DT_FLOAT
    }
  }
  attr {
    key: "shape"
    value {
      shape {
        dim {
          size: -1
        }
        dim {
          size: -1
        }
        dim {
          size: 4
        }
      }
    }
  }
}
node {
  name: "input_Y"
  op: "Placeholder"
  attr {
    key: "dtype"
    value {
      type: DT_FLOAT
    }
  }
  attr {
    key: "shape"
    value {
      shape {
        dim {
          size: -1
        }
        dim {
          size: -1
        }
        dim {
          size: 2
        }
      }
    }
  }
}
node {
  name: "input_state_0"
  op: "Placeholder"
  attr {
    key: "dtype"
    value {
      type: DT_FLOAT
    }
  }
  attr {
    key: "shape"
    value {
      shape {
        dim {
          size: -1
        }
        dim {
          size: 16
        }
      }
    }
  }
}
node {
  name: "input_state_1"
  op: "Placeholder"
  attr {
    key: "dtype"
    value {
      type: DT_FLOAT
    }
  }
  attr {
    key: "shape"
    value {
      shape {
        dim {
          size: -1
        }
        dim {
          size: 4
        }
      }
    }
  }
}
node {
  name: "DropoutWrapperInit/Const"
  op: "Const"
  attr {
    key: "dtype"
    value {
      type: DT_FLOAT
    }
  }
  attr {
    key: "value"
    value {
      tensor {
        dtype: DT_FLOAT
        tensor_shape {
        }
        float_val: 1.0
      }
    }
  }
}
node {
  name: "DropoutWrapperInit/Const_1"
  op: "Const"
  attr {
    key: "dtype"
    value {
      type: DT_FLOAT
    }
  }
  attr {
    key: "value"
    value {
      tensor {
        dtype: DT_FLOAT
        tensor_shape {
        }
        float_val: 1.0
      }
    }
  }
}
node {
  name: "DropoutWrapperInit/Const_2"
  op: "Const"
  attr {
    key: "dtype"
    value {
      type: DT_INT32
    }
  }
  attr {
    key: "value"
    value {
      tensor {
        dtype: DT_INT32
        tensor_shape {
        }
        int_val: 1
      }
    }
  }
}
node {
  name: "DropoutWrapperInit_1/Const"
  op: "Const"
  attr {
    key: "dtype"
    value {
      type: DT_FLOAT
    }
  }
  attr {
    key: "value"
    value {
      tensor {
        dtype: DT_FLOAT
        tensor_shape {
        }
        float_val: 1.0
      }
    }
  }
}
node {
  name: "DropoutWrapperInit_1/Const_1"
  op: "Const"
  attr {
    key: "dtype"
    value {
      type: DT_FLOAT
    }
  }
  attr {
    key: "value"
    value {
      tensor {
        dtype: DT_FLOAT
        tensor_shape {
        }
        float_val: 1.0
      }
    }
  }
}
node {
  name: "DropoutWrapperInit_1/Const_2"
  op: "Const"
  attr {
    key: "dtype"
    value {
      type: DT_FLOAT
    }
  }
  attr {
    key: "value"
    value {
      tensor {
        dtype: DT_FLOAT
        tensor_shape {
        }
        float_val: 1.0
      }
    }
  }
}
node {
  name: "Rank"
  op: "Const"
  attr {
    key: "dtype"
    value {
      type: DT_INT32
    }
  }
  attr {
    key: "value"
    value {
      tensor {
        dtype: DT_INT32
        tensor_shape {
        }
        int_val: 3
      }
    }
  }
}
node {
  name: "range/start"
  op: "Const"
  attr {
    key: "dtype"
    value {
      type: DT_INT32
    }
  }
  attr {
    key: "value"
    value {
      tensor {
        dtype: DT_INT32
        tensor_shape {
        }
        int_val: 2
      }
    }
  }
}
node {
  name: "range/delta"
  op: "Const"
  attr {
    key: "dtype"
    value {
      type: DT_INT32
    }
  }
  attr {
    key: "value"
    value {
      tensor {
        dtype: DT_INT32
        tensor_shape {
        }
        int_val: 1
      }
    }
  }
}
node {
  name: "range"
  op: "Range"
  input: "range/start"
  input: "Rank"
  input: "range/delta"
  attr {
    key: "Tidx"
    value {
      type: DT_INT32
    }
  }
}
node {
  name: "concat/values_0"
  op: "Const"
  attr {
    key: "dtype"
    value {
      type: DT_INT32
    }
  }
  attr {
    key: "value"
    value {
      tensor {
        dtype: DT_INT32
        tensor_shape {
          dim {
            size: 2
          }
        }
        tensor_content: "\001\000\000\000\000\000\000\000"
      }
    }
  }
}
node {
  name: "concat/axis"
  op: "Const"
  attr {
    key: "dtype"
    value {
      type: DT_INT32
    }
  }
  attr {
    key: "value"
    value {
      tensor {
        dtype: DT_INT32
        tensor_shape {
        }
        int_val: 0
      }
    }
  }
}
node {
  name: "concat"
  op: "ConcatV2"
  input: "concat/values_0"
  input: "range"
  input: "concat/axis"
  attr {
    key: "N"
    value {
      i: 2
    }
  }
  attr {
    key: "T"
    value {
      type: DT_INT32
    }
  }
  attr {
    key: "Tidx"
    value {
      type: DT_INT32
    }
  }
}
node {
  name: "transpose"
  op: "Transpose"
  input: "input_X"
  input: "concat"
  attr {
    key: "T"
    value {
      type: DT_FLOAT
    }
  }
  attr {
    key: "Tperm"
    value {
      type: DT_INT32
    }
  }
}
node {
  name: "rnn/Shape"
  op: "Shape"
  input: "transpose"
  attr {
    key: "T"
    value {
      type: DT_FLOAT
    }
  }
  attr {
    key: "out_type"
    value {
      type: DT_INT32
    }
  }
}
node {
  name: "rnn/strided_slice/stack"
  op: "Const"
  attr {
    key: "dtype"
    value {
      type: DT_INT32
    }
  }
  attr {
    key: "value"
    value {
      tensor {
        dtype: DT_INT32
        tensor_shape {
          dim {
            size: 1
          }
        }
        int_val: 1
      }
    }
  }
}
node {
  name: "rnn/strided_slice/stack_1"
  op: "Const"
  attr {
    key: "dtype"
    value {
      type: DT_INT32
    }
  }
  attr {
    key: "value"
    value {
      tensor {
        dtype: DT_INT32
        tensor_shape {
          dim {
            size: 1
          }
        }
        int_val: 2
      }
    }
  }
}
node {
  name: "rnn/strided_slice/stack_2"
  op: "Const"
  attr {
    key: "dtype"
    value {
      type: DT_INT32
    }
  }
  attr {
    key: "value"
    value {
      tensor {
        dtype: DT_INT32
        tensor_shape {
          dim {
            size: 1
          }
        }
        int_val: 1
      }
    }
  }
}
node {
  name: "rnn/strided_slice"
  op: "StridedSlice"
  input: "rnn/Shape"
  input: "rnn/strided_slice/stack"
  input: "rnn/strided_slice/stack_1"
  input: "rnn/strided_slice/stack_2"
  attr {
    key: "Index"
    value {
      type: DT_INT32
    }
  }
  attr {
    key: "T"
    value {
      type: DT_INT32
    }
  }
  attr {
    key: "begin_mask"
    value {
      i: 0
    }
  }
  attr {
    key: "ellipsis_mask"
    value {
      i: 0
    }
  }
  attr {
    key: "end_mask"
    value {
      i: 0
    }
  }
  attr {
    key: "new_axis_mask"
    value {
      i: 0
    }
  }
  attr {
    key: "shrink_axis_mask"
    value {
      i: 1
    }
  }
}
node {
  name: "rnn/Shape_1"
  op: "Shape"
  input: "transpose"
  attr {
    key: "T"
    value {
      type: DT_FLOAT
    }
  }
  attr {
    key: "out_type"
    value {
      type: DT_INT32
    }
  }
}
node {
  name: "rnn/strided_slice_1/stack"
  op: "Const"
  attr {
    key: "dtype"
    value {
      type: DT_INT32
    }
  }
  attr {
    key: "value"
    value {
      tensor {
        dtype: DT_INT32
        tensor_shape {
          dim {
            size: 1
          }
        }
        int_val: 0
      }
    }
  }
}
node {
  name: "rnn/strided_slice_1/stack_1"
  op: "Const"
  attr {
    key: "dtype"
    value {
      type: DT_INT32
    }
  }
  attr {
    key: "value"
    value {
      tensor {
        dtype: DT_INT32
        tensor_shape {
          dim {
            size: 1
          }
        }
        int_val: 1
      }
    }
  }
}
node {
  name: "rnn/strided_slice_1/stack_2"
  op: "Const"
  attr {
    key: "dtype"
    value {
      type: DT_INT32
    }
  }
  attr {
    key: "value"
    value {
      tensor {
        dtype: DT_INT32
        tensor_shape {
          dim {
            size: 1
          }
        }
        int_val: 1
      }
    }
  }
}
node {
  name: "rnn/strided_slice_1"
  op: "StridedSlice"
  input: "rnn/Shape_1"
  input: "rnn/strided_slice_1/stack"
  input: "rnn/strided_slice_1/stack_1"
  input: "rnn/strided_slice_1/stack_2"
  attr {
    key: "Index"
    value {
      type: DT_INT32
    }
  }
  attr {
    key: "T"
    value {
      type: DT_INT32
    }
  }
  attr {
    key: "begin_mask"
    value {
      i: 0
    }
  }
  attr {
    key: "ellipsis_mask"
    value {
      i: 0
    }
  }
  attr {
    key: "end_mask"
    value {
      i: 0
    }
  }
  attr {
    key: "new_axis_mask"
    value {
      i: 0
    }
  }
  attr {
    key: "shrink_axis_mask"
    value {
      i: 1
    }
  }
}
node {
  name: "rnn/Shape_2"
  op: "Shape"
  input: "transpose"
  attr {
    key: "T"
    value {
      type: DT_FLOAT
    }
  }
  attr {
    key: "out_type"
    value {
      type: DT_INT32
    }
  }
}
node {
  name: "rnn/strided_slice_2/stack"
  op: "Const"
  attr {
    key: "dtype"
    value {
      type: DT_INT32
    }
  }
  attr {
    key: "value"
    value {
      tensor {
        dtype: DT_INT32
        tensor_shape {
          dim {
            size: 1
          }
        }
        int_val: 1
      }
    }
  }
}
node {
  name: "rnn/strided_slice_2/stack_1"
  op: "Const"
  attr {
    key: "dtype"
    value {
      type: DT_INT32
    }
  }
  attr {
    key: "value"
    value {
      tensor {
        dtype: DT_INT32
        tensor_shape {
          dim {
            size: 1
          }
        }
        int_val: 2
      }
    }
  }
}
node {
  name: "rnn/strided_slice_2/stack_2"
  op: "Const"
  attr {
    key: "dtype"
    value {
      type: DT_INT32
    }
  }
  attr {
    key: "value"
    value {
      tensor {
        dtype: DT_INT32
        tensor_shape {
          dim {
            size: 1
          }
        }
        int_val: 1
      }
    }
  }
}
node {
  name: "rnn/strided_slice_2"
  op: "StridedSlice"
  input: "rnn/Shape_2"
  input: "rnn/strided_slice_2/stack"
  input: "rnn/strided_slice_2/stack_1"
  input: "rnn/strided_slice_2/stack_2"
  attr {
    key: "Index"
    value {
      type: DT_INT32
    }
  }
  attr {
    key: "T"
    value {
      type: DT_INT32
    }
  }
  attr {
    key: "begin_mask"
    value {
      i: 0
    }
  }
  attr {
    key: "ellipsis_mask"
    value {
      i: 0
    }
  }
  attr {
    key: "end_mask"
    value {
      i: 0
    }
  }
  attr {
    key: "new_axis_mask"
    value {
      i: 0
    }
  }
  attr {
    key: "shrink_axis_mask"
    value {
      i: 1
    }
  }
}
node {
  name: "rnn/ExpandDims/dim"
  op: "Const"
  attr {
    key: "dtype"
    value {
      type: DT_INT32
    }
  }
  attr {
    key: "value"
    value {
      tensor {
        dtype: DT_INT32
        tensor_shape {
        }
        int_val: 0
      }
    }
  }
}
node {
  name: "rnn/ExpandDims"
  op: "ExpandDims"
  input: "rnn/strided_slice_2"
  input: "rnn/ExpandDims/dim"
  attr {
    key: "T"
    value {
      type: DT_INT32
    }
  }
  attr {
    key: "Tdim"
    value {
      type: DT_INT32
    }
  }
}
node {
  name: "rnn/Const"
  op: "Const"
  attr {
    key: "dtype"
    value {
      type: DT_INT32
    }
  }
  attr {
    key: "value"
    value {
      tensor {
        dtype: DT_INT32
        tensor_shape {
          dim {
            size: 1
          }
        }
        int_val: 4
      }
    }
  }
}
node {
  name: "rnn/concat/axis"
  op: "Const"
  attr {
    key: "dtype"
    value {
      type: DT_INT32
    }
  }
  attr {
    key: "value"
    value {
      tensor {
        dtype: DT_INT32
        tensor_shape {
        }
        int_val: 0
      }
    }
  }
}
node {
  name: "rnn/concat"
  op: "ConcatV2"
  input: "rnn/ExpandDims"
  input: "rnn/Const"
  input: "rnn/concat/axis"
  attr {
    key: "N"
    value {
      i: 2
    }
  }
  attr {
    key: "T"
    value {
      type: DT_INT32
    }
  }
  attr {
    key: "Tidx"
    value {
      type: DT_INT32
    }
  }
}
node {
  name: "rnn/zeros/Const"
  op: "Const"
  attr {
    key: "dtype"
    value {
      type: DT_FLOAT
    }
  }
  attr {
    key: "value"
    value {
      tensor {
        dtype: DT_FLOAT
        tensor_shape {
        }
        float_val: 0.0
      }
    }
  }
}
node {
  name: "rnn/zeros"
  op: "Fill"
  input: "rnn/concat"
  input: "rnn/zeros/Const"
  attr {
    key: "T"
    value {
      type: DT_FLOAT
    }
  }
}
node {
  name: "rnn/time"
  op: "Const"
  attr {
    key: "dtype"
    value {
      type: DT_INT32
    }
  }
  attr {
    key: "value"
    value {
      tensor {
        dtype: DT_INT32
        tensor_shape {
        }
        int_val: 0
      }
    }
  }
}
node {
  name: "rnn/TensorArray"
  op: "TensorArrayV3"
  input: "rnn/strided_slice_1"
  attr {
    key: "clear_after_read"
    value {
      b: true
    }
  }
  attr {
    key: "dtype"
    value {
      type: DT_FLOAT
    }
  }
  attr {
    key: "dynamic_size"
    value {
      b: false
    }
  }
  attr {
    key: "element_shape"
    value {
      shape {
        unknown_rank: true
      }
    }
  }
  attr {
    key: "tensor_array_name"
    value {
      s: "rnn/dynamic_rnn/output_0"
    }
  }
}
node {
  name: "rnn/TensorArray_1"
  op: "TensorArrayV3"
  input: "rnn/strided_slice_1"
  attr {
    key: "clear_after_read"
    value {
      b: true
    }
  }
  attr {
    key: "dtype"
    value {
      type: DT_FLOAT
    }
  }
  attr {
    key: "dynamic_size"
    value {
      b: false
    }
  }
  attr {
    key: "element_shape"
    value {
      shape {
        unknown_rank: true
      }
    }
  }
  attr {
    key: "tensor_array_name"
    value {
      s: "rnn/dynamic_rnn/input_0"
    }
  }
}
node {
  name: "rnn/TensorArrayUnstack/Shape"
  op: "Shape"
  input: "transpose"
  attr {
    key: "T"
    value {
      type: DT_FLOAT
    }
  }
  attr {
    key: "out_type"
    value {
      type: DT_INT32
    }
  }
}
node {
  name: "rnn/TensorArrayUnstack/strided_slice/stack"
  op: "Const"
  attr {
    key: "dtype"
    value {
      type: DT_INT32
    }
  }
  attr {
    key: "value"
    value {
      tensor {
        dtype: DT_INT32
        tensor_shape {
          dim {
            size: 1
          }
        }
        int_val: 0
      }
    }
  }
}
node {
  name: "rnn/TensorArrayUnstack/strided_slice/stack_1"
  op: "Const"
  attr {
    key: "dtype"
    value {
      type: DT_INT32
    }
  }
  attr {
    key: "value"
    value {
      tensor {
        dtype: DT_INT32
        tensor_shape {
          dim {
            size: 1
          }
        }
        int_val: 1
      }
    }
  }
}
node {
  name: "rnn/TensorArrayUnstack/strided_slice/stack_2"
  op: "Const"
  attr {
    key: "dtype"
    value {
      type: DT_INT32
    }
  }
  attr {
    key: "value"
    value {
      tensor {
        dtype: DT_INT32
        tensor_shape {
          dim {
            size: 1
          }
        }
        int_val: 1
      }
    }
  }
}
node {
  name: "rnn/TensorArrayUnstack/strided_slice"
  op: "StridedSlice"
  input: "rnn/TensorArrayUnstack/Shape"
  input: "rnn/TensorArrayUnstack/strided_slice/stack"
  input: "rnn/TensorArrayUnstack/strided_slice/stack_1"
  input: "rnn/TensorArrayUnstack/strided_slice/stack_2"
  attr {
    key: "Index"
    value {
      type: DT_INT32
    }
  }
  attr {
    key: "T"
    value {
      type: DT_INT32
    }
  }
  attr {
    key: "begin_mask"
    value {
      i: 0
    }
  }
  attr {
    key: "ellipsis_mask"
    value {
      i: 0
    }
  }
  attr {
    key: "end_mask"
    value {
      i: 0
    }
  }
  attr {
    key: "new_axis_mask"
    value {
      i: 0
    }
  }
  attr {
    key: "shrink_axis_mask"
    value {
      i: 1
    }
  }
}
node {
  name: "rnn/TensorArrayUnstack/range/start"
  op: "Const"
  attr {
    key: "dtype"
    value {
      type: DT_INT32
    }
  }
  attr {
    key: "value"
    value {
      tensor {
        dtype: DT_INT32
        tensor_shape {
        }
        int_val: 0
      }
    }
  }
}
node {
  name: "rnn/TensorArrayUnstack/range/delta"
  op: "Const"
  attr {
    key: "dtype"
    value {
      type: DT_INT32
    }
  }
  attr {
    key: "value"
    value {
      tensor {
        dtype: DT_INT32
        tensor_shape {
        }
        int_val: 1
      }
    }
  }
}
node {
  name: "rnn/TensorArrayUnstack/range"
  op: "Range"
  input: "rnn/TensorArrayUnstack/range/start"
  input: "rnn/TensorArrayUnstack/strided_slice"
  input: "rnn/TensorArrayUnstack/range/delta"
  attr {
    key: "Tidx"
    value {
      type: DT_INT32
    }
  }
}
node {
  name: "rnn/TensorArrayUnstack/TensorArrayScatter/TensorArrayScatterV3"
  op: "TensorArrayScatterV3"
  input: "rnn/TensorArray_1"
  input: "rnn/TensorArrayUnstack/range"
  input: "transpose"
  input: "rnn/TensorArray_1:1"
  attr {
    key: "T"
    value {
      type: DT_FLOAT
    }
  }
  attr {
    key: "_class"
    value {
      list {
        s: "loc:@transpose"
      }
    }
  }
}
node {
  name: "rnn/while/Enter"
  op: "Enter"
  input: "rnn/time"
  attr {
    key: "T"
    value {
      type: DT_INT32
    }
  }
  attr {
    key: "frame_name"
    value {
      s: "rnn/while/while_context"
    }
  }
  attr {
    key: "is_constant"
    value {
      b: false
    }
  }
  attr {
    key: "parallel_iterations"
    value {
      i: 32
    }
  }
}
node {
  name: "rnn/while/Enter_1"
  op: "Enter"
  input: "rnn/TensorArray:1"
  attr {
    key: "T"
    value {
      type: DT_FLOAT
    }
  }
  attr {
    key: "frame_name"
    value {
      s: "rnn/while/while_context"
    }
  }
  attr {
    key: "is_constant"
    value {
      b: false
    }
  }
  attr {
    key: "parallel_iterations"
    value {
      i: 32
    }
  }
}
node {
  name: "rnn/while/Enter_2"
  op: "Enter"
  input: "input_state_0"
  attr {
    key: "T"
    value {
      type: DT_FLOAT
    }
  }
  attr {
    key: "frame_name"
    value {
      s: "rnn/while/while_context"
    }
  }
  attr {
    key: "is_constant"
    value {
      b: false
    }
  }
  attr {
    key: "parallel_iterations"
    value {
      i: 32
    }
  }
}
node {
  name: "rnn/while/Enter_3"
  op: "Enter"
  input: "input_state_1"
  attr {
    key: "T"
    value {
      type: DT_FLOAT
    }
  }
  attr {
    key: "frame_name"
    value {
      s: "rnn/while/while_context"
    }
  }
  attr {
    key: "is_constant"
    value {
      b: false
    }
  }
  attr {
    key: "parallel_iterations"
    value {
      i: 32
    }
  }
}
node {
  name: "rnn/while/Merge"
  op: "Merge"
  input: "rnn/while/Enter"
  input: "rnn/while/NextIteration"
  attr {
    key: "N"
    value {
      i: 2
    }
  }
  attr {
    key: "T"
    value {
      type: DT_INT32
    }
  }
}
node {
  name: "rnn/while/Merge_1"
  op: "Merge"
  input: "rnn/while/Enter_1"
  input: "rnn/while/NextIteration_1"
  attr {
    key: "N"
    value {
      i: 2
    }
  }
  attr {
    key: "T"
    value {
      type: DT_FLOAT
    }
  }
}
node {
  name: "rnn/while/Merge_2"
  op: "Merge"
  input: "rnn/while/Enter_2"
  input: "rnn/while/NextIteration_2"
  attr {
    key: "N"
    value {
      i: 2
    }
  }
  attr {
    key: "T"
    value {
      type: DT_FLOAT
    }
  }
}
node {
  name: "rnn/while/Merge_3"
  op: "Merge"
  input: "rnn/while/Enter_3"
  input: "rnn/while/NextIteration_3"
  attr {
    key: "N"
    value {
      i: 2
    }
  }
  attr {
    key: "T"
    value {
      type: DT_FLOAT
    }
  }
}
node {
  name: "rnn/while/Less/Enter"
  op: "Enter"
  input: "rnn/strided_slice_1"
  attr {
    key: "T"
    value {
      type: DT_INT32
    }
  }
  attr {
    key: "frame_name"
    value {
      s: "rnn/while/while_context"
    }
  }
  attr {
    key: "is_constant"
    value {
      b: true
    }
  }
  attr {
    key: "parallel_iterations"
    value {
      i: 32
    }
  }
}
node {
  name: "rnn/while/Less"
  op: "Less"
  input: "rnn/while/Merge"
  input: "rnn/while/Less/Enter"
  attr {
    key: "T"
    value {
      type: DT_INT32
    }
  }
}
node {
  name: "rnn/while/LoopCond"
  op: "LoopCond"
  input: "rnn/while/Less"
}
node {
  name: "rnn/while/Switch"
  op: "Switch"
  input: "rnn/while/Merge"
  input: "rnn/while/LoopCond"
  attr {
    key: "T"
    value {
      type: DT_INT32
    }
  }
  attr {
    key: "_class"
    value {
      list {
        s: "loc:@rnn/while/Merge"
      }
    }
  }
}
node {
  name: "rnn/while/Switch_1"
  op: "Switch"
  input: "rnn/while/Merge_1"
  input: "rnn/while/LoopCond"
  attr {
    key: "T"
    value {
      type: DT_FLOAT
    }
  }
  attr {
    key: "_class"
    value {
      list {
        s: "loc:@rnn/while/Merge_1"
      }
    }
  }
}
node {
  name: "rnn/while/Switch_2"
  op: "Switch"
  input: "rnn/while/Merge_2"
  input: "rnn/while/LoopCond"
  attr {
    key: "T"
    value {
      type: DT_FLOAT
    }
  }
  attr {
    key: "_class"
    value {
      list {
        s: "loc:@rnn/while/Merge_2"
      }
    }
  }
}
node {
  name: "rnn/while/Switch_3"
  op: "Switch"
  input: "rnn/while/Merge_3"
  input: "rnn/while/LoopCond"
  attr {
    key: "T"
    value {
      type: DT_FLOAT
    }
  }
  attr {
    key: "_class"
    value {
      list {
        s: "loc:@rnn/while/Merge_3"
      }
    }
  }
}
node {
  name: "rnn/while/Identity"
  op: "Identity"
  input: "rnn/while/Switch:1"
  attr {
    key: "T"
    value {
      type: DT_INT32
    }
  }
}
node {
  name: "rnn/while/Identity_1"
  op: "Identity"
  input: "rnn/while/Switch_1:1"
  attr {
    key: "T"
    value {
      type: DT_FLOAT
    }
  }
}
node {
  name: "rnn/while/Identity_2"
  op: "Identity"
  input: "rnn/while/Switch_2:1"
  attr {
    key: "T"
    value {
      type: DT_FLOAT
    }
  }
}
node {
  name: "rnn/while/Identity_3"
  op: "Identity"
  input: "rnn/while/Switch_3:1"
  attr {
    key: "T"
    value {
      type: DT_FLOAT
    }
  }
}
node {
  name: "rnn/while/TensorArrayReadV3/Enter"
  op: "Enter"
  input: "rnn/TensorArray_1"
  attr {
    key: "T"
    value {
      type: DT_RESOURCE
    }
  }
  attr {
    key: "frame_name"
    value {
      s: "rnn/while/while_context"
    }
  }
  attr {
    key: "is_constant"
    value {
      b: true
    }
  }
  attr {
    key: "parallel_iterations"
    value {
      i: 32
    }
  }
}
node {
  name: "rnn/while/TensorArrayReadV3/Enter_1"
  op: "Enter"
  input: "rnn/TensorArrayUnstack/TensorArrayScatter/TensorArrayScatterV3"
  attr {
    key: "T"
    value {
      type: DT_FLOAT
    }
  }
  attr {
    key: "frame_name"
    value {
      s: "rnn/while/while_context"
    }
  }
  attr {
    key: "is_constant"
    value {
      b: true
    }
  }
  attr {
    key: "parallel_iterations"
    value {
      i: 32
    }
  }
}
node {
  name: "rnn/while/TensorArrayReadV3"
  op: "TensorArrayReadV3"
  input: "rnn/while/TensorArrayReadV3/Enter"
  input: "rnn/while/Identity"
  input: "rnn/while/TensorArrayReadV3/Enter_1"
  attr {
    key: "dtype"
    value {
      type: DT_FLOAT
    }
  }
}
node {
  name: "rnn/multi_rnn_cell/cell_0/basic_rnn_cell/kernel/Initializer/random_uniform/shape"
  op: "Const"
  attr {
    key: "_class"
    value {
      list {
        s: "loc:@rnn/multi_rnn_cell/cell_0/basic_rnn_cell/kernel"
      }
    }
  }
  attr {
    key: "dtype"
    value {
      type: DT_INT32
    }
  }
  attr {
    key: "value"
    value {
      tensor {
        dtype: DT_INT32
        tensor_shape {
          dim {
            size: 2
          }
        }
        tensor_content: "\024\000\000\000\020\000\000\000"
      }
    }
  }
}
node {
  name: "rnn/multi_rnn_cell/cell_0/basic_rnn_cell/kernel/Initializer/random_uniform/min"
  op: "Const"
  attr {
    key: "_class"
    value {
      list {
        s: "loc:@rnn/multi_rnn_cell/cell_0/basic_rnn_cell/kernel"
      }
    }
  }
  attr {
    key: "dtype"
    value {
      type: DT_FLOAT
    }
  }
  attr {
    key: "value"
    value {
      tensor {
        dtype: DT_FLOAT
        tensor_shape {
        }
        float_val: -0.40824830532073975
      }
    }
  }
}
node {
  name: "rnn/multi_rnn_cell/cell_0/basic_rnn_cell/kernel/Initializer/random_uniform/max"
  op: "Const"
  attr {
    key: "_class"
    value {
      list {
        s: "loc:@rnn/multi_rnn_cell/cell_0/basic_rnn_cell/kernel"
      }
    }
  }
  attr {
    key: "dtype"
    value {
      type: DT_FLOAT
    }
  }
  attr {
    key: "value"
    value {
      tensor {
        dtype: DT_FLOAT
        tensor_shape {
        }
        float_val: 0.40824830532073975
      }
    }
  }
}
node {
  name: "rnn/multi_rnn_cell/cell_0/basic_rnn_cell/kernel/Initializer/random_uniform/RandomUniform"
  op: "RandomUniform"
  input: "rnn/multi_rnn_cell/cell_0/basic_rnn_cell/kernel/Initializer/random_uniform/shape"
  attr {
    key: "T"
    value {
      type: DT_INT32
    }
  }
  attr {
    key: "_class"
    value {
      list {
        s: "loc:@rnn/multi_rnn_cell/cell_0/basic_rnn_cell/kernel"
      }
    }
  }
  attr {
    key: "dtype"
    value {
      type: DT_FLOAT
    }
  }
  attr {
    key: "seed"
    value {
      i: 0
    }
  }
  attr {
    key: "seed2"
    value {
      i: 0
    }
  }
}
node {
  name: "rnn/multi_rnn_cell/cell_0/basic_rnn_cell/kernel/Initializer/random_uniform/sub"
  op: "Sub"
  input: "rnn/multi_rnn_cell/cell_0/basic_rnn_cell/kernel/Initializer/random_uniform/max"
  input: "rnn/multi_rnn_cell/cell_0/basic_rnn_cell/kernel/Initializer/random_uniform/min"
  attr {
    key: "T"
    value {
      type: DT_FLOAT
    }
  }
  attr {
    key: "_class"
    value {
      list {
        s: "loc:@rnn/multi_rnn_cell/cell_0/basic_rnn_cell/kernel"
      }
    }
  }
}
node {
  name: "rnn/multi_rnn_cell/cell_0/basic_rnn_cell/kernel/Initializer/random_uniform/mul"
  op: "Mul"
  input: "rnn/multi_rnn_cell/cell_0/basic_rnn_cell/kernel/Initializer/random_uniform/RandomUniform"
  input: "rnn/multi_rnn_cell/cell_0/basic_rnn_cell/kernel/Initializer/random_uniform/sub"
  attr {
    key: "T"
    value {
      type: DT_FLOAT
    }
  }
  attr {
    key: "_class"
    value {
      list {
        s: "loc:@rnn/multi_rnn_cell/cell_0/basic_rnn_cell/kernel"
      }
    }
  }
}
node {
  name: "rnn/multi_rnn_cell/cell_0/basic_rnn_cell/kernel/Initializer/random_uniform"
  op: "Add"
  input: "rnn/multi_rnn_cell/cell_0/basic_rnn_cell/kernel/Initializer/random_uniform/mul"
  input: "rnn/multi_rnn_cell/cell_0/basic_rnn_cell/kernel/Initializer/random_uniform/min"
  attr {
    key: "T"
    value {
      type: DT_FLOAT
    }
  }
  attr {
    key: "_class"
    value {
      list {
        s: "loc:@rnn/multi_rnn_cell/cell_0/basic_rnn_cell/kernel"
      }
    }
  }
}
node {
  name: "rnn/multi_rnn_cell/cell_0/basic_rnn_cell/kernel"
  op: "VariableV2"
  attr {
    key: "_class"
    value {
      list {
        s: "loc:@rnn/multi_rnn_cell/cell_0/basic_rnn_cell/kernel"
      }
    }
  }
  attr {
    key: "container"
    value {
      s: ""
    }
  }
  attr {
    key: "dtype"
    value {
      type: DT_FLOAT
    }
  }
  attr {
    key: "shape"
    value {
      shape {
        dim {
          size: 20
        }
        dim {
          size: 16
        }
      }
    }
  }
  attr {
    key: "shared_name"
    value {
      s: ""
    }
  }
}
node {
  name: "rnn/multi_rnn_cell/cell_0/basic_rnn_cell/kernel/Assign"
  op: "Assign"
  input: "rnn/multi_rnn_cell/cell_0/basic_rnn_cell/kernel"
  input: "rnn/multi_rnn_cell/cell_0/basic_rnn_cell/kernel/Initializer/random_uniform"
  attr {
    key: "T"
    value {
      type: DT_FLOAT
    }
  }
  attr {
    key: "_class"
    value {
      list {
        s: "loc:@rnn/multi_rnn_cell/cell_0/basic_rnn_cell/kernel"
      }
    }
  }
  attr {
    key: "use_locking"
    value {
      b: true
    }
  }
  attr {
    key: "validate_shape"
    value {
      b: true
    }
  }
}
node {
  name: "rnn/multi_rnn_cell/cell_0/basic_rnn_cell/kernel/read"
  op: "Identity"
  input: "rnn/multi_rnn_cell/cell_0/basic_rnn_cell/kernel"
  attr {
    key: "T"
    value {
      type: DT_FLOAT
    }
  }
}
node {
  name: "rnn/multi_rnn_cell/cell_0/basic_rnn_cell/bias/Initializer/Const"
  op: "Const"
  attr {
    key: "_class"
    value {
      list {
        s: "loc:@rnn/multi_rnn_cell/cell_0/basic_rnn_cell/bias"
      }
    }
  }
  attr {
    key: "dtype"
    value {
      type: DT_FLOAT
    }
  }
  attr {
    key: "value"
    value {
      tensor {
        dtype: DT_FLOAT
        tensor_shape {
          dim {
            size: 16
          }
        }
        float_val: 0.0
      }
    }
  }
}
node {
  name: "rnn/multi_rnn_cell/cell_0/basic_rnn_cell/bias"
  op: "VariableV2"
  attr {
    key: "_class"
    value {
      list {
        s: "loc:@rnn/multi_rnn_cell/cell_0/basic_rnn_cell/bias"
      }
    }
  }
  attr {
    key: "container"
    value {
      s: ""
    }
  }
  attr {
    key: "dtype"
    value {
      type: DT_FLOAT
    }
  }
  attr {
    key: "shape"
    value {
      shape {
        dim {
          size: 16
        }
      }
    }
  }
  attr {
    key: "shared_name"
    value {
      s: ""
    }
  }
}
node {
  name: "rnn/multi_rnn_cell/cell_0/basic_rnn_cell/bias/Assign"
  op: "Assign"
  input: "rnn/multi_rnn_cell/cell_0/basic_rnn_cell/bias"
  input: "rnn/multi_rnn_cell/cell_0/basic_rnn_cell/bias/Initializer/Const"
  attr {
    key: "T"
    value {
      type: DT_FLOAT
    }
  }
  attr {
    key: "_class"
    value {
      list {
        s: "loc:@rnn/multi_rnn_cell/cell_0/basic_rnn_cell/bias"
      }
    }
  }
  attr {
    key: "use_locking"
    value {
      b: true
    }
  }
  attr {
    key: "validate_shape"
    value {
      b: true
    }
  }
}
node {
  name: "rnn/multi_rnn_cell/cell_0/basic_rnn_cell/bias/read"
  op: "Identity"
  input: "rnn/multi_rnn_cell/cell_0/basic_rnn_cell/bias"
  attr {
    key: "T"
    value {
      type: DT_FLOAT
    }
  }
}
node {
  name: "rnn/while/rnn/multi_rnn_cell/cell_0/cell_0/basic_rnn_cell/concat/axis"
  op: "Const"
  input: "^rnn/while/Identity"
  attr {
    key: "dtype"
    value {
      type: DT_INT32
    }
  }
  attr {
    key: "value"
    value {
      tensor {
        dtype: DT_INT32
        tensor_shape {
        }
        int_val: 1
      }
    }
  }
}
node {
  name: "rnn/while/rnn/multi_rnn_cell/cell_0/cell_0/basic_rnn_cell/concat"
  op: "ConcatV2"
  input: "rnn/while/TensorArrayReadV3"
  input: "rnn/while/Identity_2"
  input: "rnn/while/rnn/multi_rnn_cell/cell_0/cell_0/basic_rnn_cell/concat/axis"
  attr {
    key: "N"
    value {
      i: 2
    }
  }
  attr {
    key: "T"
    value {
      type: DT_FLOAT
    }
  }
  attr {
    key: "Tidx"
    value {
      type: DT_INT32
    }
  }
}
node {
  name: "rnn/while/rnn/multi_rnn_cell/cell_0/cell_0/basic_rnn_cell/MatMul/Enter"
  op: "Enter"
  input: "rnn/multi_rnn_cell/cell_0/basic_rnn_cell/kernel/read"
  attr {
    key: "T"
    value {
      type: DT_FLOAT
    }
  }
  attr {
    key: "frame_name"
    value {
      s: "rnn/while/while_context"
    }
  }
  attr {
    key: "is_constant"
    value {
      b: true
    }
  }
  attr {
    key: "parallel_iterations"
    value {
      i: 32
    }
  }
}
node {
  name: "rnn/while/rnn/multi_rnn_cell/cell_0/cell_0/basic_rnn_cell/MatMul"
  op: "MatMul"
  input: "rnn/while/rnn/multi_rnn_cell/cell_0/cell_0/basic_rnn_cell/concat"
  input: "rnn/while/rnn/multi_rnn_cell/cell_0/cell_0/basic_rnn_cell/MatMul/Enter"
  attr {
    key: "T"
    value {
      type: DT_FLOAT
    }
  }
  attr {
    key: "transpose_a"
    value {
      b: false
    }
  }
  attr {
    key: "transpose_b"
    value {
      b: false
    }
  }
}
node {
  name: "rnn/while/rnn/multi_rnn_cell/cell_0/cell_0/basic_rnn_cell/BiasAdd/Enter"
  op: "Enter"
  input: "rnn/multi_rnn_cell/cell_0/basic_rnn_cell/bias/read"
  attr {
    key: "T"
    value {
      type: DT_FLOAT
    }
  }
  attr {
    key: "frame_name"
    value {
      s: "rnn/while/while_context"
    }
  }
  attr {
    key: "is_constant"
    value {
      b: true
    }
  }
  attr {
    key: "parallel_iterations"
    value {
      i: 32
    }
  }
}
node {
  name: "rnn/while/rnn/multi_rnn_cell/cell_0/cell_0/basic_rnn_cell/BiasAdd"
  op: "BiasAdd"
  input: "rnn/while/rnn/multi_rnn_cell/cell_0/cell_0/basic_rnn_cell/MatMul"
  input: "rnn/while/rnn/multi_rnn_cell/cell_0/cell_0/basic_rnn_cell/BiasAdd/Enter"
  attr {
    key: "T"
    value {
      type: DT_FLOAT
    }
  }
  attr {
    key: "data_format"
    value {
      s: "NHWC"
    }
  }
}
node {
  name: "rnn/while/rnn/multi_rnn_cell/cell_0/cell_0/basic_rnn_cell/Tanh"
  op: "Tanh"
  input: "rnn/while/rnn/multi_rnn_cell/cell_0/cell_0/basic_rnn_cell/BiasAdd"
  attr {
    key: "T"
    value {
      type: DT_FLOAT
    }
  }
}
node {
  name: "rnn/multi_rnn_cell/cell_1/basic_rnn_cell/kernel/Initializer/random_uniform/shape"
  op: "Const"
  attr {
    key: "_class"
    value {
      list {
        s: "loc:@rnn/multi_rnn_cell/cell_1/basic_rnn_cell/kernel"
      }
    }
  }
  attr {
    key: "dtype"
    value {
      type: DT_INT32
    }
  }
  attr {
    key: "value"
    value {
      tensor {
        dtype: DT_INT32
        tensor_shape {
          dim {
            size: 2
          }
        }
        tensor_content: "\024\000\000\000\004\000\000\000"
      }
    }
  }
}
node {
  name: "rnn/multi_rnn_cell/cell_1/basic_rnn_cell/kernel/Initializer/random_uniform/min"
  op: "Const"
  attr {
    key: "_class"
    value {
      list {
        s: "loc:@rnn/multi_rnn_cell/cell_1/basic_rnn_cell/kernel"
      }
    }
  }
  attr {
    key: "dtype"
    value {
      type: DT_FLOAT
    }
  }
  attr {
    key: "value"
    value {
      tensor {
        dtype: DT_FLOAT
        tensor_shape {
        }
        float_val: -0.5
      }
    }
  }
}
node {
  name: "rnn/multi_rnn_cell/cell_1/basic_rnn_cell/kernel/Initializer/random_uniform/max"
  op: "Const"
  attr {
    key: "_class"
    value {
      list {
        s: "loc:@rnn/multi_rnn_cell/cell_1/basic_rnn_cell/kernel"
      }
    }
  }
  attr {
    key: "dtype"
    value {
      type: DT_FLOAT
    }
  }
  attr {
    key: "value"
    value {
      tensor {
        dtype: DT_FLOAT
        tensor_shape {
        }
        float_val: 0.5
      }
    }
  }
}
node {
  name: "rnn/multi_rnn_cell/cell_1/basic_rnn_cell/kernel/Initializer/random_uniform/RandomUniform"
  op: "RandomUniform"
  input: "rnn/multi_rnn_cell/cell_1/basic_rnn_cell/kernel/Initializer/random_uniform/shape"
  attr {
    key: "T"
    value {
      type: DT_INT32
    }
  }
  attr {
    key: "_class"
    value {
      list {
        s: "loc:@rnn/multi_rnn_cell/cell_1/basic_rnn_cell/kernel"
      }
    }
  }
  attr {
    key: "dtype"
    value {
      type: DT_FLOAT
    }
  }
  attr {
    key: "seed"
    value {
      i: 0
    }
  }
  attr {
    key: "seed2"
    value {
      i: 0
    }
  }
}
node {
  name: "rnn/multi_rnn_cell/cell_1/basic_rnn_cell/kernel/Initializer/random_uniform/sub"
  op: "Sub"
  input: "rnn/multi_rnn_cell/cell_1/basic_rnn_cell/kernel/Initializer/random_uniform/max"
  input: "rnn/multi_rnn_cell/cell_1/basic_rnn_cell/kernel/Initializer/random_uniform/min"
  attr {
    key: "T"
    value {
      type: DT_FLOAT
    }
  }
  attr {
    key: "_class"
    value {
      list {
        s: "loc:@rnn/multi_rnn_cell/cell_1/basic_rnn_cell/kernel"
      }
    }
  }
}
node {
  name: "rnn/multi_rnn_cell/cell_1/basic_rnn_cell/kernel/Initializer/random_uniform/mul"
  op: "Mul"
  input: "rnn/multi_rnn_cell/cell_1/basic_rnn_cell/kernel/Initializer/random_uniform/RandomUniform"
  input: "rnn/multi_rnn_cell/cell_1/basic_rnn_cell/kernel/Initializer/random_uniform/sub"
  attr {
    key: "T"
    value {
      type: DT_FLOAT
    }
  }
  attr {
    key: "_class"
    value {
      list {
        s: "loc:@rnn/multi_rnn_cell/cell_1/basic_rnn_cell/kernel"
      }
    }
  }
}
node {
  name: "rnn/multi_rnn_cell/cell_1/basic_rnn_cell/kernel/Initializer/random_uniform"
  op: "Add"
  input: "rnn/multi_rnn_cell/cell_1/basic_rnn_cell/kernel/Initializer/random_uniform/mul"
  input: "rnn/multi_rnn_cell/cell_1/basic_rnn_cell/kernel/Initializer/random_uniform/min"
  attr {
    key: "T"
    value {
      type: DT_FLOAT
    }
  }
  attr {
    key: "_class"
    value {
      list {
        s: "loc:@rnn/multi_rnn_cell/cell_1/basic_rnn_cell/kernel"
      }
    }
  }
}
node {
  name: "rnn/multi_rnn_cell/cell_1/basic_rnn_cell/kernel"
  op: "VariableV2"
  attr {
    key: "_class"
    value {
      list {
        s: "loc:@rnn/multi_rnn_cell/cell_1/basic_rnn_cell/kernel"
      }
    }
  }
  attr {
    key: "container"
    value {
      s: ""
    }
  }
  attr {
    key: "dtype"
    value {
      type: DT_FLOAT
    }
  }
  attr {
    key: "shape"
    value {
      shape {
        dim {
          size: 20
        }
        dim {
          size: 4
        }
      }
    }
  }
  attr {
    key: "shared_name"
    value {
      s: ""
    }
  }
}
node {
  name: "rnn/multi_rnn_cell/cell_1/basic_rnn_cell/kernel/Assign"
  op: "Assign"
  input: "rnn/multi_rnn_cell/cell_1/basic_rnn_cell/kernel"
  input: "rnn/multi_rnn_cell/cell_1/basic_rnn_cell/kernel/Initializer/random_uniform"
  attr {
    key: "T"
    value {
      type: DT_FLOAT
    }
  }
  attr {
    key: "_class"
    value {
      list {
        s: "loc:@rnn/multi_rnn_cell/cell_1/basic_rnn_cell/kernel"
      }
    }
  }
  attr {
    key: "use_locking"
    value {
      b: true
    }
  }
  attr {
    key: "validate_shape"
    value {
      b: true
    }
  }
}
node {
  name: "rnn/multi_rnn_cell/cell_1/basic_rnn_cell/kernel/read"
  op: "Identity"
  input: "rnn/multi_rnn_cell/cell_1/basic_rnn_cell/kernel"
  attr {
    key: "T"
    value {
      type: DT_FLOAT
    }
  }
}
node {
  name: "rnn/multi_rnn_cell/cell_1/basic_rnn_cell/bias/Initializer/Const"
  op: "Const"
  attr {
    key: "_class"
    value {
      list {
        s: "loc:@rnn/multi_rnn_cell/cell_1/basic_rnn_cell/bias"
      }
    }
  }
  attr {
    key: "dtype"
    value {
      type: DT_FLOAT
    }
  }
  attr {
    key: "value"
    value {
      tensor {
        dtype: DT_FLOAT
        tensor_shape {
          dim {
            size: 4
          }
        }
        float_val: 0.0
      }
    }
  }
}
node {
  name: "rnn/multi_rnn_cell/cell_1/basic_rnn_cell/bias"
  op: "VariableV2"
  attr {
    key: "_class"
    value {
      list {
        s: "loc:@rnn/multi_rnn_cell/cell_1/basic_rnn_cell/bias"
      }
    }
  }
  attr {
    key: "container"
    value {
      s: ""
    }
  }
  attr {
    key: "dtype"
    value {
      type: DT_FLOAT
    }
  }
  attr {
    key: "shape"
    value {
      shape {
        dim {
          size: 4
        }
      }
    }
  }
  attr {
    key: "shared_name"
    value {
      s: ""
    }
  }
}
node {
  name: "rnn/multi_rnn_cell/cell_1/basic_rnn_cell/bias/Assign"
  op: "Assign"
  input: "rnn/multi_rnn_cell/cell_1/basic_rnn_cell/bias"
  input: "rnn/multi_rnn_cell/cell_1/basic_rnn_cell/bias/Initializer/Const"
  attr {
    key: "T"
    value {
      type: DT_FLOAT
    }
  }
  attr {
    key: "_class"
    value {
      list {
        s: "loc:@rnn/multi_rnn_cell/cell_1/basic_rnn_cell/bias"
      }
    }
  }
  attr {
    key: "use_locking"
    value {
      b: true
    }
  }
  attr {
    key: "validate_shape"
    value {
      b: true
    }
  }
}
node {
  name: "rnn/multi_rnn_cell/cell_1/basic_rnn_cell/bias/read"
  op: "Identity"
  input: "rnn/multi_rnn_cell/cell_1/basic_rnn_cell/bias"
  attr {
    key: "T"
    value {
      type: DT_FLOAT
    }
  }
}
node {
  name: "rnn/while/rnn/multi_rnn_cell/cell_1/cell_1/basic_rnn_cell/concat/axis"
  op: "Const"
  input: "^rnn/while/Identity"
  attr {
    key: "dtype"
    value {
      type: DT_INT32
    }
  }
  attr {
    key: "value"
    value {
      tensor {
        dtype: DT_INT32
        tensor_shape {
        }
        int_val: 1
      }
    }
  }
}
node {
  name: "rnn/while/rnn/multi_rnn_cell/cell_1/cell_1/basic_rnn_cell/concat"
  op: "ConcatV2"
  input: "rnn/while/rnn/multi_rnn_cell/cell_0/cell_0/basic_rnn_cell/Tanh"
  input: "rnn/while/Identity_3"
  input: "rnn/while/rnn/multi_rnn_cell/cell_1/cell_1/basic_rnn_cell/concat/axis"
  attr {
    key: "N"
    value {
      i: 2
    }
  }
  attr {
    key: "T"
    value {
      type: DT_FLOAT
    }
  }
  attr {
    key: "Tidx"
    value {
      type: DT_INT32
    }
  }
}
node {
  name: "rnn/while/rnn/multi_rnn_cell/cell_1/cell_1/basic_rnn_cell/MatMul/Enter"
  op: "Enter"
  input: "rnn/multi_rnn_cell/cell_1/basic_rnn_cell/kernel/read"
  attr {
    key: "T"
    value {
      type: DT_FLOAT
    }
  }
  attr {
    key: "frame_name"
    value {
      s: "rnn/while/while_context"
    }
  }
  attr {
    key: "is_constant"
    value {
      b: true
    }
  }
  attr {
    key: "parallel_iterations"
    value {
      i: 32
    }
  }
}
node {
  name: "rnn/while/rnn/multi_rnn_cell/cell_1/cell_1/basic_rnn_cell/MatMul"
  op: "MatMul"
  input: "rnn/while/rnn/multi_rnn_cell/cell_1/cell_1/basic_rnn_cell/concat"
  input: "rnn/while/rnn/multi_rnn_cell/cell_1/cell_1/basic_rnn_cell/MatMul/Enter"
  attr {
    key: "T"
    value {
      type: DT_FLOAT
    }
  }
  attr {
    key: "transpose_a"
    value {
      b: false
    }
  }
  attr {
    key: "transpose_b"
    value {
      b: false
    }
  }
}
node {
  name: "rnn/while/rnn/multi_rnn_cell/cell_1/cell_1/basic_rnn_cell/BiasAdd/Enter"
  op: "Enter"
  input: "rnn/multi_rnn_cell/cell_1/basic_rnn_cell/bias/read"
  attr {
    key: "T"
    value {
      type: DT_FLOAT
    }
  }
  attr {
    key: "frame_name"
    value {
      s: "rnn/while/while_context"
    }
  }
  attr {
    key: "is_constant"
    value {
      b: true
    }
  }
  attr {
    key: "parallel_iterations"
    value {
      i: 32
    }
  }
}
node {
  name: "rnn/while/rnn/multi_rnn_cell/cell_1/cell_1/basic_rnn_cell/BiasAdd"
  op: "BiasAdd"
  input: "rnn/while/rnn/multi_rnn_cell/cell_1/cell_1/basic_rnn_cell/MatMul"
  input: "rnn/while/rnn/multi_rnn_cell/cell_1/cell_1/basic_rnn_cell/BiasAdd/Enter"
  attr {
    key: "T"
    value {
      type: DT_FLOAT
    }
  }
  attr {
    key: "data_format"
    value {
      s: "NHWC"
    }
  }
}
node {
  name: "rnn/while/rnn/multi_rnn_cell/cell_1/cell_1/basic_rnn_cell/Tanh"
  op: "Tanh"
  input: "rnn/while/rnn/multi_rnn_cell/cell_1/cell_1/basic_rnn_cell/BiasAdd"
  attr {
    key: "T"
    value {
      type: DT_FLOAT
    }
  }
}
node {
  name: "rnn/while/TensorArrayWrite/TensorArrayWriteV3/Enter"
  op: "Enter"
  input: "rnn/TensorArray"
  attr {
    key: "T"
    value {
      type: DT_RESOURCE
    }
  }
  attr {
    key: "_class"
    value {
      list {
        s: "loc:@rnn/while/rnn/multi_rnn_cell/cell_1/cell_1/basic_rnn_cell/Tanh"
      }
    }
  }
  attr {
    key: "frame_name"
    value {
      s: "rnn/while/while_context"
    }
  }
  attr {
    key: "is_constant"
    value {
      b: true
    }
  }
  attr {
    key: "parallel_iterations"
    value {
      i: 32
    }
  }
}
node {
  name: "rnn/while/TensorArrayWrite/TensorArrayWriteV3"
  op: "TensorArrayWriteV3"
  input: "rnn/while/TensorArrayWrite/TensorArrayWriteV3/Enter"
  input: "rnn/while/Identity"
  input: "rnn/while/rnn/multi_rnn_cell/cell_1/cell_1/basic_rnn_cell/Tanh"
  input: "rnn/while/Identity_1"
  attr {
    key: "T"
    value {
      type: DT_FLOAT
    }
  }
  attr {
    key: "_class"
    value {
      list {
        s: "loc:@rnn/while/rnn/multi_rnn_cell/cell_1/cell_1/basic_rnn_cell/Tanh"
      }
    }
  }
}
node {
  name: "rnn/while/add/y"
  op: "Const"
  input: "^rnn/while/Identity"
  attr {
    key: "dtype"
    value {
      type: DT_INT32
    }
  }
  attr {
    key: "value"
    value {
      tensor {
        dtype: DT_INT32
        tensor_shape {
        }
        int_val: 1
      }
    }
  }
}
node {
  name: "rnn/while/add"
  op: "Add"
  input: "rnn/while/Identity"
  input: "rnn/while/add/y"
  attr {
    key: "T"
    value {
      type: DT_INT32
    }
  }
}
node {
  name: "rnn/while/NextIteration"
  op: "NextIteration"
  input: "rnn/while/add"
  attr {
    key: "T"
    value {
      type: DT_INT32
    }
  }
}
node {
  name: "rnn/while/NextIteration_1"
  op: "NextIteration"
  input: "rnn/while/TensorArrayWrite/TensorArrayWriteV3"
  attr {
    key: "T"
    value {
      type: DT_FLOAT
    }
  }
}
node {
  name: "rnn/while/NextIteration_2"
  op: "NextIteration"
  input: "rnn/while/rnn/multi_rnn_cell/cell_0/cell_0/basic_rnn_cell/Tanh"
  attr {
    key: "T"
    value {
      type: DT_FLOAT
    }
  }
}
node {
  name: "rnn/while/NextIteration_3"
  op: "NextIteration"
  input: "rnn/while/rnn/multi_rnn_cell/cell_1/cell_1/basic_rnn_cell/Tanh"
  attr {
    key: "T"
    value {
      type: DT_FLOAT
    }
  }
}
node {
  name: "rnn/while/Exit"
  op: "Exit"
  input: "rnn/while/Switch"
  attr {
    key: "T"
    value {
      type: DT_INT32
    }
  }
}
node {
  name: "rnn/while/Exit_1"
  op: "Exit"
  input: "rnn/while/Switch_1"
  attr {
    key: "T"
    value {
      type: DT_FLOAT
    }
  }
}
node {
  name: "rnn/while/Exit_2"
  op: "Exit"
  input: "rnn/while/Switch_2"
  attr {
    key: "T"
    value {
      type: DT_FLOAT
    }
  }
}
node {
  name: "rnn/while/Exit_3"
  op: "Exit"
  input: "rnn/while/Switch_3"
  attr {
    key: "T"
    value {
      type: DT_FLOAT
    }
  }
}
node {
  name: "rnn/TensorArrayStack/TensorArraySizeV3"
  op: "TensorArraySizeV3"
  input: "rnn/TensorArray"
  input: "rnn/while/Exit_1"
  attr {
    key: "_class"
    value {
      list {
        s: "loc:@rnn/TensorArray"
      }
    }
  }
}
node {
  name: "rnn/TensorArrayStack/range/start"
  op: "Const"
  attr {
    key: "_class"
    value {
      list {
        s: "loc:@rnn/TensorArray"
      }
    }
  }
  attr {
    key: "dtype"
    value {
      type: DT_INT32
    }
  }
  attr {
    key: "value"
    value {
      tensor {
        dtype: DT_INT32
        tensor_shape {
        }
        int_val: 0
      }
    }
  }
}
node {
  name: "rnn/TensorArrayStack/range/delta"
  op: "Const"
  attr {
    key: "_class"
    value {
      list {
        s: "loc:@rnn/TensorArray"
      }
    }
  }
  attr {
    key: "dtype"
    value {
      type: DT_INT32
    }
  }
  attr {
    key: "value"
    value {
      tensor {
        dtype: DT_INT32
        tensor_shape {
        }
        int_val: 1
      }
    }
  }
}
node {
  name: "rnn/TensorArrayStack/range"
  op: "Range"
  input: "rnn/TensorArrayStack/range/start"
  input: "rnn/TensorArrayStack/TensorArraySizeV3"
  input: "rnn/TensorArrayStack/range/delta"
  attr {
    key: "Tidx"
    value {
      type: DT_INT32
    }
  }
  attr {
    key: "_class"
    value {
      list {
        s: "loc:@rnn/TensorArray"
      }
    }
  }
}
node {
  name: "rnn/TensorArrayStack/TensorArrayGatherV3"
  op: "TensorArrayGatherV3"
  input: "rnn/TensorArray"
  input: "rnn/TensorArrayStack/range"
  input: "rnn/while/Exit_1"
  attr {
    key: "_class"
    value {
      list {
        s: "loc:@rnn/TensorArray"
      }
    }
  }
  attr {
    key: "dtype"
    value {
      type: DT_FLOAT
    }
  }
  attr {
    key: "element_shape"
    value {
      shape {
        dim {
          size: -1
        }
        dim {
          size: 4
        }
      }
    }
  }
}
node {
  name: "rnn/Const_1"
  op: "Const"
  attr {
    key: "dtype"
    value {
      type: DT_INT32
    }
  }
  attr {
    key: "value"
    value {
      tensor {
        dtype: DT_INT32
        tensor_shape {
          dim {
            size: 1
          }
        }
        int_val: 4
      }
    }
  }
}
node {
  name: "rnn/Rank"
  op: "Const"
  attr {
    key: "dtype"
    value {
      type: DT_INT32
    }
  }
  attr {
    key: "value"
    value {
      tensor {
        dtype: DT_INT32
        tensor_shape {
        }
        int_val: 3
      }
    }
  }
}
node {
  name: "rnn/range/start"
  op: "Const"
  attr {
    key: "dtype"
    value {
      type: DT_INT32
    }
  }
  attr {
    key: "value"
    value {
      tensor {
        dtype: DT_INT32
        tensor_shape {
        }
        int_val: 2
      }
    }
  }
}
node {
  name: "rnn/range/delta"
  op: "Const"
  attr {
    key: "dtype"
    value {
      type: DT_INT32
    }
  }
  attr {
    key: "value"
    value {
      tensor {
        dtype: DT_INT32
        tensor_shape {
        }
        int_val: 1
      }
    }
  }
}
node {
  name: "rnn/range"
  op: "Range"
  input: "rnn/range/start"
  input: "rnn/Rank"
  input: "rnn/range/delta"
  attr {
    key: "Tidx"
    value {
      type: DT_INT32
    }
  }
}
node {
  name: "rnn/concat_1/values_0"
  op: "Const"
  attr {
    key: "dtype"
    value {
      type: DT_INT32
    }
  }
  attr {
    key: "value"
    value {
      tensor {
        dtype: DT_INT32
        tensor_shape {
          dim {
            size: 2
          }
        }
        tensor_content: "\001\000\000\000\000\000\000\000"
      }
    }
  }
}
node {
  name: "rnn/concat_1/axis"
  op: "Const"
  attr {
    key: "dtype"
    value {
      type: DT_INT32
    }
  }
  attr {
    key: "value"
    value {
      tensor {
        dtype: DT_INT32
        tensor_shape {
        }
        int_val: 0
      }
    }
  }
}
node {
  name: "rnn/concat_1"
  op: "ConcatV2"
  input: "rnn/concat_1/values_0"
  input: "rnn/range"
  input: "rnn/concat_1/axis"
  attr {
    key: "N"
    value {
      i: 2
    }
  }
  attr {
    key: "T"
    value {
      type: DT_INT32
    }
  }
  attr {
    key: "Tidx"
    value {
      type: DT_INT32
    }
  }
}
node {
  name: "rnn/transpose"
  op: "Transpose"
  input: "rnn/TensorArrayStack/TensorArrayGatherV3"
  input: "rnn/concat_1"
  attr {
    key: "T"
    value {
      type: DT_FLOAT
    }
  }
  attr {
    key: "Tperm"
    value {
      type: DT_INT32
    }
  }
}
node {
  name: "output_state_0"
  op: "Identity"
  input: "rnn/while/Exit_2"
  attr {
    key: "T"
    value {
      type: DT_FLOAT
    }
  }
}
node {
  name: "output_state_1"
  op: "Identity"
  input: "rnn/while/Exit_3"
  attr {
    key: "T"
    value {
      type: DT_FLOAT
    }
  }
}
node {
  name: "strided_slice/stack"
  op: "Const"
  attr {
    key: "dtype"
    value {
      type: DT_INT32
    }
  }
  attr {
    key: "value"
    value {
      tensor {
        dtype: DT_INT32
        tensor_shape {
          dim {
            size: 3
          }
        }
        tensor_content: "\000\000\000\000\000\000\000\000\000\000\000\000"
      }
    }
  }
}
node {
  name: "strided_slice/stack_1"
  op: "Const"
  attr {
    key: "dtype"
    value {
      type: DT_INT32
    }
  }
  attr {
    key: "value"
    value {
      tensor {
        dtype: DT_INT32
        tensor_shape {
          dim {
            size: 3
          }
        }
        tensor_content: "\000\000\000\000\000\000\000\000\001\000\000\000"
      }
    }
  }
}
node {
  name: "strided_slice/stack_2"
  op: "Const"
  attr {
    key: "dtype"
    value {
      type: DT_INT32
    }
  }
  attr {
    key: "value"
    value {
      tensor {
        dtype: DT_INT32
        tensor_shape {
          dim {
            size: 3
          }
        }
        tensor_content: "\001\000\000\000\001\000\000\000\001\000\000\000"
      }
    }
  }
}
node {
  name: "strided_slice"
  op: "StridedSlice"
  input: "rnn/transpose"
  input: "strided_slice/stack"
  input: "strided_slice/stack_1"
  input: "strided_slice/stack_2"
  attr {
    key: "Index"
    value {
      type: DT_INT32
    }
  }
  attr {
    key: "T"
    value {
      type: DT_FLOAT
    }
  }
  attr {
    key: "begin_mask"
    value {
      i: 3
    }
  }
  attr {
    key: "ellipsis_mask"
    value {
      i: 0
    }
  }
  attr {
    key: "end_mask"
    value {
      i: 3
    }
  }
  attr {
    key: "new_axis_mask"
    value {
      i: 0
    }
  }
  attr {
    key: "shrink_axis_mask"
    value {
      i: 4
    }
  }
}
node {
  name: "strided_slice_1/stack"
  op: "Const"
  attr {
    key: "dtype"
    value {
      type: DT_INT32
    }
  }
  attr {
    key: "value"
    value {
      tensor {
        dtype: DT_INT32
        tensor_shape {
          dim {
            size: 3
          }
        }
        tensor_content: "\000\000\000\000\000\000\000\000\001\000\000\000"
      }
    }
  }
}
node {
  name: "strided_slice_1/stack_1"
  op: "Const"
  attr {
    key: "dtype"
    value {
      type: DT_INT32
    }
  }
  attr {
    key: "value"
    value {
      tensor {
        dtype: DT_INT32
        tensor_shape {
          dim {
            size: 3
          }
        }
        tensor_content: "\000\000\000\000\000\000\000\000\002\000\000\000"
      }
    }
  }
}
node {
  name: "strided_slice_1/stack_2"
  op: "Const"
  attr {
    key: "dtype"
    value {
      type: DT_INT32
    }
  }
  attr {
    key: "value"
    value {
      tensor {
        dtype: DT_INT32
        tensor_shape {
          dim {
            size: 3
          }
        }
        tensor_content: "\001\000\000\000\001\000\000\000\001\000\000\000"
      }
    }
  }
}
node {
  name: "strided_slice_1"
  op: "StridedSlice"
  input: "rnn/transpose"
  input: "strided_slice_1/stack"
  input: "strided_slice_1/stack_1"
  input: "strided_slice_1/stack_2"
  attr {
    key: "Index"
    value {
      type: DT_INT32
    }
  }
  attr {
    key: "T"
    value {
      type: DT_FLOAT
    }
  }
  attr {
    key: "begin_mask"
    value {
      i: 3
    }
  }
  attr {
    key: "ellipsis_mask"
    value {
      i: 0
    }
  }
  attr {
    key: "end_mask"
    value {
      i: 3
    }
  }
  attr {
    key: "new_axis_mask"
    value {
      i: 0
    }
  }
  attr {
    key: "shrink_axis_mask"
    value {
      i: 4
    }
  }
}
node {
  name: "Atan2"
  op: "Atan2"
  input: "strided_slice"
  input: "strided_slice_1"
  attr {
    key: "T"
    value {
      type: DT_FLOAT
    }
  }
}
node {
  name: "strided_slice_2/stack"
  op: "Const"
  attr {
    key: "dtype"
    value {
      type: DT_INT32
    }
  }
  attr {
    key: "value"
    value {
      tensor {
        dtype: DT_INT32
        tensor_shape {
          dim {
            size: 3
          }
        }
        tensor_content: "\000\000\000\000\000\000\000\000\002\000\000\000"
      }
    }
  }
}
node {
  name: "strided_slice_2/stack_1"
  op: "Const"
  attr {
    key: "dtype"
    value {
      type: DT_INT32
    }
  }
  attr {
    key: "value"
    value {
      tensor {
        dtype: DT_INT32
        tensor_shape {
          dim {
            size: 3
          }
        }
        tensor_content: "\000\000\000\000\000\000\000\000\003\000\000\000"
      }
    }
  }
}
node {
  name: "strided_slice_2/stack_2"
  op: "Const"
  attr {
    key: "dtype"
    value {
      type: DT_INT32
    }
  }
  attr {
    key: "value"
    value {
      tensor {
        dtype: DT_INT32
        tensor_shape {
          dim {
            size: 3
          }
        }
        tensor_content: "\001\000\000\000\001\000\000\000\001\000\000\000"
      }
    }
  }
}
node {
  name: "strided_slice_2"
  op: "StridedSlice"
  input: "rnn/transpose"
  input: "strided_slice_2/stack"
  input: "strided_slice_2/stack_1"
  input: "strided_slice_2/stack_2"
  attr {
    key: "Index"
    value {
      type: DT_INT32
    }
  }
  attr {
    key: "T"
    value {
      type: DT_FLOAT
    }
  }
  attr {
    key: "begin_mask"
    value {
      i: 3
    }
  }
  attr {
    key: "ellipsis_mask"
    value {
      i: 0
    }
  }
  attr {
    key: "end_mask"
    value {
      i: 3
    }
  }
  attr {
    key: "new_axis_mask"
    value {
      i: 0
    }
  }
  attr {
    key: "shrink_axis_mask"
    value {
      i: 4
    }
  }
}
node {
  name: "strided_slice_3/stack"
  op: "Const"
  attr {
    key: "dtype"
    value {
      type: DT_INT32
    }
  }
  attr {
    key: "value"
    value {
      tensor {
        dtype: DT_INT32
        tensor_shape {
          dim {
            size: 3
          }
        }
        tensor_content: "\000\000\000\000\000\000\000\000\003\000\000\000"
      }
    }
  }
}
node {
  name: "strided_slice_3/stack_1"
  op: "Const"
  attr {
    key: "dtype"
    value {
      type: DT_INT32
    }
  }
  attr {
    key: "value"
    value {
      tensor {
        dtype: DT_INT32
        tensor_shape {
          dim {
            size: 3
          }
        }
        tensor_content: "\000\000\000\000\000\000\000\000\004\000\000\000"
      }
    }
  }
}
node {
  name: "strided_slice_3/stack_2"
  op: "Const"
  attr {
    key: "dtype"
    value {
      type: DT_INT32
    }
  }
  attr {
    key: "value"
    value {
      tensor {
        dtype: DT_INT32
        tensor_shape {
          dim {
            size: 3
          }
        }
        tensor_content: "\001\000\000\000\001\000\000\000\001\000\000\000"
      }
    }
  }
}
node {
  name: "strided_slice_3"
  op: "StridedSlice"
  input: "rnn/transpose"
  input: "strided_slice_3/stack"
  input: "strided_slice_3/stack_1"
  input: "strided_slice_3/stack_2"
  attr {
    key: "Index"
    value {
      type: DT_INT32
    }
  }
  attr {
    key: "T"
    value {
      type: DT_FLOAT
    }
  }
  attr {
    key: "begin_mask"
    value {
      i: 3
    }
  }
  attr {
    key: "ellipsis_mask"
    value {
      i: 0
    }
  }
  attr {
    key: "end_mask"
    value {
      i: 3
    }
  }
  attr {
    key: "new_axis_mask"
    value {
      i: 0
    }
  }
  attr {
    key: "shrink_axis_mask"
    value {
      i: 4
    }
  }
}
node {
  name: "Atan2_1"
  op: "Atan2"
  input: "strided_slice_2"
  input: "strided_slice_3"
  attr {
    key: "T"
    value {
      type: DT_FLOAT
    }
  }
}
node {
  name: "output"
  op: "Pack"
  input: "Atan2"
  input: "Atan2_1"
  attr {
    key: "N"
    value {
      i: 2
    }
  }
  attr {
    key: "T"
    value {
      type: DT_FLOAT
    }
  }
  attr {
    key: "axis"
    value {
      i: 2
    }
  }
}
node {
  name: "sub"
  op: "Sub"
  input: "input_Y"
  input: "output"
  attr {
    key: "T"
    value {
      type: DT_FLOAT
    }
  }
}
node {
  name: "Sin"
  op: "Sin"
  input: "sub"
  attr {
    key: "T"
    value {
      type: DT_FLOAT
    }
  }
}
node {
  name: "Cos"
  op: "Cos"
  input: "sub"
  attr {
    key: "T"
    value {
      type: DT_FLOAT
    }
  }
}
node {
  name: "Atan2_2"
  op: "Atan2"
  input: "Sin"
  input: "Cos"
  attr {
    key: "T"
    value {
      type: DT_FLOAT
    }
  }
}
node {
  name: "Abs"
  op: "Abs"
  input: "Atan2_2"
  attr {
    key: "T"
    value {
      type: DT_FLOAT
    }
  }
}
node {
  name: "Const"
  op: "Const"
  attr {
    key: "dtype"
    value {
      type: DT_INT32
    }
  }
  attr {
    key: "value"
    value {
      tensor {
        dtype: DT_INT32
        tensor_shape {
          dim {
            size: 3
          }
        }
        tensor_content: "\000\000\000\000\001\000\000\000\002\000\000\000"
      }
    }
  }
}
node {
  name: "Mean"
  op: "Mean"
  input: "Abs"
  input: "Const"
  attr {
    key: "T"
    value {
      type: DT_FLOAT
    }
  }
  attr {
    key: "Tidx"
    value {
      type: DT_INT32
    }
  }
  attr {
    key: "keep_dims"
    value {
      b: false
    }
  }
}
node {
  name: "gradients/Shape"
  op: "Const"
  attr {
    key: "dtype"
    value {
      type: DT_INT32
    }
  }
  attr {
    key: "value"
    value {
      tensor {
        dtype: DT_INT32
        tensor_shape {
          dim {
          }
        }
      }
    }
  }
}
node {
  name: "gradients/Const"
  op: "Const"
  attr {
    key: "dtype"
    value {
      type: DT_FLOAT
    }
  }
  attr {
    key: "value"
    value {
      tensor {
        dtype: DT_FLOAT
        tensor_shape {
        }
        float_val: 1.0
      }
    }
  }
}
node {
  name: "gradients/Fill"
  op: "Fill"
  input: "gradients/Shape"
  input: "gradients/Const"
  attr {
    key: "T"
    value {
      type: DT_FLOAT
    }
  }
}
node {
  name: "gradients/f_count"
  op: "Const"
  attr {
    key: "dtype"
    value {
      type: DT_INT32
    }
  }
  attr {
    key: "value"
    value {
      tensor {
        dtype: DT_INT32
        tensor_shape {
        }
        int_val: 0
      }
    }
  }
}
node {
  name: "gradients/f_count_1"
  op: "Enter"
  input: "gradients/f_count"
  attr {
    key: "T"
    value {
      type: DT_INT32
    }
  }
  attr {
    key: "frame_name"
    value {
      s: "rnn/while/while_context"
    }
  }
  attr {
    key: "is_constant"
    value {
      b: false
    }
  }
  attr {
    key: "parallel_iterations"
    value {
      i: 32
    }
  }
}
node {
  name: "gradients/Merge"
  op: "Merge"
  input: "gradients/f_count_1"
  input: "gradients/NextIteration"
  attr {
    key: "N"
    value {
      i: 2
    }
  }
  attr {
    key: "T"
    value {
      type: DT_INT32
    }
  }
}
node {
  name: "gradients/Switch"
  op: "Switch"
  input: "gradients/Merge"
  input: "rnn/while/LoopCond"
  attr {
    key: "T"
    value {
      type: DT_INT32
    }
  }
}
node {
  name: "gradients/Add/y"
  op: "Const"
  input: "^rnn/while/Identity"
  attr {
    key: "dtype"
    value {
      type: DT_INT32
    }
  }
  attr {
    key: "value"
    value {
      tensor {
        dtype: DT_INT32
        tensor_shape {
        }
        int_val: 1
      }
    }
  }
}
node {
  name: "gradients/Add"
  op: "Add"
  input: "gradients/Switch:1"
  input: "gradients/Add/y"
  attr {
    key: "T"
    value {
      type: DT_INT32
    }
  }
}
node {
  name: "gradients/NextIteration"
  op: "NextIteration"
  input: "gradients/Add"
  input: "^gradients/rnn/while/TensorArrayWrite/TensorArrayWriteV3_grad/TensorArrayReadV3/StackPushV2"
  input: "^gradients/rnn/while/rnn/multi_rnn_cell/cell_1/cell_1/basic_rnn_cell/Tanh_grad/TanhGrad/StackPushV2"
  input: "^gradients/rnn/while/rnn/multi_rnn_cell/cell_1/cell_1/basic_rnn_cell/MatMul_grad/MatMul_1/StackPushV2"
  input: "^gradients/rnn/while/rnn/multi_rnn_cell/cell_1/cell_1/basic_rnn_cell/concat_grad/ShapeN/StackPushV2"
  input: "^gradients/rnn/while/rnn/multi_rnn_cell/cell_1/cell_1/basic_rnn_cell/concat_grad/ShapeN/StackPushV2_1"
  input: "^gradients/rnn/while/rnn/multi_rnn_cell/cell_0/cell_0/basic_rnn_cell/MatMul_grad/MatMul_1/StackPushV2"
  input: "^gradients/rnn/while/rnn/multi_rnn_cell/cell_0/cell_0/basic_rnn_cell/concat_grad/ShapeN/StackPushV2"
  input: "^gradients/rnn/while/rnn/multi_rnn_cell/cell_0/cell_0/basic_rnn_cell/concat_grad/ShapeN/StackPushV2_1"
  attr {
    key: "T"
    value {
      type: DT_INT32
    }
  }
}
node {
  name: "gradients/f_count_2"
  op: "Exit"
  input: "gradients/Switch"
  attr {
    key: "T"
    value {
      type: DT_INT32
    }
  }
}
node {
  name: "gradients/b_count"
  op: "Const"
  attr {
    key: "dtype"
    value {
      type: DT_INT32
    }
  }
  attr {
    key: "value"
    value {
      tensor {
        dtype: DT_INT32
        tensor_shape {
        }
        int_val: 1
      }
    }
  }
}
node {
  name: "gradients/b_count_1"
  op: "Enter"
  input: "gradients/f_count_2"
  attr {
    key: "T"
    value {
      type: DT_INT32
    }
  }
  attr {
    key: "frame_name"
    value {
      s: "gradients/rnn/while/while_context"
    }
  }
  attr {
    key: "is_constant"
    value {
      b: false
    }
  }
  attr {
    key: "parallel_iterations"
    value {
      i: 32
    }
  }
}
node {
  name: "gradients/Merge_1"
  op: "Merge"
  input: "gradients/b_count_1"
  input: "gradients/NextIteration_1"
  attr {
    key: "N"
    value {
      i: 2
    }
  }
  attr {
    key: "T"
    value {
      type: DT_INT32
    }
  }
}
node {
  name: "gradients/GreaterEqual/Enter"
  op: "Enter"
  input: "gradients/b_count"
  attr {
    key: "T"
    value {
      type: DT_INT32
    }
  }
  attr {
    key: "frame_name"
    value {
      s: "gradients/rnn/while/while_context"
    }
  }
  attr {
    key: "is_constant"
    value {
      b: true
    }
  }
  attr {
    key: "parallel_iterations"
    value {
      i: 32
    }
  }
}
node {
  name: "gradients/GreaterEqual"
  op: "GreaterEqual"
  input: "gradients/Merge_1"
  input: "gradients/GreaterEqual/Enter"
  attr {
    key: "T"
    value {
      type: DT_INT32
    }
  }
}
node {
  name: "gradients/b_count_2"
  op: "LoopCond"
  input: "gradients/GreaterEqual"
}
node {
  name: "gradients/Switch_1"
  op: "Switch"
  input: "gradients/Merge_1"
  input: "gradients/b_count_2"
  attr {
    key: "T"
    value {
      type: DT_INT32
    }
  }
}
node {
  name: "gradients/Sub"
  op: "Sub"
  input: "gradients/Switch_1:1"
  input: "gradients/GreaterEqual/Enter"
  attr {
    key: "T"
    value {
      type: DT_INT32
    }
  }
}
node {
  name: "gradients/NextIteration_1"
  op: "NextIteration"
  input: "gradients/Sub"
  input: "^gradients/rnn/while/TensorArrayWrite/TensorArrayWriteV3_grad/TensorArrayReadV3/b_sync"
  attr {
    key: "T"
    value {
      type: DT_INT32
    }
  }
}
node {
  name: "gradients/b_count_3"
  op: "Exit"
  input: "gradients/Switch_1"
  attr {
    key: "T"
    value {
      type: DT_INT32
    }
  }
}
node {
  name: "gradients/Mean_grad/Reshape/shape"
  op: "Const"
  attr {
    key: "dtype"
    value {
      type: DT_INT32
    }
  }
  attr {
    key: "value"
    value {
      tensor {
        dtype: DT_INT32
        tensor_shape {
          dim {
            size: 3
          }
        }
        tensor_content: "\001\000\000\000\001\000\000\000\001\000\000\000"
      }
    }
  }
}
node {
  name: "gradients/Mean_grad/Reshape"
  op: "Reshape"
  input: "gradients/Fill"
  input: "gradients/Mean_grad/Reshape/shape"
  attr {
    key: "T"
    value {
      type: DT_FLOAT
    }
  }
  attr {
    key: "Tshape"
    value {
      type: DT_INT32
    }
  }
}
node {
  name: "gradients/Mean_grad/Shape"
  op: "Shape"
  input: "Abs"
  attr {
    key: "T"
    value {
      type: DT_FLOAT
    }
  }
  attr {
    key: "out_type"
    value {
      type: DT_INT32
    }
  }
}
node {
  name: "gradients/Mean_grad/Tile"
  op: "Tile"
  input: "gradients/Mean_grad/Reshape"
  input: "gradients/Mean_grad/Shape"
  attr {
    key: "T"
    value {
      type: DT_FLOAT
    }
  }
  attr {
    key: "Tmultiples"
    value {
      type: DT_INT32
    }
  }
}
node {
  name: "gradients/Mean_grad/Shape_1"
  op: "Shape"
  input: "Abs"
  attr {
    key: "T"
    value {
      type: DT_FLOAT
    }
  }
  attr {
    key: "out_type"
    value {
      type: DT_INT32
    }
  }
}
node {
  name: "gradients/Mean_grad/Shape_2"
  op: "Const"
  attr {
    key: "dtype"
    value {
      type: DT_INT32
    }
  }
  attr {
    key: "value"
    value {
      tensor {
        dtype: DT_INT32
        tensor_shape {
          dim {
          }
        }
      }
    }
  }
}
node {
  name: "gradients/Mean_grad/Const"
  op: "Const"
  attr {
    key: "_class"
    value {
      list {
        s: "loc:@gradients/Mean_grad/Shape_1"
      }
    }
  }
  attr {
    key: "dtype"
    value {
      type: DT_INT32
    }
  }
  attr {
    key: "value"
    value {
      tensor {
        dtype: DT_INT32
        tensor_shape {
          dim {
            size: 1
          }
        }
        int_val: 0
      }
    }
  }
}
node {
  name: "gradients/Mean_grad/Prod"
  op: "Prod"
  input: "gradients/Mean_grad/Shape_1"
  input: "gradients/Mean_grad/Const"
  attr {
    key: "T"
    value {
      type: DT_INT32
    }
  }
  attr {
    key: "Tidx"
    value {
      type: DT_INT32
    }
  }
  attr {
    key: "_class"
    value {
      list {
        s: "loc:@gradients/Mean_grad/Shape_1"
      }
    }
  }
  attr {
    key: "keep_dims"
    value {
      b: false
    }
  }
}
node {
  name: "gradients/Mean_grad/Const_1"
  op: "Const"
  attr {
    key: "_class"
    value {
      list {
        s: "loc:@gradients/Mean_grad/Shape_1"
      }
    }
  }
  attr {
    key: "dtype"
    value {
      type: DT_INT32
    }
  }
  attr {
    key: "value"
    value {
      tensor {
        dtype: DT_INT32
        tensor_shape {
          dim {
            size: 1
          }
        }
        int_val: 0
      }
    }
  }
}
node {
  name: "gradients/Mean_grad/Prod_1"
  op: "Prod"
  input: "gradients/Mean_grad/Shape_2"
  input: "gradients/Mean_grad/Const_1"
  attr {
    key: "T"
    value {
      type: DT_INT32
    }
  }
  attr {
    key: "Tidx"
    value {
      type: DT_INT32
    }
  }
  attr {
    key: "_class"
    value {
      list {
        s: "loc:@gradients/Mean_grad/Shape_1"
      }
    }
  }
  attr {
    key: "keep_dims"
    value {
      b: false
    }
  }
}
node {
  name: "gradients/Mean_grad/Maximum/y"
  op: "Const"
  attr {
    key: "_class"
    value {
      list {
        s: "loc:@gradients/Mean_grad/Shape_1"
      }
    }
  }
  attr {
    key: "dtype"
    value {
      type: DT_INT32
    }
  }
  attr {
    key: "value"
    value {
      tensor {
        dtype: DT_INT32
        tensor_shape {
        }
        int_val: 1
      }
    }
  }
}
node {
  name: "gradients/Mean_grad/Maximum"
  op: "Maximum"
  input: "gradients/Mean_grad/Prod_1"
  input: "gradients/Mean_grad/Maximum/y"
  attr {
    key: "T"
    value {
      type: DT_INT32
    }
  }
  attr {
    key: "_class"
    value {
      list {
        s: "loc:@gradients/Mean_grad/Shape_1"
      }
    }
  }
}
node {
  name: "gradients/Mean_grad/floordiv"
  op: "FloorDiv"
  input: "gradients/Mean_grad/Prod"
  input: "gradients/Mean_grad/Maximum"
  attr {
    key: "T"
    value {
      type: DT_INT32
    }
  }
  attr {
    key: "_class"
    value {
      list {
        s: "loc:@gradients/Mean_grad/Shape_1"
      }
    }
  }
}
node {
  name: "gradients/Mean_grad/Cast"
  op: "Cast"
  input: "gradients/Mean_grad/floordiv"
  attr {
    key: "DstT"
    value {
      type: DT_FLOAT
    }
  }
  attr {
    key: "SrcT"
    value {
      type: DT_INT32
    }
  }
}
node {
  name: "gradients/Mean_grad/truediv"
  op: "RealDiv"
  input: "gradients/Mean_grad/Tile"
  input: "gradients/Mean_grad/Cast"
  attr {
    key: "T"
    value {
      type: DT_FLOAT
    }
  }
}
node {
  name: "gradients/Abs_grad/Sign"
  op: "Sign"
  input: "Atan2_2"
  attr {
    key: "T"
    value {
      type: DT_FLOAT
    }
  }
}
node {
  name: "gradients/Abs_grad/mul"
  op: "Mul"
  input: "gradients/Mean_grad/truediv"
  input: "gradients/Abs_grad/Sign"
  attr {
    key: "T"
    value {
      type: DT_FLOAT
    }
  }
}
node {
  name: "gradients/Atan2_2_grad/Square"
  op: "Square"
  input: "Cos"
  input: "^gradients/Abs_grad/mul"
  attr {
    key: "T"
    value {
      type: DT_FLOAT
    }
  }
}
node {
  name: "gradients/Atan2_2_grad/Square_1"
  op: "Square"
  input: "Sin"
  input: "^gradients/Abs_grad/mul"
  attr {
    key: "T"
    value {
      type: DT_FLOAT
    }
  }
}
node {
  name: "gradients/Atan2_2_grad/add"
  op: "Add"
  input: "gradients/Atan2_2_grad/Square"
  input: "gradients/Atan2_2_grad/Square_1"
  attr {
    key: "T"
    value {
      type: DT_FLOAT
    }
  }
}
node {
  name: "gradients/Atan2_2_grad/truediv"
  op: "RealDiv"
  input: "gradients/Abs_grad/mul"
  input: "gradients/Atan2_2_grad/add"
  attr {
    key: "T"
    value {
      type: DT_FLOAT
    }
  }
}
node {
  name: "gradients/Atan2_2_grad/mul"
  op: "Mul"
  input: "Cos"
  input: "gradients/Atan2_2_grad/truediv"
  attr {
    key: "T"
    value {
      type: DT_FLOAT
    }
  }
}
node {
  name: "gradients/Atan2_2_grad/Neg"
  op: "Neg"
  input: "Sin"
  input: "^gradients/Abs_grad/mul"
  attr {
    key: "T"
    value {
      type: DT_FLOAT
    }
  }
}
node {
  name: "gradients/Atan2_2_grad/mul_1"
  op: "Mul"
  input: "gradients/Atan2_2_grad/Neg"
  input: "gradients/Atan2_2_grad/truediv"
  attr {
    key: "T"
    value {
      type: DT_FLOAT
    }
  }
}
node {
  name: "gradients/Atan2_2_grad/tuple/group_deps"
  op: "NoOp"
  input: "^gradients/Atan2_2_grad/mul"
  input: "^gradients/Atan2_2_grad/mul_1"
}
node {
  name: "gradients/Atan2_2_grad/tuple/control_dependency"
  op: "Identity"
  input: "gradients/Atan2_2_grad/mul"
  input: "^gradients/Atan2_2_grad/tuple/group_deps"
  attr {
    key: "T"
    value {
      type: DT_FLOAT
    }
  }
  attr {
    key: "_class"
    value {
      list {
        s: "loc:@gradients/Atan2_2_grad/mul"
      }
    }
  }
}
node {
  name: "gradients/Atan2_2_grad/tuple/control_dependency_1"
  op: "Identity"
  input: "gradients/Atan2_2_grad/mul_1"
  input: "^gradients/Atan2_2_grad/tuple/group_deps"
  attr {
    key: "T"
    value {
      type: DT_FLOAT
    }
  }
  attr {
    key: "_class"
    value {
      list {
        s: "loc:@gradients/Atan2_2_grad/mul_1"
      }
    }
  }
}
node {
  name: "gradients/Sin_grad/Cos"
  op: "Cos"
  input: "sub"
  input: "^gradients/Atan2_2_grad/tuple/control_dependency"
  attr {
    key: "T"
    value {
      type: DT_FLOAT
    }
  }
}
node {
  name: "gradients/Sin_grad/mul"
  op: "Mul"
  input: "gradients/Atan2_2_grad/tuple/control_dependency"
  input: "gradients/Sin_grad/Cos"
  attr {
    key: "T"
    value {
      type: DT_FLOAT
    }
  }
}
node {
  name: "gradients/Cos_grad/Neg"
  op: "Neg"
  input: "gradients/Atan2_2_grad/tuple/control_dependency_1"
  attr {
    key: "T"
    value {
      type: DT_FLOAT
    }
  }
}
node {
  name: "gradients/Cos_grad/Sin"
  op: "Sin"
  input: "sub"
  input: "^gradients/Atan2_2_grad/tuple/control_dependency_1"
  attr {
    key: "T"
    value {
      type: DT_FLOAT
    }
  }
}
node {
  name: "gradients/Cos_grad/mul"
  op: "Mul"
  input: "gradients/Cos_grad/Neg"
  input: "gradients/Cos_grad/Sin"
  attr {
    key: "T"
    value {
      type: DT_FLOAT
    }
  }
}
node {
  name: "gradients/AddN"
  op: "AddN"
  input: "gradients/Sin_grad/mul"
  input: "gradients/Cos_grad/mul"
  attr {
    key: "N"
    value {
      i: 2
    }
  }
  attr {
    key: "T"
    value {
      type: DT_FLOAT
    }
  }
  attr {
    key: "_class"
    value {
      list {
        s: "loc:@gradients/Sin_grad/mul"
      }
    }
  }
}
node {
  name: "gradients/sub_grad/Shape"
  op: "Shape"
  input: "input_Y"
  attr {
    key: "T"
    value {
      type: DT_FLOAT
    }
  }
  attr {
    key: "out_type"
    value {
      type: DT_INT32
    }
  }
}
node {
  name: "gradients/sub_grad/Shape_1"
  op: "Shape"
  input: "output"
  attr {
    key: "T"
    value {
      type: DT_FLOAT
    }
  }
  attr {
    key: "out_type"
    value {
      type: DT_INT32
    }
  }
}
node {
  name: "gradients/sub_grad/BroadcastGradientArgs"
  op: "BroadcastGradientArgs"
  input: "gradients/sub_grad/Shape"
  input: "gradients/sub_grad/Shape_1"
  attr {
    key: "T"
    value {
      type: DT_INT32
    }
  }
}
node {
  name: "gradients/sub_grad/Sum"
  op: "Sum"
  input: "gradients/AddN"
  input: "gradients/sub_grad/BroadcastGradientArgs"
  attr {
    key: "T"
    value {
      type: DT_FLOAT
    }
  }
  attr {
    key: "Tidx"
    value {
      type: DT_INT32
    }
  }
  attr {
    key: "keep_dims"
    value {
      b: false
    }
  }
}
node {
  name: "gradients/sub_grad/Reshape"
  op: "Reshape"
  input: "gradients/sub_grad/Sum"
  input: "gradients/sub_grad/Shape"
  attr {
    key: "T"
    value {
      type: DT_FLOAT
    }
  }
  attr {
    key: "Tshape"
    value {
      type: DT_INT32
    }
  }
}
node {
  name: "gradients/sub_grad/Sum_1"
  op: "Sum"
  input: "gradients/AddN"
  input: "gradients/sub_grad/BroadcastGradientArgs:1"
  attr {
    key: "T"
    value {
      type: DT_FLOAT
    }
  }
  attr {
    key: "Tidx"
    value {
      type: DT_INT32
    }
  }
  attr {
    key: "keep_dims"
    value {
      b: false
    }
  }
}
node {
  name: "gradients/sub_grad/Neg"
  op: "Neg"
  input: "gradients/sub_grad/Sum_1"
  attr {
    key: "T"
    value {
      type: DT_FLOAT
    }
  }
}
node {
  name: "gradients/sub_grad/Reshape_1"
  op: "Reshape"
  input: "gradients/sub_grad/Neg"
  input: "gradients/sub_grad/Shape_1"
  attr {
    key: "T"
    value {
      type: DT_FLOAT
    }
  }
  attr {
    key: "Tshape"
    value {
      type: DT_INT32
    }
  }
}
node {
  name: "gradients/sub_grad/tuple/group_deps"
  op: "NoOp"
  input: "^gradients/sub_grad/Reshape"
  input: "^gradients/sub_grad/Reshape_1"
}
node {
  name: "gradients/sub_grad/tuple/control_dependency"
  op: "Identity"
  input: "gradients/sub_grad/Reshape"
  input: "^gradients/sub_grad/tuple/group_deps"
  attr {
    key: "T"
    value {
      type: DT_FLOAT
    }
  }
  attr {
    key: "_class"
    value {
      list {
        s: "loc:@gradients/sub_grad/Reshape"
      }
    }
  }
}
node {
  name: "gradients/sub_grad/tuple/control_dependency_1"
  op: "Identity"
  input: "gradients/sub_grad/Reshape_1"
  input: "^gradients/sub_grad/tuple/group_deps"
  attr {
    key: "T"
    value {
      type: DT_FLOAT
    }
  }
  attr {
    key: "_class"
    value {
      list {
        s: "loc:@gradients/sub_grad/Reshape_1"
      }
    }
  }
}
node {
  name: "gradients/output_grad/unstack"
  op: "Unpack"
  input: "gradients/sub_grad/tuple/control_dependency_1"
  attr {
    key: "T"
    value {
      type: DT_FLOAT
    }
  }
  attr {
    key: "axis"
    value {
      i: 2
    }
  }
  attr {
    key: "num"
    value {
      i: 2
    }
  }
}
node {
  name: "gradients/output_grad/tuple/group_deps"
  op: "NoOp"
  input: "^gradients/output_grad/unstack"
}
node {
  name: "gradients/output_grad/tuple/control_dependency"
  op: "Identity"
  input: "gradients/output_grad/unstack"
  input: "^gradients/output_grad/tuple/group_deps"
  attr {
    key: "T"
    value {
      type: DT_FLOAT
    }
  }
  attr {
    key: "_class"
    value {
      list {
        s: "loc:@gradients/output_grad/unstack"
      }
    }
  }
}
node {
  name: "gradients/output_grad/tuple/control_dependency_1"
  op: "Identity"
  input: "gradients/output_grad/unstack:1"
  input: "^gradients/output_grad/tuple/group_deps"
  attr {
    key: "T"
    value {
      type: DT_FLOAT
    }
  }
  attr {
    key: "_class"
    value {
      list {
        s: "loc:@gradients/output_grad/unstack"
      }
    }
  }
}
node {
  name: "gradients/Atan2_grad/Square"
  op: "Square"
  input: "strided_slice_1"
  input: "^gradients/output_grad/tuple/control_dependency"
  attr {
    key: "T"
    value {
      type: DT_FLOAT
    }
  }
}
node {
  name: "gradients/Atan2_grad/Square_1"
  op: "Square"
  input: "strided_slice"
  input: "^gradients/output_grad/tuple/control_dependency"
  attr {
    key: "T"
    value {
      type: DT_FLOAT
    }
  }
}
node {
  name: "gradients/Atan2_grad/add"
  op: "Add"
  input: "gradients/Atan2_grad/Square"
  input: "gradients/Atan2_grad/Square_1"
  attr {
    key: "T"
    value {
      type: DT_FLOAT
    }
  }
}
node {
  name: "gradients/Atan2_grad/truediv"
  op: "RealDiv"
  input: "gradients/output_grad/tuple/control_dependency"
  input: "gradients/Atan2_grad/add"
  attr {
    key: "T"
    value {
      type: DT_FLOAT
    }
  }
}
node {
  name: "gradients/Atan2_grad/mul"
  op: "Mul"
  input: "strided_slice_1"
  input: "gradients/Atan2_grad/truediv"
  attr {
    key: "T"
    value {
      type: DT_FLOAT
    }
  }
}
node {
  name: "gradients/Atan2_grad/Neg"
  op: "Neg"
  input: "strided_slice"
  input: "^gradients/output_grad/tuple/control_dependency"
  attr {
    key: "T"
    value {
      type: DT_FLOAT
    }
  }
}
node {
  name: "gradients/Atan2_grad/mul_1"
  op: "Mul"
  input: "gradients/Atan2_grad/Neg"
  input: "gradients/Atan2_grad/truediv"
  attr {
    key: "T"
    value {
      type: DT_FLOAT
    }
  }
}
node {
  name: "gradients/Atan2_grad/tuple/group_deps"
  op: "NoOp"
  input: "^gradients/Atan2_grad/mul"
  input: "^gradients/Atan2_grad/mul_1"
}
node {
  name: "gradients/Atan2_grad/tuple/control_dependency"
  op: "Identity"
  input: "gradients/Atan2_grad/mul"
  input: "^gradients/Atan2_grad/tuple/group_deps"
  attr {
    key: "T"
    value {
      type: DT_FLOAT
    }
  }
  attr {
    key: "_class"
    value {
      list {
        s: "loc:@gradients/Atan2_grad/mul"
      }
    }
  }
}
node {
  name: "gradients/Atan2_grad/tuple/control_dependency_1"
  op: "Identity"
  input: "gradients/Atan2_grad/mul_1"
  input: "^gradients/Atan2_grad/tuple/group_deps"
  attr {
    key: "T"
    value {
      type: DT_FLOAT
    }
  }
  attr {
    key: "_class"
    value {
      list {
        s: "loc:@gradients/Atan2_grad/mul_1"
      }
    }
  }
}
node {
  name: "gradients/Atan2_1_grad/Square"
  op: "Square"
  input: "strided_slice_3"
  input: "^gradients/output_grad/tuple/control_dependency_1"
  attr {
    key: "T"
    value {
      type: DT_FLOAT
    }
  }
}
node {
  name: "gradients/Atan2_1_grad/Square_1"
  op: "Square"
  input: "strided_slice_2"
  input: "^gradients/output_grad/tuple/control_dependency_1"
  attr {
    key: "T"
    value {
      type: DT_FLOAT
    }
  }
}
node {
  name: "gradients/Atan2_1_grad/add"
  op: "Add"
  input: "gradients/Atan2_1_grad/Square"
  input: "gradients/Atan2_1_grad/Square_1"
  attr {
    key: "T"
    value {
      type: DT_FLOAT
    }
  }
}
node {
  name: "gradients/Atan2_1_grad/truediv"
  op: "RealDiv"
  input: "gradients/output_grad/tuple/control_dependency_1"
  input: "gradients/Atan2_1_grad/add"
  attr {
    key: "T"
    value {
      type: DT_FLOAT
    }
  }
}
node {
  name: "gradients/Atan2_1_grad/mul"
  op: "Mul"
  input: "strided_slice_3"
  input: "gradients/Atan2_1_grad/truediv"
  attr {
    key: "T"
    value {
      type: DT_FLOAT
    }
  }
}
node {
  name: "gradients/Atan2_1_grad/Neg"
  op: "Neg"
  input: "strided_slice_2"
  input: "^gradients/output_grad/tuple/control_dependency_1"
  attr {
    key: "T"
    value {
      type: DT_FLOAT
    }
  }
}
node {
  name: "gradients/Atan2_1_grad/mul_1"
  op: "Mul"
  input: "gradients/Atan2_1_grad/Neg"
  input: "gradients/Atan2_1_grad/truediv"
  attr {
    key: "T"
    value {
      type: DT_FLOAT
    }
  }
}
node {
  name: "gradients/Atan2_1_grad/tuple/group_deps"
  op: "NoOp"
  input: "^gradients/Atan2_1_grad/mul"
  input: "^gradients/Atan2_1_grad/mul_1"
}
node {
  name: "gradients/Atan2_1_grad/tuple/control_dependency"
  op: "Identity"
  input: "gradients/Atan2_1_grad/mul"
  input: "^gradients/Atan2_1_grad/tuple/group_deps"
  attr {
    key: "T"
    value {
      type: DT_FLOAT
    }
  }
  attr {
    key: "_class"
    value {
      list {
        s: "loc:@gradients/Atan2_1_grad/mul"
      }
    }
  }
}
node {
  name: "gradients/Atan2_1_grad/tuple/control_dependency_1"
  op: "Identity"
  input: "gradients/Atan2_1_grad/mul_1"
  input: "^gradients/Atan2_1_grad/tuple/group_deps"
  attr {
    key: "T"
    value {
      type: DT_FLOAT
    }
  }
  attr {
    key: "_class"
    value {
      list {
        s: "loc:@gradients/Atan2_1_grad/mul_1"
      }
    }
  }
}
node {
  name: "gradients/strided_slice_grad/Shape"
  op: "Shape"
  input: "rnn/transpose"
  attr {
    key: "T"
    value {
      type: DT_FLOAT
    }
  }
  attr {
    key: "out_type"
    value {
      type: DT_INT32
    }
  }
}
node {
  name: "gradients/strided_slice_grad/StridedSliceGrad"
  op: "StridedSliceGrad"
  input: "gradients/strided_slice_grad/Shape"
  input: "strided_slice/stack"
  input: "strided_slice/stack_1"
  input: "strided_slice/stack_2"
  input: "gradients/Atan2_grad/tuple/control_dependency"
  attr {
    key: "Index"
    value {
      type: DT_INT32
    }
  }
  attr {
    key: "T"
    value {
      type: DT_FLOAT
    }
  }
  attr {
    key: "begin_mask"
    value {
      i: 3
    }
  }
  attr {
    key: "ellipsis_mask"
    value {
      i: 0
    }
  }
  attr {
    key: "end_mask"
    value {
      i: 3
    }
  }
  attr {
    key: "new_axis_mask"
    value {
      i: 0
    }
  }
  attr {
    key: "shrink_axis_mask"
    value {
      i: 4
    }
  }
}
node {
  name: "gradients/strided_slice_1_grad/Shape"
  op: "Shape"
  input: "rnn/transpose"
  attr {
    key: "T"
    value {
      type: DT_FLOAT
    }
  }
  attr {
    key: "out_type"
    value {
      type: DT_INT32
    }
  }
}
node {
  name: "gradients/strided_slice_1_grad/StridedSliceGrad"
  op: "StridedSliceGrad"
  input: "gradients/strided_slice_1_grad/Shape"
  input: "strided_slice_1/stack"
  input: "strided_slice_1/stack_1"
  input: "strided_slice_1/stack_2"
  input: "gradients/Atan2_grad/tuple/control_dependency_1"
  attr {
    key: "Index"
    value {
      type: DT_INT32
    }
  }
  attr {
    key: "T"
    value {
      type: DT_FLOAT
    }
  }
  attr {
    key: "begin_mask"
    value {
      i: 3
    }
  }
  attr {
    key: "ellipsis_mask"
    value {
      i: 0
    }
  }
  attr {
    key: "end_mask"
    value {
      i: 3
    }
  }
  attr {
    key: "new_axis_mask"
    value {
      i: 0
    }
  }
  attr {
    key: "shrink_axis_mask"
    value {
      i: 4
    }
  }
}
node {
  name: "gradients/strided_slice_2_grad/Shape"
  op: "Shape"
  input: "rnn/transpose"
  attr {
    key: "T"
    value {
      type: DT_FLOAT
    }
  }
  attr {
    key: "out_type"
    value {
      type: DT_INT32
    }
  }
}
node {
  name: "gradients/strided_slice_2_grad/StridedSliceGrad"
  op: "StridedSliceGrad"
  input: "gradients/strided_slice_2_grad/Shape"
  input: "strided_slice_2/stack"
  input: "strided_slice_2/stack_1"
  input: "strided_slice_2/stack_2"
  input: "gradients/Atan2_1_grad/tuple/control_dependency"
  attr {
    key: "Index"
    value {
      type: DT_INT32
    }
  }
  attr {
    key: "T"
    value {
      type: DT_FLOAT
    }
  }
  attr {
    key: "begin_mask"
    value {
      i: 3
    }
  }
  attr {
    key: "ellipsis_mask"
    value {
      i: 0
    }
  }
  attr {
    key: "end_mask"
    value {
      i: 3
    }
  }
  attr {
    key: "new_axis_mask"
    value {
      i: 0
    }
  }
  attr {
    key: "shrink_axis_mask"
    value {
      i: 4
    }
  }
}
node {
  name: "gradients/strided_slice_3_grad/Shape"
  op: "Shape"
  input: "rnn/transpose"
  attr {
    key: "T"
    value {
      type: DT_FLOAT
    }
  }
  attr {
    key: "out_type"
    value {
      type: DT_INT32
    }
  }
}
node {
  name: "gradients/strided_slice_3_grad/StridedSliceGrad"
  op: "StridedSliceGrad"
  input: "gradients/strided_slice_3_grad/Shape"
  input: "strided_slice_3/stack"
  input: "strided_slice_3/stack_1"
  input: "strided_slice_3/stack_2"
  input: "gradients/Atan2_1_grad/tuple/control_dependency_1"
  attr {
    key: "Index"
    value {
      type: DT_INT32
    }
  }
  attr {
    key: "T"
    value {
      type: DT_FLOAT
    }
  }
  attr {
    key: "begin_mask"
    value {
      i: 3
    }
  }
  attr {
    key: "ellipsis_mask"
    value {
      i: 0
    }
  }
  attr {
    key: "end_mask"
    value {
      i: 3
    }
  }
  attr {
    key: "new_axis_mask"
    value {
      i: 0
    }
  }
  attr {
    key: "shrink_axis_mask"
    value {
      i: 4
    }
  }
}
node {
  name: "gradients/AddN_1"
  op: "AddN"
  input: "gradients/strided_slice_grad/StridedSliceGrad"
  input: "gradients/strided_slice_1_grad/StridedSliceGrad"
  input: "gradients/strided_slice_2_grad/StridedSliceGrad"
  input: "gradients/strided_slice_3_grad/StridedSliceGrad"
  attr {
    key: "N"
    value {
      i: 4
    }
  }
  attr {
    key: "T"
    value {
      type: DT_FLOAT
    }
  }
  attr {
    key: "_class"
    value {
      list {
        s: "loc:@gradients/strided_slice_grad/StridedSliceGrad"
      }
    }
  }
}
node {
  name: "gradients/rnn/transpose_grad/InvertPermutation"
  op: "InvertPermutation"
  input: "rnn/concat_1"
  attr {
    key: "T"
    value {
      type: DT_INT32
    }
  }
}
node {
  name: "gradients/rnn/transpose_grad/transpose"
  op: "Transpose"
  input: "gradients/AddN_1"
  input: "gradients/rnn/transpose_grad/InvertPermutation"
  attr {
    key: "T"
    value {
      type: DT_FLOAT
    }
  }
  attr {
    key: "Tperm"
    value {
      type: DT_INT32
    }
  }
}
node {
  name: "gradients/rnn/TensorArrayStack/TensorArrayGatherV3_grad/TensorArrayGrad/TensorArrayGradV3"
  op: "TensorArrayGradV3"
  input: "rnn/TensorArray"
  input: "rnn/while/Exit_1"
  attr {
    key: "_class"
    value {
      list {
        s: "loc:@rnn/TensorArray"
      }
    }
  }
  attr {
    key: "source"
    value {
      s: "gradients"
    }
  }
}
node {
  name: "gradients/rnn/TensorArrayStack/TensorArrayGatherV3_grad/TensorArrayGrad/gradient_flow"
  op: "Identity"
  input: "rnn/while/Exit_1"
  input: "^gradients/rnn/TensorArrayStack/TensorArrayGatherV3_grad/TensorArrayGrad/TensorArrayGradV3"
  attr {
    key: "T"
    value {
      type: DT_FLOAT
    }
  }
  attr {
    key: "_class"
    value {
      list {
        s: "loc:@rnn/TensorArray"
      }
    }
  }
}
node {
  name: "gradients/rnn/TensorArrayStack/TensorArrayGatherV3_grad/TensorArrayScatter/TensorArrayScatterV3"
  op: "TensorArrayScatterV3"
  input: "gradients/rnn/TensorArrayStack/TensorArrayGatherV3_grad/TensorArrayGrad/TensorArrayGradV3"
  input: "rnn/TensorArrayStack/range"
  input: "gradients/rnn/transpose_grad/transpose"
  input: "gradients/rnn/TensorArrayStack/TensorArrayGatherV3_grad/TensorArrayGrad/gradient_flow"
  attr {
    key: "T"
    value {
      type: DT_FLOAT
    }
  }
}
node {
  name: "gradients/zeros_like"
  op: "ZerosLike"
  input: "rnn/while/Exit_2"
  attr {
    key: "T"
    value {
      type: DT_FLOAT
    }
  }
}
node {
  name: "gradients/zeros_like_1"
  op: "ZerosLike"
  input: "rnn/while/Exit_3"
  attr {
    key: "T"
    value {
      type: DT_FLOAT
    }
  }
}
node {
  name: "gradients/rnn/while/Exit_1_grad/b_exit"
  op: "Enter"
  input: "gradients/rnn/TensorArrayStack/TensorArrayGatherV3_grad/TensorArrayScatter/TensorArrayScatterV3"
  attr {
    key: "T"
    value {
      type: DT_FLOAT
    }
  }
  attr {
    key: "frame_name"
    value {
      s: "gradients/rnn/while/while_context"
    }
  }
  attr {
    key: "is_constant"
    value {
      b: false
    }
  }
  attr {
    key: "parallel_iterations"
    value {
      i: 32
    }
  }
}
node {
  name: "gradients/rnn/while/Exit_2_grad/b_exit"
  op: "Enter"
  input: "gradients/zeros_like"
  attr {
    key: "T"
    value {
      type: DT_FLOAT
    }
  }
  attr {
    key: "frame_name"
    value {
      s: "gradients/rnn/while/while_context"
    }
  }
  attr {
    key: "is_constant"
    value {
      b: false
    }
  }
  attr {
    key: "parallel_iterations"
    value {
      i: 32
    }
  }
}
node {
  name: "gradients/rnn/while/Exit_3_grad/b_exit"
  op: "Enter"
  input: "gradients/zeros_like_1"
  attr {
    key: "T"
    value {
      type: DT_FLOAT
    }
  }
  attr {
    key: "frame_name"
    value {
      s: "gradients/rnn/while/while_context"
    }
  }
  attr {
    key: "is_constant"
    value {
      b: false
    }
  }
  attr {
    key: "parallel_iterations"
    value {
      i: 32
    }
  }
}
node {
  name: "gradients/rnn/while/Switch_1_grad/b_switch"
  op: "Merge"
  input: "gradients/rnn/while/Exit_1_grad/b_exit"
  input: "gradients/rnn/while/Switch_1_grad_1/NextIteration"
  attr {
    key: "N"
    value {
      i: 2
    }
  }
  attr {
    key: "T"
    value {
      type: DT_FLOAT
    }
  }
}
node {
  name: "gradients/rnn/while/Switch_2_grad/b_switch"
  op: "Merge"
  input: "gradients/rnn/while/Exit_2_grad/b_exit"
  input: "gradients/rnn/while/Switch_2_grad_1/NextIteration"
  attr {
    key: "N"
    value {
      i: 2
    }
  }
  attr {
    key: "T"
    value {
      type: DT_FLOAT
    }
  }
}
node {
  name: "gradients/rnn/while/Switch_3_grad/b_switch"
  op: "Merge"
  input: "gradients/rnn/while/Exit_3_grad/b_exit"
  input: "gradients/rnn/while/Switch_3_grad_1/NextIteration"
  attr {
    key: "N"
    value {
      i: 2
    }
  }
  attr {
    key: "T"
    value {
      type: DT_FLOAT
    }
  }
}
node {
  name: "gradients/rnn/while/Merge_1_grad/Switch"
  op: "Switch"
  input: "gradients/rnn/while/Switch_1_grad/b_switch"
  input: "gradients/b_count_2"
  attr {
    key: "T"
    value {
      type: DT_FLOAT
    }
  }
  attr {
    key: "_class"
    value {
      list {
        s: "loc:@gradients/rnn/while/Switch_1_grad/b_switch"
      }
    }
  }
}
node {
  name: "gradients/rnn/while/Merge_1_grad/tuple/group_deps"
  op: "NoOp"
  input: "^gradients/rnn/while/Merge_1_grad/Switch"
}
node {
  name: "gradients/rnn/while/Merge_1_grad/tuple/control_dependency"
  op: "Identity"
  input: "gradients/rnn/while/Merge_1_grad/Switch"
  input: "^gradients/rnn/while/Merge_1_grad/tuple/group_deps"
  attr {
    key: "T"
    value {
      type: DT_FLOAT
    }
  }
  attr {
    key: "_class"
    value {
      list {
        s: "loc:@gradients/rnn/while/Switch_1_grad/b_switch"
      }
    }
  }
}
node {
  name: "gradients/rnn/while/Merge_1_grad/tuple/control_dependency_1"
  op: "Identity"
  input: "gradients/rnn/while/Merge_1_grad/Switch:1"
  input: "^gradients/rnn/while/Merge_1_grad/tuple/group_deps"
  attr {
    key: "T"
    value {
      type: DT_FLOAT
    }
  }
  attr {
    key: "_class"
    value {
      list {
        s: "loc:@gradients/rnn/while/Switch_1_grad/b_switch"
      }
    }
  }
}
node {
  name: "gradients/rnn/while/Merge_2_grad/Switch"
  op: "Switch"
  input: "gradients/rnn/while/Switch_2_grad/b_switch"
  input: "gradients/b_count_2"
  attr {
    key: "T"
    value {
      type: DT_FLOAT
    }
  }
  attr {
    key: "_class"
    value {
      list {
        s: "loc:@gradients/rnn/while/Switch_2_grad/b_switch"
      }
    }
  }
}
node {
  name: "gradients/rnn/while/Merge_2_grad/tuple/group_deps"
  op: "NoOp"
  input: "^gradients/rnn/while/Merge_2_grad/Switch"
}
node {
  name: "gradients/rnn/while/Merge_2_grad/tuple/control_dependency"
  op: "Identity"
  input: "gradients/rnn/while/Merge_2_grad/Switch"
  input: "^gradients/rnn/while/Merge_2_grad/tuple/group_deps"
  attr {
    key: "T"
    value {
      type: DT_FLOAT
    }
  }
  attr {
    key: "_class"
    value {
      list {
        s: "loc:@gradients/rnn/while/Switch_2_grad/b_switch"
      }
    }
  }
}
node {
  name: "gradients/rnn/while/Merge_2_grad/tuple/control_dependency_1"
  op: "Identity"
  input: "gradients/rnn/while/Merge_2_grad/Switch:1"
  input: "^gradients/rnn/while/Merge_2_grad/tuple/group_deps"
  attr {
    key: "T"
    value {
      type: DT_FLOAT
    }
  }
  attr {
    key: "_class"
    value {
      list {
        s: "loc:@gradients/rnn/while/Switch_2_grad/b_switch"
      }
    }
  }
}
node {
  name: "gradients/rnn/while/Merge_3_grad/Switch"
  op: "Switch"
  input: "gradients/rnn/while/Switch_3_grad/b_switch"
  input: "gradients/b_count_2"
  attr {
    key: "T"
    value {
      type: DT_FLOAT
    }
  }
  attr {
    key: "_class"
    value {
      list {
        s: "loc:@gradients/rnn/while/Switch_3_grad/b_switch"
      }
    }
  }
}
node {
  name: "gradients/rnn/while/Merge_3_grad/tuple/group_deps"
  op: "NoOp"
  input: "^gradients/rnn/while/Merge_3_grad/Switch"
}
node {
  name: "gradients/rnn/while/Merge_3_grad/tuple/control_dependency"
  op: "Identity"
  input: "gradients/rnn/while/Merge_3_grad/Switch"
  input: "^gradients/rnn/while/Merge_3_grad/tuple/group_deps"
  attr {
    key: "T"
    value {
      type: DT_FLOAT
    }
  }
  attr {
    key: "_class"
    value {
      list {
        s: "loc:@gradients/rnn/while/Switch_3_grad/b_switch"
      }
    }
  }
}
node {
  name: "gradients/rnn/while/Merge_3_grad/tuple/control_dependency_1"
  op: "Identity"
  input: "gradients/rnn/while/Merge_3_grad/Switch:1"
  input: "^gradients/rnn/while/Merge_3_grad/tuple/group_deps"
  attr {
    key: "T"
    value {
      type: DT_FLOAT
    }
  }
  attr {
    key: "_class"
    value {
      list {
        s: "loc:@gradients/rnn/while/Switch_3_grad/b_switch"
      }
    }
  }
}
node {
  name: "gradients/rnn/while/Enter_1_grad/Exit"
  op: "Exit"
  input: "gradients/rnn/while/Merge_1_grad/tuple/control_dependency"
  attr {
    key: "T"
    value {
      type: DT_FLOAT
    }
  }
}
node {
  name: "gradients/rnn/while/Enter_2_grad/Exit"
  op: "Exit"
  input: "gradients/rnn/while/Merge_2_grad/tuple/control_dependency"
  attr {
    key: "T"
    value {
      type: DT_FLOAT
    }
  }
}
node {
  name: "gradients/rnn/while/Enter_3_grad/Exit"
  op: "Exit"
  input: "gradients/rnn/while/Merge_3_grad/tuple/control_dependency"
  attr {
    key: "T"
    value {
      type: DT_FLOAT
    }
  }
}
node {
  name: "gradients/rnn/while/TensorArrayWrite/TensorArrayWriteV3_grad/TensorArrayGrad/TensorArrayGradV3/Enter"
  op: "Enter"
  input: "rnn/TensorArray"
  attr {
    key: "T"
    value {
      type: DT_RESOURCE
    }
  }
  attr {
    key: "_class"
    value {
      list {
        s: "loc:@rnn/while/rnn/multi_rnn_cell/cell_1/cell_1/basic_rnn_cell/Tanh"
      }
    }
  }
  attr {
    key: "frame_name"
    value {
      s: "gradients/rnn/while/while_context"
    }
  }
  attr {
    key: "is_constant"
    value {
      b: true
    }
  }
  attr {
    key: "parallel_iterations"
    value {
      i: 32
    }
  }
}
node {
  name: "gradients/rnn/while/TensorArrayWrite/TensorArrayWriteV3_grad/TensorArrayGrad/TensorArrayGradV3"
  op: "TensorArrayGradV3"
  input: "gradients/rnn/while/TensorArrayWrite/TensorArrayWriteV3_grad/TensorArrayGrad/TensorArrayGradV3/Enter"
  input: "gradients/rnn/while/Merge_1_grad/tuple/control_dependency_1"
  attr {
    key: "_class"
    value {
      list {
        s: "loc:@rnn/while/rnn/multi_rnn_cell/cell_1/cell_1/basic_rnn_cell/Tanh"
      }
    }
  }
  attr {
    key: "source"
    value {
      s: "gradients"
    }
  }
}
node {
  name: "gradients/rnn/while/TensorArrayWrite/TensorArrayWriteV3_grad/TensorArrayGrad/gradient_flow"
  op: "Identity"
  input: "gradients/rnn/while/Merge_1_grad/tuple/control_dependency_1"
  input: "^gradients/rnn/while/TensorArrayWrite/TensorArrayWriteV3_grad/TensorArrayGrad/TensorArrayGradV3"
  attr {
    key: "T"
    value {
      type: DT_FLOAT
    }
  }
  attr {
    key: "_class"
    value {
      list {
        s: "loc:@rnn/while/rnn/multi_rnn_cell/cell_1/cell_1/basic_rnn_cell/Tanh"
      }
    }
  }
}
node {
  name: "gradients/rnn/while/TensorArrayWrite/TensorArrayWriteV3_grad/TensorArrayReadV3/f_acc/max_size"
  op: "Const"
  attr {
    key: "_class"
    value {
      list {
        s: "loc:@rnn/while/Identity"
      }
    }
  }
  attr {
    key: "dtype"
    value {
      type: DT_INT32
    }
  }
  attr {
    key: "value"
    value {
      tensor {
        dtype: DT_INT32
        tensor_shape {
        }
        int_val: -1
      }
    }
  }
}
node {
  name: "gradients/rnn/while/TensorArrayWrite/TensorArrayWriteV3_grad/TensorArrayReadV3/f_acc"
  op: "StackV2"
  input: "gradients/rnn/while/TensorArrayWrite/TensorArrayWriteV3_grad/TensorArrayReadV3/f_acc/max_size"
  attr {
    key: "_class"
    value {
      list {
        s: "loc:@rnn/while/Identity"
      }
    }
  }
  attr {
    key: "elem_type"
    value {
      type: DT_INT32
    }
  }
  attr {
    key: "stack_name"
    value {
      s: ""
    }
  }
}
node {
  name: "gradients/rnn/while/TensorArrayWrite/TensorArrayWriteV3_grad/TensorArrayReadV3/Enter"
  op: "Enter"
  input: "gradients/rnn/while/TensorArrayWrite/TensorArrayWriteV3_grad/TensorArrayReadV3/f_acc"
  attr {
    key: "T"
    value {
      type: DT_RESOURCE
    }
  }
  attr {
    key: "frame_name"
    value {
      s: "rnn/while/while_context"
    }
  }
  attr {
    key: "is_constant"
    value {
      b: true
    }
  }
  attr {
    key: "parallel_iterations"
    value {
      i: 32
    }
  }
}
node {
  name: "gradients/rnn/while/TensorArrayWrite/TensorArrayWriteV3_grad/TensorArrayReadV3/StackPushV2"
  op: "StackPushV2"
  input: "gradients/rnn/while/TensorArrayWrite/TensorArrayWriteV3_grad/TensorArrayReadV3/Enter"
  input: "rnn/while/Identity"
  input: "^gradients/Add"
  attr {
    key: "T"
    value {
      type: DT_INT32
    }
  }
  attr {
    key: "swap_memory"
    value {
      b: false
    }
  }
}
node {
  name: "gradients/rnn/while/TensorArrayWrite/TensorArrayWriteV3_grad/TensorArrayReadV3/StackPopV2/Enter"
  op: "Enter"
  input: "gradients/rnn/while/TensorArrayWrite/TensorArrayWriteV3_grad/TensorArrayReadV3/f_acc"
  attr {
    key: "T"
    value {
      type: DT_RESOURCE
    }
  }
  attr {
    key: "frame_name"
    value {
      s: "gradients/rnn/while/while_context"
    }
  }
  attr {
    key: "is_constant"
    value {
      b: true
    }
  }
  attr {
    key: "parallel_iterations"
    value {
      i: 32
    }
  }
}
node {
  name: "gradients/rnn/while/TensorArrayWrite/TensorArrayWriteV3_grad/TensorArrayReadV3/StackPopV2"
  op: "StackPopV2"
  input: "gradients/rnn/while/TensorArrayWrite/TensorArrayWriteV3_grad/TensorArrayReadV3/StackPopV2/Enter"
  input: "^gradients/Sub"
  attr {
    key: "elem_type"
    value {
      type: DT_INT32
    }
  }
}
node {
  name: "gradients/rnn/while/TensorArrayWrite/TensorArrayWriteV3_grad/TensorArrayReadV3/b_sync"
  op: "ControlTrigger"
  input: "^gradients/rnn/while/TensorArrayWrite/TensorArrayWriteV3_grad/TensorArrayReadV3/StackPopV2"
  input: "^gradients/rnn/while/rnn/multi_rnn_cell/cell_1/cell_1/basic_rnn_cell/Tanh_grad/TanhGrad/StackPopV2"
  input: "^gradients/rnn/while/rnn/multi_rnn_cell/cell_1/cell_1/basic_rnn_cell/MatMul_grad/MatMul_1/StackPopV2"
  input: "^gradients/rnn/while/rnn/multi_rnn_cell/cell_1/cell_1/basic_rnn_cell/concat_grad/ShapeN/StackPopV2"
  input: "^gradients/rnn/while/rnn/multi_rnn_cell/cell_1/cell_1/basic_rnn_cell/concat_grad/ShapeN/StackPopV2_1"
  input: "^gradients/rnn/while/rnn/multi_rnn_cell/cell_0/cell_0/basic_rnn_cell/MatMul_grad/MatMul_1/StackPopV2"
  input: "^gradients/rnn/while/rnn/multi_rnn_cell/cell_0/cell_0/basic_rnn_cell/concat_grad/ShapeN/StackPopV2"
  input: "^gradients/rnn/while/rnn/multi_rnn_cell/cell_0/cell_0/basic_rnn_cell/concat_grad/ShapeN/StackPopV2_1"
}
node {
  name: "gradients/rnn/while/TensorArrayWrite/TensorArrayWriteV3_grad/TensorArrayReadV3"
  op: "TensorArrayReadV3"
  input: "gradients/rnn/while/TensorArrayWrite/TensorArrayWriteV3_grad/TensorArrayGrad/TensorArrayGradV3"
  input: "gradients/rnn/while/TensorArrayWrite/TensorArrayWriteV3_grad/TensorArrayReadV3/StackPopV2"
  input: "gradients/rnn/while/TensorArrayWrite/TensorArrayWriteV3_grad/TensorArrayGrad/gradient_flow"
  attr {
    key: "dtype"
    value {
      type: DT_FLOAT
    }
  }
}
node {
  name: "gradients/rnn/while/TensorArrayWrite/TensorArrayWriteV3_grad/tuple/group_deps"
  op: "NoOp"
  input: "^gradients/rnn/while/Merge_1_grad/tuple/control_dependency_1"
  input: "^gradients/rnn/while/TensorArrayWrite/TensorArrayWriteV3_grad/TensorArrayReadV3"
}
node {
  name: "gradients/rnn/while/TensorArrayWrite/TensorArrayWriteV3_grad/tuple/control_dependency"
  op: "Identity"
  input: "gradients/rnn/while/TensorArrayWrite/TensorArrayWriteV3_grad/TensorArrayReadV3"
  input: "^gradients/rnn/while/TensorArrayWrite/TensorArrayWriteV3_grad/tuple/group_deps"
  attr {
    key: "T"
    value {
      type: DT_FLOAT
    }
  }
  attr {
    key: "_class"
    value {
      list {
        s: "loc:@gradients/rnn/while/TensorArrayWrite/TensorArrayWriteV3_grad/TensorArrayReadV3"
      }
    }
  }
}
node {
  name: "gradients/rnn/while/TensorArrayWrite/TensorArrayWriteV3_grad/tuple/control_dependency_1"
  op: "Identity"
  input: "gradients/rnn/while/Merge_1_grad/tuple/control_dependency_1"
  input: "^gradients/rnn/while/TensorArrayWrite/TensorArrayWriteV3_grad/tuple/group_deps"
  attr {
    key: "T"
    value {
      type: DT_FLOAT
    }
  }
  attr {
    key: "_class"
    value {
      list {
        s: "loc:@gradients/rnn/while/Switch_1_grad/b_switch"
      }
    }
  }
}
node {
  name: "gradients/AddN_2"
  op: "AddN"
  input: "gradients/rnn/while/Merge_3_grad/tuple/control_dependency_1"
  input: "gradients/rnn/while/TensorArrayWrite/TensorArrayWriteV3_grad/tuple/control_dependency"
  attr {
    key: "N"
    value {
      i: 2
    }
  }
  attr {
    key: "T"
    value {
      type: DT_FLOAT
    }
  }
  attr {
    key: "_class"
    value {
      list {
        s: "loc:@gradients/rnn/while/Switch_3_grad/b_switch"
      }
    }
  }
}
node {
  name: "gradients/rnn/while/rnn/multi_rnn_cell/cell_1/cell_1/basic_rnn_cell/Tanh_grad/TanhGrad/f_acc/max_size"
  op: "Const"
  attr {
    key: "_class"
    value {
      list {
        s: "loc:@rnn/while/rnn/multi_rnn_cell/cell_1/cell_1/basic_rnn_cell/Tanh"
      }
    }
  }
  attr {
    key: "dtype"
    value {
      type: DT_INT32
    }
  }
  attr {
    key: "value"
    value {
      tensor {
        dtype: DT_INT32
        tensor_shape {
        }
        int_val: -1
      }
    }
  }
}
node {
  name: "gradients/rnn/while/rnn/multi_rnn_cell/cell_1/cell_1/basic_rnn_cell/Tanh_grad/TanhGrad/f_acc"
  op: "StackV2"
  input: "gradients/rnn/while/rnn/multi_rnn_cell/cell_1/cell_1/basic_rnn_cell/Tanh_grad/TanhGrad/f_acc/max_size"
  attr {
    key: "_class"
    value {
      list {
        s: "loc:@rnn/while/rnn/multi_rnn_cell/cell_1/cell_1/basic_rnn_cell/Tanh"
      }
    }
  }
  attr {
    key: "elem_type"
    value {
      type: DT_FLOAT
    }
  }
  attr {
    key: "stack_name"
    value {
      s: ""
    }
  }
}
node {
  name: "gradients/rnn/while/rnn/multi_rnn_cell/cell_1/cell_1/basic_rnn_cell/Tanh_grad/TanhGrad/Enter"
  op: "Enter"
  input: "gradients/rnn/while/rnn/multi_rnn_cell/cell_1/cell_1/basic_rnn_cell/Tanh_grad/TanhGrad/f_acc"
  attr {
    key: "T"
    value {
      type: DT_RESOURCE
    }
  }
  attr {
    key: "frame_name"
    value {
      s: "rnn/while/while_context"
    }
  }
  attr {
    key: "is_constant"
    value {
      b: true
    }
  }
  attr {
    key: "parallel_iterations"
    value {
      i: 32
    }
  }
}
node {
  name: "gradients/rnn/while/rnn/multi_rnn_cell/cell_1/cell_1/basic_rnn_cell/Tanh_grad/TanhGrad/StackPushV2"
  op: "StackPushV2"
  input: "gradients/rnn/while/rnn/multi_rnn_cell/cell_1/cell_1/basic_rnn_cell/Tanh_grad/TanhGrad/Enter"
  input: "rnn/while/rnn/multi_rnn_cell/cell_1/cell_1/basic_rnn_cell/Tanh"
  input: "^gradients/Add"
  attr {
    key: "T"
    value {
      type: DT_FLOAT
    }
  }
  attr {
    key: "swap_memory"
    value {
      b: false
    }
  }
}
node {
  name: "gradients/rnn/while/rnn/multi_rnn_cell/cell_1/cell_1/basic_rnn_cell/Tanh_grad/TanhGrad/StackPopV2/Enter"
  op: "Enter"
  input: "gradients/rnn/while/rnn/multi_rnn_cell/cell_1/cell_1/basic_rnn_cell/Tanh_grad/TanhGrad/f_acc"
  attr {
    key: "T"
    value {
      type: DT_RESOURCE
    }
  }
  attr {
    key: "frame_name"
    value {
      s: "gradients/rnn/while/while_context"
    }
  }
  attr {
    key: "is_constant"
    value {
      b: true
    }
  }
  attr {
    key: "parallel_iterations"
    value {
      i: 32
    }
  }
}
node {
  name: "gradients/rnn/while/rnn/multi_rnn_cell/cell_1/cell_1/basic_rnn_cell/Tanh_grad/TanhGrad/StackPopV2"
  op: "StackPopV2"
  input: "gradients/rnn/while/rnn/multi_rnn_cell/cell_1/cell_1/basic_rnn_cell/Tanh_grad/TanhGrad/StackPopV2/Enter"
  input: "^gradients/Sub"
  attr {
    key: "elem_type"
    value {
      type: DT_FLOAT
    }
  }
}
node {
  name: "gradients/rnn/while/rnn/multi_rnn_cell/cell_1/cell_1/basic_rnn_cell/Tanh_grad/TanhGrad"
  op: "TanhGrad"
  input: "gradients/rnn/while/rnn/multi_rnn_cell/cell_1/cell_1/basic_rnn_cell/Tanh_grad/TanhGrad/StackPopV2"
  input: "gradients/AddN_2"
  attr {
    key: "T"
    value {
      type: DT_FLOAT
    }
  }
}
node {
  name: "gradients/rnn/while/rnn/multi_rnn_cell/cell_1/cell_1/basic_rnn_cell/BiasAdd_grad/BiasAddGrad"
  op: "BiasAddGrad"
  input: "gradients/rnn/while/rnn/multi_rnn_cell/cell_1/cell_1/basic_rnn_cell/Tanh_grad/TanhGrad"
  attr {
    key: "T"
    value {
      type: DT_FLOAT
    }
  }
  attr {
    key: "data_format"
    value {
      s: "NHWC"
    }
  }
}
node {
  name: "gradients/rnn/while/rnn/multi_rnn_cell/cell_1/cell_1/basic_rnn_cell/BiasAdd_grad/tuple/group_deps"
  op: "NoOp"
  input: "^gradients/rnn/while/rnn/multi_rnn_cell/cell_1/cell_1/basic_rnn_cell/Tanh_grad/TanhGrad"
  input: "^gradients/rnn/while/rnn/multi_rnn_cell/cell_1/cell_1/basic_rnn_cell/BiasAdd_grad/BiasAddGrad"
}
node {
  name: "gradients/rnn/while/rnn/multi_rnn_cell/cell_1/cell_1/basic_rnn_cell/BiasAdd_grad/tuple/control_dependency"
  op: "Identity"
  input: "gradients/rnn/while/rnn/multi_rnn_cell/cell_1/cell_1/basic_rnn_cell/Tanh_grad/TanhGrad"
  input: "^gradients/rnn/while/rnn/multi_rnn_cell/cell_1/cell_1/basic_rnn_cell/BiasAdd_grad/tuple/group_deps"
  attr {
    key: "T"
    value {
      type: DT_FLOAT
    }
  }
  attr {
    key: "_class"
    value {
      list {
        s: "loc:@gradients/rnn/while/rnn/multi_rnn_cell/cell_1/cell_1/basic_rnn_cell/Tanh_grad/TanhGrad"
      }
    }
  }
}
node {
  name: "gradients/rnn/while/rnn/multi_rnn_cell/cell_1/cell_1/basic_rnn_cell/BiasAdd_grad/tuple/control_dependency_1"
  op: "Identity"
  input: "gradients/rnn/while/rnn/multi_rnn_cell/cell_1/cell_1/basic_rnn_cell/BiasAdd_grad/BiasAddGrad"
  input: "^gradients/rnn/while/rnn/multi_rnn_cell/cell_1/cell_1/basic_rnn_cell/BiasAdd_grad/tuple/group_deps"
  attr {
    key: "T"
    value {
      type: DT_FLOAT
    }
  }
  attr {
    key: "_class"
    value {
      list {
        s: "loc:@gradients/rnn/while/rnn/multi_rnn_cell/cell_1/cell_1/basic_rnn_cell/BiasAdd_grad/BiasAddGrad"
      }
    }
  }
}
node {
  name: "gradients/rnn/while/Switch_1_grad_1/NextIteration"
  op: "NextIteration"
  input: "gradients/rnn/while/TensorArrayWrite/TensorArrayWriteV3_grad/tuple/control_dependency_1"
  attr {
    key: "T"
    value {
      type: DT_FLOAT
    }
  }
}
node {
  name: "gradients/rnn/while/rnn/multi_rnn_cell/cell_1/cell_1/basic_rnn_cell/MatMul_grad/MatMul/Enter"
  op: "Enter"
  input: "rnn/multi_rnn_cell/cell_1/basic_rnn_cell/kernel/read"
  attr {
    key: "T"
    value {
      type: DT_FLOAT
    }
  }
  attr {
    key: "frame_name"
    value {
      s: "gradients/rnn/while/while_context"
    }
  }
  attr {
    key: "is_constant"
    value {
      b: true
    }
  }
  attr {
    key: "parallel_iterations"
    value {
      i: 32
    }
  }
}
node {
  name: "gradients/rnn/while/rnn/multi_rnn_cell/cell_1/cell_1/basic_rnn_cell/MatMul_grad/MatMul"
  op: "MatMul"
  input: "gradients/rnn/while/rnn/multi_rnn_cell/cell_1/cell_1/basic_rnn_cell/BiasAdd_grad/tuple/control_dependency"
  input: "gradients/rnn/while/rnn/multi_rnn_cell/cell_1/cell_1/basic_rnn_cell/MatMul_grad/MatMul/Enter"
  attr {
    key: "T"
    value {
      type: DT_FLOAT
    }
  }
  attr {
    key: "transpose_a"
    value {
      b: false
    }
  }
  attr {
    key: "transpose_b"
    value {
      b: true
    }
  }
}
node {
  name: "gradients/rnn/while/rnn/multi_rnn_cell/cell_1/cell_1/basic_rnn_cell/MatMul_grad/MatMul_1/f_acc/max_size"
  op: "Const"
  attr {
    key: "_class"
    value {
      list {
        s: "loc:@rnn/while/rnn/multi_rnn_cell/cell_1/cell_1/basic_rnn_cell/concat"
      }
    }
  }
  attr {
    key: "dtype"
    value {
      type: DT_INT32
    }
  }
  attr {
    key: "value"
    value {
      tensor {
        dtype: DT_INT32
        tensor_shape {
        }
        int_val: -1
      }
    }
  }
}
node {
  name: "gradients/rnn/while/rnn/multi_rnn_cell/cell_1/cell_1/basic_rnn_cell/MatMul_grad/MatMul_1/f_acc"
  op: "StackV2"
  input: "gradients/rnn/while/rnn/multi_rnn_cell/cell_1/cell_1/basic_rnn_cell/MatMul_grad/MatMul_1/f_acc/max_size"
  attr {
    key: "_class"
    value {
      list {
        s: "loc:@rnn/while/rnn/multi_rnn_cell/cell_1/cell_1/basic_rnn_cell/concat"
      }
    }
  }
  attr {
    key: "elem_type"
    value {
      type: DT_FLOAT
    }
  }
  attr {
    key: "stack_name"
    value {
      s: ""
    }
  }
}
node {
  name: "gradients/rnn/while/rnn/multi_rnn_cell/cell_1/cell_1/basic_rnn_cell/MatMul_grad/MatMul_1/Enter"
  op: "Enter"
  input: "gradients/rnn/while/rnn/multi_rnn_cell/cell_1/cell_1/basic_rnn_cell/MatMul_grad/MatMul_1/f_acc"
  attr {
    key: "T"
    value {
      type: DT_RESOURCE
    }
  }
  attr {
    key: "frame_name"
    value {
      s: "rnn/while/while_context"
    }
  }
  attr {
    key: "is_constant"
    value {
      b: true
    }
  }
  attr {
    key: "parallel_iterations"
    value {
      i: 32
    }
  }
}
node {
  name: "gradients/rnn/while/rnn/multi_rnn_cell/cell_1/cell_1/basic_rnn_cell/MatMul_grad/MatMul_1/StackPushV2"
  op: "StackPushV2"
  input: "gradients/rnn/while/rnn/multi_rnn_cell/cell_1/cell_1/basic_rnn_cell/MatMul_grad/MatMul_1/Enter"
  input: "rnn/while/rnn/multi_rnn_cell/cell_1/cell_1/basic_rnn_cell/concat"
  input: "^gradients/Add"
  attr {
    key: "T"
    value {
      type: DT_FLOAT
    }
  }
  attr {
    key: "swap_memory"
    value {
      b: false
    }
  }
}
node {
  name: "gradients/rnn/while/rnn/multi_rnn_cell/cell_1/cell_1/basic_rnn_cell/MatMul_grad/MatMul_1/StackPopV2/Enter"
  op: "Enter"
  input: "gradients/rnn/while/rnn/multi_rnn_cell/cell_1/cell_1/basic_rnn_cell/MatMul_grad/MatMul_1/f_acc"
  attr {
    key: "T"
    value {
      type: DT_RESOURCE
    }
  }
  attr {
    key: "frame_name"
    value {
      s: "gradients/rnn/while/while_context"
    }
  }
  attr {
    key: "is_constant"
    value {
      b: true
    }
  }
  attr {
    key: "parallel_iterations"
    value {
      i: 32
    }
  }
}
node {
  name: "gradients/rnn/while/rnn/multi_rnn_cell/cell_1/cell_1/basic_rnn_cell/MatMul_grad/MatMul_1/StackPopV2"
  op: "StackPopV2"
  input: "gradients/rnn/while/rnn/multi_rnn_cell/cell_1/cell_1/basic_rnn_cell/MatMul_grad/MatMul_1/StackPopV2/Enter"
  input: "^gradients/Sub"
  attr {
    key: "elem_type"
    value {
      type: DT_FLOAT
    }
  }
}
node {
  name: "gradients/rnn/while/rnn/multi_rnn_cell/cell_1/cell_1/basic_rnn_cell/MatMul_grad/MatMul_1"
  op: "MatMul"
  input: "gradients/rnn/while/rnn/multi_rnn_cell/cell_1/cell_1/basic_rnn_cell/MatMul_grad/MatMul_1/StackPopV2"
  input: "gradients/rnn/while/rnn/multi_rnn_cell/cell_1/cell_1/basic_rnn_cell/BiasAdd_grad/tuple/control_dependency"
  attr {
    key: "T"
    value {
      type: DT_FLOAT
    }
  }
  attr {
    key: "transpose_a"
    value {
      b: true
    }
  }
  attr {
    key: "transpose_b"
    value {
      b: false
    }
  }
}
node {
  name: "gradients/rnn/while/rnn/multi_rnn_cell/cell_1/cell_1/basic_rnn_cell/MatMul_grad/tuple/group_deps"
  op: "NoOp"
  input: "^gradients/rnn/while/rnn/multi_rnn_cell/cell_1/cell_1/basic_rnn_cell/MatMul_grad/MatMul"
  input: "^gradients/rnn/while/rnn/multi_rnn_cell/cell_1/cell_1/basic_rnn_cell/MatMul_grad/MatMul_1"
}
node {
  name: "gradients/rnn/while/rnn/multi_rnn_cell/cell_1/cell_1/basic_rnn_cell/MatMul_grad/tuple/control_dependency"
  op: "Identity"
  input: "gradients/rnn/while/rnn/multi_rnn_cell/cell_1/cell_1/basic_rnn_cell/MatMul_grad/MatMul"
  input: "^gradients/rnn/while/rnn/multi_rnn_cell/cell_1/cell_1/basic_rnn_cell/MatMul_grad/tuple/group_deps"
  attr {
    key: "T"
    value {
      type: DT_FLOAT
    }
  }
  attr {
    key: "_class"
    value {
      list {
        s: "loc:@gradients/rnn/while/rnn/multi_rnn_cell/cell_1/cell_1/basic_rnn_cell/MatMul_grad/MatMul"
      }
    }
  }
}
node {
  name: "gradients/rnn/while/rnn/multi_rnn_cell/cell_1/cell_1/basic_rnn_cell/MatMul_grad/tuple/control_dependency_1"
  op: "Identity"
  input: "gradients/rnn/while/rnn/multi_rnn_cell/cell_1/cell_1/basic_rnn_cell/MatMul_grad/MatMul_1"
  input: "^gradients/rnn/while/rnn/multi_rnn_cell/cell_1/cell_1/basic_rnn_cell/MatMul_grad/tuple/group_deps"
  attr {
    key: "T"
    value {
      type: DT_FLOAT
    }
  }
  attr {
    key: "_class"
    value {
      list {
        s: "loc:@gradients/rnn/while/rnn/multi_rnn_cell/cell_1/cell_1/basic_rnn_cell/MatMul_grad/MatMul_1"
      }
    }
  }
}
node {
  name: "gradients/rnn/while/rnn/multi_rnn_cell/cell_1/cell_1/basic_rnn_cell/BiasAdd/Enter_grad/b_acc"
  op: "Const"
  attr {
    key: "dtype"
    value {
      type: DT_FLOAT
    }
  }
  attr {
    key: "value"
    value {
      tensor {
        dtype: DT_FLOAT
        tensor_shape {
          dim {
            size: 4
          }
        }
        float_val: 0.0
      }
    }
  }
}
node {
  name: "gradients/rnn/while/rnn/multi_rnn_cell/cell_1/cell_1/basic_rnn_cell/BiasAdd/Enter_grad/b_acc_1"
  op: "Enter"
  input: "gradients/rnn/while/rnn/multi_rnn_cell/cell_1/cell_1/basic_rnn_cell/BiasAdd/Enter_grad/b_acc"
  attr {
    key: "T"
    value {
      type: DT_FLOAT
    }
  }
  attr {
    key: "frame_name"
    value {
      s: "gradients/rnn/while/while_context"
    }
  }
  attr {
    key: "is_constant"
    value {
      b: false
    }
  }
  attr {
    key: "parallel_iterations"
    value {
      i: 32
    }
  }
}
node {
  name: "gradients/rnn/while/rnn/multi_rnn_cell/cell_1/cell_1/basic_rnn_cell/BiasAdd/Enter_grad/b_acc_2"
  op: "Merge"
  input: "gradients/rnn/while/rnn/multi_rnn_cell/cell_1/cell_1/basic_rnn_cell/BiasAdd/Enter_grad/b_acc_1"
  input: "gradients/rnn/while/rnn/multi_rnn_cell/cell_1/cell_1/basic_rnn_cell/BiasAdd/Enter_grad/NextIteration"
  attr {
    key: "N"
    value {
      i: 2
    }
  }
  attr {
    key: "T"
    value {
      type: DT_FLOAT
    }
  }
}
node {
  name: "gradients/rnn/while/rnn/multi_rnn_cell/cell_1/cell_1/basic_rnn_cell/BiasAdd/Enter_grad/Switch"
  op: "Switch"
  input: "gradients/rnn/while/rnn/multi_rnn_cell/cell_1/cell_1/basic_rnn_cell/BiasAdd/Enter_grad/b_acc_2"
  input: "gradients/b_count_2"
  attr {
    key: "T"
    value {
      type: DT_FLOAT
    }
  }
}
node {
  name: "gradients/rnn/while/rnn/multi_rnn_cell/cell_1/cell_1/basic_rnn_cell/BiasAdd/Enter_grad/Add"
  op: "Add"
  input: "gradients/rnn/while/rnn/multi_rnn_cell/cell_1/cell_1/basic_rnn_cell/BiasAdd/Enter_grad/Switch:1"
  input: "gradients/rnn/while/rnn/multi_rnn_cell/cell_1/cell_1/basic_rnn_cell/BiasAdd_grad/tuple/control_dependency_1"
  attr {
    key: "T"
    value {
      type: DT_FLOAT
    }
  }
}
node {
  name: "gradients/rnn/while/rnn/multi_rnn_cell/cell_1/cell_1/basic_rnn_cell/BiasAdd/Enter_grad/NextIteration"
  op: "NextIteration"
  input: "gradients/rnn/while/rnn/multi_rnn_cell/cell_1/cell_1/basic_rnn_cell/BiasAdd/Enter_grad/Add"
  attr {
    key: "T"
    value {
      type: DT_FLOAT
    }
  }
}
node {
  name: "gradients/rnn/while/rnn/multi_rnn_cell/cell_1/cell_1/basic_rnn_cell/BiasAdd/Enter_grad/b_acc_3"
  op: "Exit"
  input: "gradients/rnn/while/rnn/multi_rnn_cell/cell_1/cell_1/basic_rnn_cell/BiasAdd/Enter_grad/Switch"
  attr {
    key: "T"
    value {
      type: DT_FLOAT
    }
  }
}
node {
  name: "gradients/rnn/while/rnn/multi_rnn_cell/cell_1/cell_1/basic_rnn_cell/concat_grad/Rank"
  op: "Const"
  input: "^gradients/Sub"
  attr {
    key: "dtype"
    value {
      type: DT_INT32
    }
  }
  attr {
    key: "value"
    value {
      tensor {
        dtype: DT_INT32
        tensor_shape {
        }
        int_val: 2
      }
    }
  }
}
node {
  name: "gradients/rnn/while/rnn/multi_rnn_cell/cell_1/cell_1/basic_rnn_cell/concat_grad/mod/Const"
  op: "Const"
  input: "^gradients/Sub"
  attr {
    key: "dtype"
    value {
      type: DT_INT32
    }
  }
  attr {
    key: "value"
    value {
      tensor {
        dtype: DT_INT32
        tensor_shape {
        }
        int_val: 1
      }
    }
  }
}
node {
  name: "gradients/rnn/while/rnn/multi_rnn_cell/cell_1/cell_1/basic_rnn_cell/concat_grad/mod"
  op: "FloorMod"
  input: "gradients/rnn/while/rnn/multi_rnn_cell/cell_1/cell_1/basic_rnn_cell/concat_grad/mod/Const"
  input: "gradients/rnn/while/rnn/multi_rnn_cell/cell_1/cell_1/basic_rnn_cell/concat_grad/Rank"
  attr {
    key: "T"
    value {
      type: DT_INT32
    }
  }
}
node {
  name: "gradients/rnn/while/rnn/multi_rnn_cell/cell_1/cell_1/basic_rnn_cell/concat_grad/Shape"
  op: "Shape"
  input: "rnn/while/rnn/multi_rnn_cell/cell_0/cell_0/basic_rnn_cell/Tanh"
  attr {
    key: "T"
    value {
      type: DT_FLOAT
    }
  }
  attr {
    key: "out_type"
    value {
      type: DT_INT32
    }
  }
}
node {
  name: "gradients/rnn/while/rnn/multi_rnn_cell/cell_1/cell_1/basic_rnn_cell/concat_grad/ShapeN/f_acc/max_size"
  op: "Const"
  attr {
    key: "_class"
    value {
      list {
        s: "loc:@rnn/while/rnn/multi_rnn_cell/cell_0/cell_0/basic_rnn_cell/Tanh"
      }
    }
  }
  attr {
    key: "dtype"
    value {
      type: DT_INT32
    }
  }
  attr {
    key: "value"
    value {
      tensor {
        dtype: DT_INT32
        tensor_shape {
        }
        int_val: -1
      }
    }
  }
}
node {
  name: "gradients/rnn/while/rnn/multi_rnn_cell/cell_1/cell_1/basic_rnn_cell/concat_grad/ShapeN/f_acc"
  op: "StackV2"
  input: "gradients/rnn/while/rnn/multi_rnn_cell/cell_1/cell_1/basic_rnn_cell/concat_grad/ShapeN/f_acc/max_size"
  attr {
    key: "_class"
    value {
      list {
        s: "loc:@rnn/while/rnn/multi_rnn_cell/cell_0/cell_0/basic_rnn_cell/Tanh"
      }
    }
  }
  attr {
    key: "elem_type"
    value {
      type: DT_FLOAT
    }
  }
  attr {
    key: "stack_name"
    value {
      s: ""
    }
  }
}
node {
  name: "gradients/rnn/while/rnn/multi_rnn_cell/cell_1/cell_1/basic_rnn_cell/concat_grad/ShapeN/Enter"
  op: "Enter"
  input: "gradients/rnn/while/rnn/multi_rnn_cell/cell_1/cell_1/basic_rnn_cell/concat_grad/ShapeN/f_acc"
  attr {
    key: "T"
    value {
      type: DT_RESOURCE
    }
  }
  attr {
    key: "frame_name"
    value {
      s: "rnn/while/while_context"
    }
  }
  attr {
    key: "is_constant"
    value {
      b: true
    }
  }
  attr {
    key: "parallel_iterations"
    value {
      i: 32
    }
  }
}
node {
  name: "gradients/rnn/while/rnn/multi_rnn_cell/cell_1/cell_1/basic_rnn_cell/concat_grad/ShapeN/StackPushV2"
  op: "StackPushV2"
  input: "gradients/rnn/while/rnn/multi_rnn_cell/cell_1/cell_1/basic_rnn_cell/concat_grad/ShapeN/Enter"
  input: "rnn/while/rnn/multi_rnn_cell/cell_0/cell_0/basic_rnn_cell/Tanh"
  input: "^gradients/Add"
  attr {
    key: "T"
    value {
      type: DT_FLOAT
    }
  }
  attr {
    key: "swap_memory"
    value {
      b: false
    }
  }
}
node {
  name: "gradients/rnn/while/rnn/multi_rnn_cell/cell_1/cell_1/basic_rnn_cell/concat_grad/ShapeN/StackPopV2/Enter"
  op: "Enter"
  input: "gradients/rnn/while/rnn/multi_rnn_cell/cell_1/cell_1/basic_rnn_cell/concat_grad/ShapeN/f_acc"
  attr {
    key: "T"
    value {
      type: DT_RESOURCE
    }
  }
  attr {
    key: "frame_name"
    value {
      s: "gradients/rnn/while/while_context"
    }
  }
  attr {
    key: "is_constant"
    value {
      b: true
    }
  }
  attr {
    key: "parallel_iterations"
    value {
      i: 32
    }
  }
}
node {
  name: "gradients/rnn/while/rnn/multi_rnn_cell/cell_1/cell_1/basic_rnn_cell/concat_grad/ShapeN/StackPopV2"
  op: "StackPopV2"
  input: "gradients/rnn/while/rnn/multi_rnn_cell/cell_1/cell_1/basic_rnn_cell/concat_grad/ShapeN/StackPopV2/Enter"
  input: "^gradients/Sub"
  attr {
    key: "elem_type"
    value {
      type: DT_FLOAT
    }
  }
}
node {
  name: "gradients/rnn/while/rnn/multi_rnn_cell/cell_1/cell_1/basic_rnn_cell/concat_grad/ShapeN/f_acc_1/max_size"
  op: "Const"
  attr {
    key: "_class"
    value {
      list {
        s: "loc:@rnn/while/Identity_3"
      }
    }
  }
  attr {
    key: "dtype"
    value {
      type: DT_INT32
    }
  }
  attr {
    key: "value"
    value {
      tensor {
        dtype: DT_INT32
        tensor_shape {
        }
        int_val: -1
      }
    }
  }
}
node {
  name: "gradients/rnn/while/rnn/multi_rnn_cell/cell_1/cell_1/basic_rnn_cell/concat_grad/ShapeN/f_acc_1"
  op: "StackV2"
  input: "gradients/rnn/while/rnn/multi_rnn_cell/cell_1/cell_1/basic_rnn_cell/concat_grad/ShapeN/f_acc_1/max_size"
  attr {
    key: "_class"
    value {
      list {
        s: "loc:@rnn/while/Identity_3"
      }
    }
  }
  attr {
    key: "elem_type"
    value {
      type: DT_FLOAT
    }
  }
  attr {
    key: "stack_name"
    value {
      s: ""
    }
  }
}
node {
  name: "gradients/rnn/while/rnn/multi_rnn_cell/cell_1/cell_1/basic_rnn_cell/concat_grad/ShapeN/Enter_1"
  op: "Enter"
  input: "gradients/rnn/while/rnn/multi_rnn_cell/cell_1/cell_1/basic_rnn_cell/concat_grad/ShapeN/f_acc_1"
  attr {
    key: "T"
    value {
      type: DT_RESOURCE
    }
  }
  attr {
    key: "frame_name"
    value {
      s: "rnn/while/while_context"
    }
  }
  attr {
    key: "is_constant"
    value {
      b: true
    }
  }
  attr {
    key: "parallel_iterations"
    value {
      i: 32
    }
  }
}
node {
  name: "gradients/rnn/while/rnn/multi_rnn_cell/cell_1/cell_1/basic_rnn_cell/concat_grad/ShapeN/StackPushV2_1"
  op: "StackPushV2"
  input: "gradients/rnn/while/rnn/multi_rnn_cell/cell_1/cell_1/basic_rnn_cell/concat_grad/ShapeN/Enter_1"
  input: "rnn/while/Identity_3"
  input: "^gradients/Add"
  attr {
    key: "T"
    value {
      type: DT_FLOAT
    }
  }
  attr {
    key: "swap_memory"
    value {
      b: false
    }
  }
}
node {
  name: "gradients/rnn/while/rnn/multi_rnn_cell/cell_1/cell_1/basic_rnn_cell/concat_grad/ShapeN/StackPopV2_1/Enter"
  op: "Enter"
  input: "gradients/rnn/while/rnn/multi_rnn_cell/cell_1/cell_1/basic_rnn_cell/concat_grad/ShapeN/f_acc_1"
  attr {
    key: "T"
    value {
      type: DT_RESOURCE
    }
  }
  attr {
    key: "frame_name"
    value {
      s: "gradients/rnn/while/while_context"
    }
  }
  attr {
    key: "is_constant"
    value {
      b: true
    }
  }
  attr {
    key: "parallel_iterations"
    value {
      i: 32
    }
  }
}
node {
  name: "gradients/rnn/while/rnn/multi_rnn_cell/cell_1/cell_1/basic_rnn_cell/concat_grad/ShapeN/StackPopV2_1"
  op: "StackPopV2"
  input: "gradients/rnn/while/rnn/multi_rnn_cell/cell_1/cell_1/basic_rnn_cell/concat_grad/ShapeN/StackPopV2_1/Enter"
  input: "^gradients/Sub"
  attr {
    key: "elem_type"
    value {
      type: DT_FLOAT
    }
  }
}
node {
  name: "gradients/rnn/while/rnn/multi_rnn_cell/cell_1/cell_1/basic_rnn_cell/concat_grad/ShapeN"
  op: "ShapeN"
  input: "gradients/rnn/while/rnn/multi_rnn_cell/cell_1/cell_1/basic_rnn_cell/concat_grad/ShapeN/StackPopV2"
  input: "gradients/rnn/while/rnn/multi_rnn_cell/cell_1/cell_1/basic_rnn_cell/concat_grad/ShapeN/StackPopV2_1"
  attr {
    key: "N"
    value {
      i: 2
    }
  }
  attr {
    key: "T"
    value {
      type: DT_FLOAT
    }
  }
  attr {
    key: "out_type"
    value {
      type: DT_INT32
    }
  }
}
node {
  name: "gradients/rnn/while/rnn/multi_rnn_cell/cell_1/cell_1/basic_rnn_cell/concat_grad/ConcatOffset"
  op: "ConcatOffset"
  input: "gradients/rnn/while/rnn/multi_rnn_cell/cell_1/cell_1/basic_rnn_cell/concat_grad/mod"
  input: "gradients/rnn/while/rnn/multi_rnn_cell/cell_1/cell_1/basic_rnn_cell/concat_grad/ShapeN"
  input: "gradients/rnn/while/rnn/multi_rnn_cell/cell_1/cell_1/basic_rnn_cell/concat_grad/ShapeN:1"
  attr {
    key: "N"
    value {
      i: 2
    }
  }
}
node {
  name: "gradients/rnn/while/rnn/multi_rnn_cell/cell_1/cell_1/basic_rnn_cell/concat_grad/Slice"
  op: "Slice"
  input: "gradients/rnn/while/rnn/multi_rnn_cell/cell_1/cell_1/basic_rnn_cell/MatMul_grad/tuple/control_dependency"
  input: "gradients/rnn/while/rnn/multi_rnn_cell/cell_1/cell_1/basic_rnn_cell/concat_grad/ConcatOffset"
  input: "gradients/rnn/while/rnn/multi_rnn_cell/cell_1/cell_1/basic_rnn_cell/concat_grad/ShapeN"
  attr {
    key: "Index"
    value {
      type: DT_INT32
    }
  }
  attr {
    key: "T"
    value {
      type: DT_FLOAT
    }
  }
}
node {
  name: "gradients/rnn/while/rnn/multi_rnn_cell/cell_1/cell_1/basic_rnn_cell/concat_grad/Slice_1"
  op: "Slice"
  input: "gradients/rnn/while/rnn/multi_rnn_cell/cell_1/cell_1/basic_rnn_cell/MatMul_grad/tuple/control_dependency"
  input: "gradients/rnn/while/rnn/multi_rnn_cell/cell_1/cell_1/basic_rnn_cell/concat_grad/ConcatOffset:1"
  input: "gradients/rnn/while/rnn/multi_rnn_cell/cell_1/cell_1/basic_rnn_cell/concat_grad/ShapeN:1"
  attr {
    key: "Index"
    value {
      type: DT_INT32
    }
  }
  attr {
    key: "T"
    value {
      type: DT_FLOAT
    }
  }
}
node {
  name: "gradients/rnn/while/rnn/multi_rnn_cell/cell_1/cell_1/basic_rnn_cell/concat_grad/tuple/group_deps"
  op: "NoOp"
  input: "^gradients/rnn/while/rnn/multi_rnn_cell/cell_1/cell_1/basic_rnn_cell/concat_grad/Slice"
  input: "^gradients/rnn/while/rnn/multi_rnn_cell/cell_1/cell_1/basic_rnn_cell/concat_grad/Slice_1"
}
node {
  name: "gradients/rnn/while/rnn/multi_rnn_cell/cell_1/cell_1/basic_rnn_cell/concat_grad/tuple/control_dependency"
  op: "Identity"
  input: "gradients/rnn/while/rnn/multi_rnn_cell/cell_1/cell_1/basic_rnn_cell/concat_grad/Slice"
  input: "^gradients/rnn/while/rnn/multi_rnn_cell/cell_1/cell_1/basic_rnn_cell/concat_grad/tuple/group_deps"
  attr {
    key: "T"
    value {
      type: DT_FLOAT
    }
  }
  attr {
    key: "_class"
    value {
      list {
        s: "loc:@gradients/rnn/while/rnn/multi_rnn_cell/cell_1/cell_1/basic_rnn_cell/concat_grad/Slice"
      }
    }
  }
}
node {
  name: "gradients/rnn/while/rnn/multi_rnn_cell/cell_1/cell_1/basic_rnn_cell/concat_grad/tuple/control_dependency_1"
  op: "Identity"
  input: "gradients/rnn/while/rnn/multi_rnn_cell/cell_1/cell_1/basic_rnn_cell/concat_grad/Slice_1"
  input: "^gradients/rnn/while/rnn/multi_rnn_cell/cell_1/cell_1/basic_rnn_cell/concat_grad/tuple/group_deps"
  attr {
    key: "T"
    value {
      type: DT_FLOAT
    }
  }
  attr {
    key: "_class"
    value {
      list {
        s: "loc:@gradients/rnn/while/rnn/multi_rnn_cell/cell_1/cell_1/basic_rnn_cell/concat_grad/Slice_1"
      }
    }
  }
}
node {
  name: "gradients/rnn/while/rnn/multi_rnn_cell/cell_1/cell_1/basic_rnn_cell/MatMul/Enter_grad/b_acc"
  op: "Const"
  attr {
    key: "dtype"
    value {
      type: DT_FLOAT
    }
  }
  attr {
    key: "value"
    value {
      tensor {
        dtype: DT_FLOAT
        tensor_shape {
          dim {
            size: 20
          }
          dim {
            size: 4
          }
        }
        float_val: 0.0
      }
    }
  }
}
node {
  name: "gradients/rnn/while/rnn/multi_rnn_cell/cell_1/cell_1/basic_rnn_cell/MatMul/Enter_grad/b_acc_1"
  op: "Enter"
  input: "gradients/rnn/while/rnn/multi_rnn_cell/cell_1/cell_1/basic_rnn_cell/MatMul/Enter_grad/b_acc"
  attr {
    key: "T"
    value {
      type: DT_FLOAT
    }
  }
  attr {
    key: "frame_name"
    value {
      s: "gradients/rnn/while/while_context"
    }
  }
  attr {
    key: "is_constant"
    value {
      b: false
    }
  }
  attr {
    key: "parallel_iterations"
    value {
      i: 32
    }
  }
}
node {
  name: "gradients/rnn/while/rnn/multi_rnn_cell/cell_1/cell_1/basic_rnn_cell/MatMul/Enter_grad/b_acc_2"
  op: "Merge"
  input: "gradients/rnn/while/rnn/multi_rnn_cell/cell_1/cell_1/basic_rnn_cell/MatMul/Enter_grad/b_acc_1"
  input: "gradients/rnn/while/rnn/multi_rnn_cell/cell_1/cell_1/basic_rnn_cell/MatMul/Enter_grad/NextIteration"
  attr {
    key: "N"
    value {
      i: 2
    }
  }
  attr {
    key: "T"
    value {
      type: DT_FLOAT
    }
  }
}
node {
  name: "gradients/rnn/while/rnn/multi_rnn_cell/cell_1/cell_1/basic_rnn_cell/MatMul/Enter_grad/Switch"
  op: "Switch"
  input: "gradients/rnn/while/rnn/multi_rnn_cell/cell_1/cell_1/basic_rnn_cell/MatMul/Enter_grad/b_acc_2"
  input: "gradients/b_count_2"
  attr {
    key: "T"
    value {
      type: DT_FLOAT
    }
  }
}
node {
  name: "gradients/rnn/while/rnn/multi_rnn_cell/cell_1/cell_1/basic_rnn_cell/MatMul/Enter_grad/Add"
  op: "Add"
  input: "gradients/rnn/while/rnn/multi_rnn_cell/cell_1/cell_1/basic_rnn_cell/MatMul/Enter_grad/Switch:1"
  input: "gradients/rnn/while/rnn/multi_rnn_cell/cell_1/cell_1/basic_rnn_cell/MatMul_grad/tuple/control_dependency_1"
  attr {
    key: "T"
    value {
      type: DT_FLOAT
    }
  }
}
node {
  name: "gradients/rnn/while/rnn/multi_rnn_cell/cell_1/cell_1/basic_rnn_cell/MatMul/Enter_grad/NextIteration"
  op: "NextIteration"
  input: "gradients/rnn/while/rnn/multi_rnn_cell/cell_1/cell_1/basic_rnn_cell/MatMul/Enter_grad/Add"
  attr {
    key: "T"
    value {
      type: DT_FLOAT
    }
  }
}
node {
  name: "gradients/rnn/while/rnn/multi_rnn_cell/cell_1/cell_1/basic_rnn_cell/MatMul/Enter_grad/b_acc_3"
  op: "Exit"
  input: "gradients/rnn/while/rnn/multi_rnn_cell/cell_1/cell_1/basic_rnn_cell/MatMul/Enter_grad/Switch"
  attr {
    key: "T"
    value {
      type: DT_FLOAT
    }
  }
}
node {
  name: "gradients/AddN_3"
  op: "AddN"
  input: "gradients/rnn/while/Merge_2_grad/tuple/control_dependency_1"
  input: "gradients/rnn/while/rnn/multi_rnn_cell/cell_1/cell_1/basic_rnn_cell/concat_grad/tuple/control_dependency"
  attr {
    key: "N"
    value {
      i: 2
    }
  }
  attr {
    key: "T"
    value {
      type: DT_FLOAT
    }
  }
  attr {
    key: "_class"
    value {
      list {
        s: "loc:@gradients/rnn/while/Switch_2_grad/b_switch"
      }
    }
  }
}
node {
  name: "gradients/rnn/while/rnn/multi_rnn_cell/cell_0/cell_0/basic_rnn_cell/Tanh_grad/TanhGrad"
  op: "TanhGrad"
  input: "gradients/rnn/while/rnn/multi_rnn_cell/cell_1/cell_1/basic_rnn_cell/concat_grad/ShapeN/StackPopV2"
  input: "gradients/AddN_3"
  attr {
    key: "T"
    value {
      type: DT_FLOAT
    }
  }
}
node {
  name: "gradients/rnn/while/rnn/multi_rnn_cell/cell_0/cell_0/basic_rnn_cell/BiasAdd_grad/BiasAddGrad"
  op: "BiasAddGrad"
  input: "gradients/rnn/while/rnn/multi_rnn_cell/cell_0/cell_0/basic_rnn_cell/Tanh_grad/TanhGrad"
  attr {
    key: "T"
    value {
      type: DT_FLOAT
    }
  }
  attr {
    key: "data_format"
    value {
      s: "NHWC"
    }
  }
}
node {
  name: "gradients/rnn/while/rnn/multi_rnn_cell/cell_0/cell_0/basic_rnn_cell/BiasAdd_grad/tuple/group_deps"
  op: "NoOp"
  input: "^gradients/rnn/while/rnn/multi_rnn_cell/cell_0/cell_0/basic_rnn_cell/Tanh_grad/TanhGrad"
  input: "^gradients/rnn/while/rnn/multi_rnn_cell/cell_0/cell_0/basic_rnn_cell/BiasAdd_grad/BiasAddGrad"
}
node {
  name: "gradients/rnn/while/rnn/multi_rnn_cell/cell_0/cell_0/basic_rnn_cell/BiasAdd_grad/tuple/control_dependency"
  op: "Identity"
  input: "gradients/rnn/while/rnn/multi_rnn_cell/cell_0/cell_0/basic_rnn_cell/Tanh_grad/TanhGrad"
  input: "^gradients/rnn/while/rnn/multi_rnn_cell/cell_0/cell_0/basic_rnn_cell/BiasAdd_grad/tuple/group_deps"
  attr {
    key: "T"
    value {
      type: DT_FLOAT
    }
  }
  attr {
    key: "_class"
    value {
      list {
        s: "loc:@gradients/rnn/while/rnn/multi_rnn_cell/cell_0/cell_0/basic_rnn_cell/Tanh_grad/TanhGrad"
      }
    }
  }
}
node {
  name: "gradients/rnn/while/rnn/multi_rnn_cell/cell_0/cell_0/basic_rnn_cell/BiasAdd_grad/tuple/control_dependency_1"
  op: "Identity"
  input: "gradients/rnn/while/rnn/multi_rnn_cell/cell_0/cell_0/basic_rnn_cell/BiasAdd_grad/BiasAddGrad"
  input: "^gradients/rnn/while/rnn/multi_rnn_cell/cell_0/cell_0/basic_rnn_cell/BiasAdd_grad/tuple/group_deps"
  attr {
    key: "T"
    value {
      type: DT_FLOAT
    }
  }
  attr {
    key: "_class"
    value {
      list {
        s: "loc:@gradients/rnn/while/rnn/multi_rnn_cell/cell_0/cell_0/basic_rnn_cell/BiasAdd_grad/BiasAddGrad"
      }
    }
  }
}
node {
  name: "gradients/rnn/while/Switch_3_grad_1/NextIteration"
  op: "NextIteration"
  input: "gradients/rnn/while/rnn/multi_rnn_cell/cell_1/cell_1/basic_rnn_cell/concat_grad/tuple/control_dependency_1"
  attr {
    key: "T"
    value {
      type: DT_FLOAT
    }
  }
}
node {
  name: "gradients/rnn/while/rnn/multi_rnn_cell/cell_0/cell_0/basic_rnn_cell/MatMul_grad/MatMul/Enter"
  op: "Enter"
  input: "rnn/multi_rnn_cell/cell_0/basic_rnn_cell/kernel/read"
  attr {
    key: "T"
    value {
      type: DT_FLOAT
    }
  }
  attr {
    key: "frame_name"
    value {
      s: "gradients/rnn/while/while_context"
    }
  }
  attr {
    key: "is_constant"
    value {
      b: true
    }
  }
  attr {
    key: "parallel_iterations"
    value {
      i: 32
    }
  }
}
node {
  name: "gradients/rnn/while/rnn/multi_rnn_cell/cell_0/cell_0/basic_rnn_cell/MatMul_grad/MatMul"
  op: "MatMul"
  input: "gradients/rnn/while/rnn/multi_rnn_cell/cell_0/cell_0/basic_rnn_cell/BiasAdd_grad/tuple/control_dependency"
  input: "gradients/rnn/while/rnn/multi_rnn_cell/cell_0/cell_0/basic_rnn_cell/MatMul_grad/MatMul/Enter"
  attr {
    key: "T"
    value {
      type: DT_FLOAT
    }
  }
  attr {
    key: "transpose_a"
    value {
      b: false
    }
  }
  attr {
    key: "transpose_b"
    value {
      b: true
    }
  }
}
node {
  name: "gradients/rnn/while/rnn/multi_rnn_cell/cell_0/cell_0/basic_rnn_cell/MatMul_grad/MatMul_1/f_acc/max_size"
  op: "Const"
  attr {
    key: "_class"
    value {
      list {
        s: "loc:@rnn/while/rnn/multi_rnn_cell/cell_0/cell_0/basic_rnn_cell/concat"
      }
    }
  }
  attr {
    key: "dtype"
    value {
      type: DT_INT32
    }
  }
  attr {
    key: "value"
    value {
      tensor {
        dtype: DT_INT32
        tensor_shape {
        }
        int_val: -1
      }
    }
  }
}
node {
  name: "gradients/rnn/while/rnn/multi_rnn_cell/cell_0/cell_0/basic_rnn_cell/MatMul_grad/MatMul_1/f_acc"
  op: "StackV2"
  input: "gradients/rnn/while/rnn/multi_rnn_cell/cell_0/cell_0/basic_rnn_cell/MatMul_grad/MatMul_1/f_acc/max_size"
  attr {
    key: "_class"
    value {
      list {
        s: "loc:@rnn/while/rnn/multi_rnn_cell/cell_0/cell_0/basic_rnn_cell/concat"
      }
    }
  }
  attr {
    key: "elem_type"
    value {
      type: DT_FLOAT
    }
  }
  attr {
    key: "stack_name"
    value {
      s: ""
    }
  }
}
node {
  name: "gradients/rnn/while/rnn/multi_rnn_cell/cell_0/cell_0/basic_rnn_cell/MatMul_grad/MatMul_1/Enter"
  op: "Enter"
  input: "gradients/rnn/while/rnn/multi_rnn_cell/cell_0/cell_0/basic_rnn_cell/MatMul_grad/MatMul_1/f_acc"
  attr {
    key: "T"
    value {
      type: DT_RESOURCE
    }
  }
  attr {
    key: "frame_name"
    value {
      s: "rnn/while/while_context"
    }
  }
  attr {
    key: "is_constant"
    value {
      b: true
    }
  }
  attr {
    key: "parallel_iterations"
    value {
      i: 32
    }
  }
}
node {
  name: "gradients/rnn/while/rnn/multi_rnn_cell/cell_0/cell_0/basic_rnn_cell/MatMul_grad/MatMul_1/StackPushV2"
  op: "StackPushV2"
  input: "gradients/rnn/while/rnn/multi_rnn_cell/cell_0/cell_0/basic_rnn_cell/MatMul_grad/MatMul_1/Enter"
  input: "rnn/while/rnn/multi_rnn_cell/cell_0/cell_0/basic_rnn_cell/concat"
  input: "^gradients/Add"
  attr {
    key: "T"
    value {
      type: DT_FLOAT
    }
  }
  attr {
    key: "swap_memory"
    value {
      b: false
    }
  }
}
node {
  name: "gradients/rnn/while/rnn/multi_rnn_cell/cell_0/cell_0/basic_rnn_cell/MatMul_grad/MatMul_1/StackPopV2/Enter"
  op: "Enter"
  input: "gradients/rnn/while/rnn/multi_rnn_cell/cell_0/cell_0/basic_rnn_cell/MatMul_grad/MatMul_1/f_acc"
  attr {
    key: "T"
    value {
      type: DT_RESOURCE
    }
  }
  attr {
    key: "frame_name"
    value {
      s: "gradients/rnn/while/while_context"
    }
  }
  attr {
    key: "is_constant"
    value {
      b: true
    }
  }
  attr {
    key: "parallel_iterations"
    value {
      i: 32
    }
  }
}
node {
  name: "gradients/rnn/while/rnn/multi_rnn_cell/cell_0/cell_0/basic_rnn_cell/MatMul_grad/MatMul_1/StackPopV2"
  op: "StackPopV2"
  input: "gradients/rnn/while/rnn/multi_rnn_cell/cell_0/cell_0/basic_rnn_cell/MatMul_grad/MatMul_1/StackPopV2/Enter"
  input: "^gradients/Sub"
  attr {
    key: "elem_type"
    value {
      type: DT_FLOAT
    }
  }
}
node {
  name: "gradients/rnn/while/rnn/multi_rnn_cell/cell_0/cell_0/basic_rnn_cell/MatMul_grad/MatMul_1"
  op: "MatMul"
  input: "gradients/rnn/while/rnn/multi_rnn_cell/cell_0/cell_0/basic_rnn_cell/MatMul_grad/MatMul_1/StackPopV2"
  input: "gradients/rnn/while/rnn/multi_rnn_cell/cell_0/cell_0/basic_rnn_cell/BiasAdd_grad/tuple/control_dependency"
  attr {
    key: "T"
    value {
      type: DT_FLOAT
    }
  }
  attr {
    key: "transpose_a"
    value {
      b: true
    }
  }
  attr {
    key: "transpose_b"
    value {
      b: false
    }
  }
}
node {
  name: "gradients/rnn/while/rnn/multi_rnn_cell/cell_0/cell_0/basic_rnn_cell/MatMul_grad/tuple/group_deps"
  op: "NoOp"
  input: "^gradients/rnn/while/rnn/multi_rnn_cell/cell_0/cell_0/basic_rnn_cell/MatMul_grad/MatMul"
  input: "^gradients/rnn/while/rnn/multi_rnn_cell/cell_0/cell_0/basic_rnn_cell/MatMul_grad/MatMul_1"
}
node {
  name: "gradients/rnn/while/rnn/multi_rnn_cell/cell_0/cell_0/basic_rnn_cell/MatMul_grad/tuple/control_dependency"
  op: "Identity"
  input: "gradients/rnn/while/rnn/multi_rnn_cell/cell_0/cell_0/basic_rnn_cell/MatMul_grad/MatMul"
  input: "^gradients/rnn/while/rnn/multi_rnn_cell/cell_0/cell_0/basic_rnn_cell/MatMul_grad/tuple/group_deps"
  attr {
    key: "T"
    value {
      type: DT_FLOAT
    }
  }
  attr {
    key: "_class"
    value {
      list {
        s: "loc:@gradients/rnn/while/rnn/multi_rnn_cell/cell_0/cell_0/basic_rnn_cell/MatMul_grad/MatMul"
      }
    }
  }
}
node {
  name: "gradients/rnn/while/rnn/multi_rnn_cell/cell_0/cell_0/basic_rnn_cell/MatMul_grad/tuple/control_dependency_1"
  op: "Identity"
  input: "gradients/rnn/while/rnn/multi_rnn_cell/cell_0/cell_0/basic_rnn_cell/MatMul_grad/MatMul_1"
  input: "^gradients/rnn/while/rnn/multi_rnn_cell/cell_0/cell_0/basic_rnn_cell/MatMul_grad/tuple/group_deps"
  attr {
    key: "T"
    value {
      type: DT_FLOAT
    }
  }
  attr {
    key: "_class"
    value {
      list {
        s: "loc:@gradients/rnn/while/rnn/multi_rnn_cell/cell_0/cell_0/basic_rnn_cell/MatMul_grad/MatMul_1"
      }
    }
  }
}
node {
  name: "gradients/rnn/while/rnn/multi_rnn_cell/cell_0/cell_0/basic_rnn_cell/BiasAdd/Enter_grad/b_acc"
  op: "Const"
  attr {
    key: "dtype"
    value {
      type: DT_FLOAT
    }
  }
  attr {
    key: "value"
    value {
      tensor {
        dtype: DT_FLOAT
        tensor_shape {
          dim {
            size: 16
          }
        }
        float_val: 0.0
      }
    }
  }
}
node {
  name: "gradients/rnn/while/rnn/multi_rnn_cell/cell_0/cell_0/basic_rnn_cell/BiasAdd/Enter_grad/b_acc_1"
  op: "Enter"
  input: "gradients/rnn/while/rnn/multi_rnn_cell/cell_0/cell_0/basic_rnn_cell/BiasAdd/Enter_grad/b_acc"
  attr {
    key: "T"
    value {
      type: DT_FLOAT
    }
  }
  attr {
    key: "frame_name"
    value {
      s: "gradients/rnn/while/while_context"
    }
  }
  attr {
    key: "is_constant"
    value {
      b: false
    }
  }
  attr {
    key: "parallel_iterations"
    value {
      i: 32
    }
  }
}
node {
  name: "gradients/rnn/while/rnn/multi_rnn_cell/cell_0/cell_0/basic_rnn_cell/BiasAdd/Enter_grad/b_acc_2"
  op: "Merge"
  input: "gradients/rnn/while/rnn/multi_rnn_cell/cell_0/cell_0/basic_rnn_cell/BiasAdd/Enter_grad/b_acc_1"
  input: "gradients/rnn/while/rnn/multi_rnn_cell/cell_0/cell_0/basic_rnn_cell/BiasAdd/Enter_grad/NextIteration"
  attr {
    key: "N"
    value {
      i: 2
    }
  }
  attr {
    key: "T"
    value {
      type: DT_FLOAT
    }
  }
}
node {
  name: "gradients/rnn/while/rnn/multi_rnn_cell/cell_0/cell_0/basic_rnn_cell/BiasAdd/Enter_grad/Switch"
  op: "Switch"
  input: "gradients/rnn/while/rnn/multi_rnn_cell/cell_0/cell_0/basic_rnn_cell/BiasAdd/Enter_grad/b_acc_2"
  input: "gradients/b_count_2"
  attr {
    key: "T"
    value {
      type: DT_FLOAT
    }
  }
}
node {
  name: "gradients/rnn/while/rnn/multi_rnn_cell/cell_0/cell_0/basic_rnn_cell/BiasAdd/Enter_grad/Add"
  op: "Add"
  input: "gradients/rnn/while/rnn/multi_rnn_cell/cell_0/cell_0/basic_rnn_cell/BiasAdd/Enter_grad/Switch:1"
  input: "gradients/rnn/while/rnn/multi_rnn_cell/cell_0/cell_0/basic_rnn_cell/BiasAdd_grad/tuple/control_dependency_1"
  attr {
    key: "T"
    value {
      type: DT_FLOAT
    }
  }
}
node {
  name: "gradients/rnn/while/rnn/multi_rnn_cell/cell_0/cell_0/basic_rnn_cell/BiasAdd/Enter_grad/NextIteration"
  op: "NextIteration"
  input: "gradients/rnn/while/rnn/multi_rnn_cell/cell_0/cell_0/basic_rnn_cell/BiasAdd/Enter_grad/Add"
  attr {
    key: "T"
    value {
      type: DT_FLOAT
    }
  }
}
node {
  name: "gradients/rnn/while/rnn/multi_rnn_cell/cell_0/cell_0/basic_rnn_cell/BiasAdd/Enter_grad/b_acc_3"
  op: "Exit"
  input: "gradients/rnn/while/rnn/multi_rnn_cell/cell_0/cell_0/basic_rnn_cell/BiasAdd/Enter_grad/Switch"
  attr {
    key: "T"
    value {
      type: DT_FLOAT
    }
  }
}
node {
  name: "gradients/rnn/while/rnn/multi_rnn_cell/cell_0/cell_0/basic_rnn_cell/concat_grad/Rank"
  op: "Const"
  input: "^gradients/Sub"
  attr {
    key: "dtype"
    value {
      type: DT_INT32
    }
  }
  attr {
    key: "value"
    value {
      tensor {
        dtype: DT_INT32
        tensor_shape {
        }
        int_val: 2
      }
    }
  }
}
node {
  name: "gradients/rnn/while/rnn/multi_rnn_cell/cell_0/cell_0/basic_rnn_cell/concat_grad/mod/Const"
  op: "Const"
  input: "^gradients/Sub"
  attr {
    key: "dtype"
    value {
      type: DT_INT32
    }
  }
  attr {
    key: "value"
    value {
      tensor {
        dtype: DT_INT32
        tensor_shape {
        }
        int_val: 1
      }
    }
  }
}
node {
  name: "gradients/rnn/while/rnn/multi_rnn_cell/cell_0/cell_0/basic_rnn_cell/concat_grad/mod"
  op: "FloorMod"
  input: "gradients/rnn/while/rnn/multi_rnn_cell/cell_0/cell_0/basic_rnn_cell/concat_grad/mod/Const"
  input: "gradients/rnn/while/rnn/multi_rnn_cell/cell_0/cell_0/basic_rnn_cell/concat_grad/Rank"
  attr {
    key: "T"
    value {
      type: DT_INT32
    }
  }
}
node {
  name: "gradients/rnn/while/rnn/multi_rnn_cell/cell_0/cell_0/basic_rnn_cell/concat_grad/Shape"
  op: "Shape"
  input: "rnn/while/TensorArrayReadV3"
  attr {
    key: "T"
    value {
      type: DT_FLOAT
    }
  }
  attr {
    key: "out_type"
    value {
      type: DT_INT32
    }
  }
}
node {
  name: "gradients/rnn/while/rnn/multi_rnn_cell/cell_0/cell_0/basic_rnn_cell/concat_grad/ShapeN/f_acc/max_size"
  op: "Const"
  attr {
    key: "_class"
    value {
      list {
        s: "loc:@rnn/while/TensorArrayReadV3"
      }
    }
  }
  attr {
    key: "dtype"
    value {
      type: DT_INT32
    }
  }
  attr {
    key: "value"
    value {
      tensor {
        dtype: DT_INT32
        tensor_shape {
        }
        int_val: -1
      }
    }
  }
}
node {
  name: "gradients/rnn/while/rnn/multi_rnn_cell/cell_0/cell_0/basic_rnn_cell/concat_grad/ShapeN/f_acc"
  op: "StackV2"
  input: "gradients/rnn/while/rnn/multi_rnn_cell/cell_0/cell_0/basic_rnn_cell/concat_grad/ShapeN/f_acc/max_size"
  attr {
    key: "_class"
    value {
      list {
        s: "loc:@rnn/while/TensorArrayReadV3"
      }
    }
  }
  attr {
    key: "elem_type"
    value {
      type: DT_FLOAT
    }
  }
  attr {
    key: "stack_name"
    value {
      s: ""
    }
  }
}
node {
  name: "gradients/rnn/while/rnn/multi_rnn_cell/cell_0/cell_0/basic_rnn_cell/concat_grad/ShapeN/Enter"
  op: "Enter"
  input: "gradients/rnn/while/rnn/multi_rnn_cell/cell_0/cell_0/basic_rnn_cell/concat_grad/ShapeN/f_acc"
  attr {
    key: "T"
    value {
      type: DT_RESOURCE
    }
  }
  attr {
    key: "frame_name"
    value {
      s: "rnn/while/while_context"
    }
  }
  attr {
    key: "is_constant"
    value {
      b: true
    }
  }
  attr {
    key: "parallel_iterations"
    value {
      i: 32
    }
  }
}
node {
  name: "gradients/rnn/while/rnn/multi_rnn_cell/cell_0/cell_0/basic_rnn_cell/concat_grad/ShapeN/StackPushV2"
  op: "StackPushV2"
  input: "gradients/rnn/while/rnn/multi_rnn_cell/cell_0/cell_0/basic_rnn_cell/concat_grad/ShapeN/Enter"
  input: "rnn/while/TensorArrayReadV3"
  input: "^gradients/Add"
  attr {
    key: "T"
    value {
      type: DT_FLOAT
    }
  }
  attr {
    key: "swap_memory"
    value {
      b: false
    }
  }
}
node {
  name: "gradients/rnn/while/rnn/multi_rnn_cell/cell_0/cell_0/basic_rnn_cell/concat_grad/ShapeN/StackPopV2/Enter"
  op: "Enter"
  input: "gradients/rnn/while/rnn/multi_rnn_cell/cell_0/cell_0/basic_rnn_cell/concat_grad/ShapeN/f_acc"
  attr {
    key: "T"
    value {
      type: DT_RESOURCE
    }
  }
  attr {
    key: "frame_name"
    value {
      s: "gradients/rnn/while/while_context"
    }
  }
  attr {
    key: "is_constant"
    value {
      b: true
    }
  }
  attr {
    key: "parallel_iterations"
    value {
      i: 32
    }
  }
}
node {
  name: "gradients/rnn/while/rnn/multi_rnn_cell/cell_0/cell_0/basic_rnn_cell/concat_grad/ShapeN/StackPopV2"
  op: "StackPopV2"
  input: "gradients/rnn/while/rnn/multi_rnn_cell/cell_0/cell_0/basic_rnn_cell/concat_grad/ShapeN/StackPopV2/Enter"
  input: "^gradients/Sub"
  attr {
    key: "elem_type"
    value {
      type: DT_FLOAT
    }
  }
}
node {
  name: "gradients/rnn/while/rnn/multi_rnn_cell/cell_0/cell_0/basic_rnn_cell/concat_grad/ShapeN/f_acc_1/max_size"
  op: "Const"
  attr {
    key: "_class"
    value {
      list {
        s: "loc:@rnn/while/Identity_2"
      }
    }
  }
  attr {
    key: "dtype"
    value {
      type: DT_INT32
    }
  }
  attr {
    key: "value"
    value {
      tensor {
        dtype: DT_INT32
        tensor_shape {
        }
        int_val: -1
      }
    }
  }
}
node {
  name: "gradients/rnn/while/rnn/multi_rnn_cell/cell_0/cell_0/basic_rnn_cell/concat_grad/ShapeN/f_acc_1"
  op: "StackV2"
  input: "gradients/rnn/while/rnn/multi_rnn_cell/cell_0/cell_0/basic_rnn_cell/concat_grad/ShapeN/f_acc_1/max_size"
  attr {
    key: "_class"
    value {
      list {
        s: "loc:@rnn/while/Identity_2"
      }
    }
  }
  attr {
    key: "elem_type"
    value {
      type: DT_FLOAT
    }
  }
  attr {
    key: "stack_name"
    value {
      s: ""
    }
  }
}
node {
  name: "gradients/rnn/while/rnn/multi_rnn_cell/cell_0/cell_0/basic_rnn_cell/concat_grad/ShapeN/Enter_1"
  op: "Enter"
  input: "gradients/rnn/while/rnn/multi_rnn_cell/cell_0/cell_0/basic_rnn_cell/concat_grad/ShapeN/f_acc_1"
  attr {
    key: "T"
    value {
      type: DT_RESOURCE
    }
  }
  attr {
    key: "frame_name"
    value {
      s: "rnn/while/while_context"
    }
  }
  attr {
    key: "is_constant"
    value {
      b: true
    }
  }
  attr {
    key: "parallel_iterations"
    value {
      i: 32
    }
  }
}
node {
  name: "gradients/rnn/while/rnn/multi_rnn_cell/cell_0/cell_0/basic_rnn_cell/concat_grad/ShapeN/StackPushV2_1"
  op: "StackPushV2"
  input: "gradients/rnn/while/rnn/multi_rnn_cell/cell_0/cell_0/basic_rnn_cell/concat_grad/ShapeN/Enter_1"
  input: "rnn/while/Identity_2"
  input: "^gradients/Add"
  attr {
    key: "T"
    value {
      type: DT_FLOAT
    }
  }
  attr {
    key: "swap_memory"
    value {
      b: false
    }
  }
}
node {
  name: "gradients/rnn/while/rnn/multi_rnn_cell/cell_0/cell_0/basic_rnn_cell/concat_grad/ShapeN/StackPopV2_1/Enter"
  op: "Enter"
  input: "gradients/rnn/while/rnn/multi_rnn_cell/cell_0/cell_0/basic_rnn_cell/concat_grad/ShapeN/f_acc_1"
  attr {
    key: "T"
    value {
      type: DT_RESOURCE
    }
  }
  attr {
    key: "frame_name"
    value {
      s: "gradients/rnn/while/while_context"
    }
  }
  attr {
    key: "is_constant"
    value {
      b: true
    }
  }
  attr {
    key: "parallel_iterations"
    value {
      i: 32
    }
  }
}
node {
  name: "gradients/rnn/while/rnn/multi_rnn_cell/cell_0/cell_0/basic_rnn_cell/concat_grad/ShapeN/StackPopV2_1"
  op: "StackPopV2"
  input: "gradients/rnn/while/rnn/multi_rnn_cell/cell_0/cell_0/basic_rnn_cell/concat_grad/ShapeN/StackPopV2_1/Enter"
  input: "^gradients/Sub"
  attr {
    key: "elem_type"
    value {
      type: DT_FLOAT
    }
  }
}
node {
  name: "gradients/rnn/while/rnn/multi_rnn_cell/cell_0/cell_0/basic_rnn_cell/concat_grad/ShapeN"
  op: "ShapeN"
  input: "gradients/rnn/while/rnn/multi_rnn_cell/cell_0/cell_0/basic_rnn_cell/concat_grad/ShapeN/StackPopV2"
  input: "gradients/rnn/while/rnn/multi_rnn_cell/cell_0/cell_0/basic_rnn_cell/concat_grad/ShapeN/StackPopV2_1"
  attr {
    key: "N"
    value {
      i: 2
    }
  }
  attr {
    key: "T"
    value {
      type: DT_FLOAT
    }
  }
  attr {
    key: "out_type"
    value {
      type: DT_INT32
    }
  }
}
node {
  name: "gradients/rnn/while/rnn/multi_rnn_cell/cell_0/cell_0/basic_rnn_cell/concat_grad/ConcatOffset"
  op: "ConcatOffset"
  input: "gradients/rnn/while/rnn/multi_rnn_cell/cell_0/cell_0/basic_rnn_cell/concat_grad/mod"
  input: "gradients/rnn/while/rnn/multi_rnn_cell/cell_0/cell_0/basic_rnn_cell/concat_grad/ShapeN"
…
  input: "^Adam/update_rnn/multi_rnn_cell/cell_1/basic_rnn_cell/bias/ApplyAdam"
  input: "^Adam/Assign"
  input: "^Adam/Assign_1"
}
node {
  name: "save/Const"
  op: "Const"
  attr {
    key: "dtype"
    value {
      type: DT_STRING
    }
  }
  attr {
    key: "value"
    value {
      tensor {
        dtype: DT_STRING
        tensor_shape {
        }
        string_val: "model"
      }
    }
  }
}
node {
  name: "save/SaveV2/tensor_names"
  op: "Const"
  attr {
    key: "dtype"
    value {
      type: DT_STRING
    }
  }
  attr {
    key: "value"
    value {
      tensor {
        dtype: DT_STRING
        tensor_shape {
          dim {
            size: 14
          }
        }
        string_val: "beta1_power"
        string_val: "beta2_power"
        string_val: "rnn/multi_rnn_cell/cell_0/basic_rnn_cell/bias"
        string_val: "rnn/multi_rnn_cell/cell_0/basic_rnn_cell/bias/Adam"
        string_val: "rnn/multi_rnn_cell/cell_0/basic_rnn_cell/bias/Adam_1"
        string_val: "rnn/multi_rnn_cell/cell_0/basic_rnn_cell/kernel"
        string_val: "rnn/multi_rnn_cell/cell_0/basic_rnn_cell/kernel/Adam"
        string_val: "rnn/multi_rnn_cell/cell_0/basic_rnn_cell/kernel/Adam_1"
        string_val: "rnn/multi_rnn_cell/cell_1/basic_rnn_cell/bias"
        string_val: "rnn/multi_rnn_cell/cell_1/basic_rnn_cell/bias/Adam"
        string_val: "rnn/multi_rnn_cell/cell_1/basic_rnn_cell/bias/Adam_1"
        string_val: "rnn/multi_rnn_cell/cell_1/basic_rnn_cell/kernel"
        string_val: "rnn/multi_rnn_cell/cell_1/basic_rnn_cell/kernel/Adam"
        string_val: "rnn/multi_rnn_cell/cell_1/basic_rnn_cell/kernel/Adam_1"
      }
    }
  }
}
node {
  name: "save/SaveV2/shape_and_slices"
  op: "Const"
  attr {
    key: "dtype"
    value {
      type: DT_STRING
    }
  }
  attr {
    key: "value"
    value {
      tensor {
        dtype: DT_STRING
        tensor_shape {
          dim {
            size: 14
          }
        }
        string_val: ""
        string_val: ""
        string_val: ""
        string_val: ""
        string_val: ""
        string_val: ""
        string_val: ""
        string_val: ""
        string_val: ""
        string_val: ""
        string_val: ""
        string_val: ""
        string_val: ""
        string_val: ""
      }
    }
  }
}
node {
  name: "save/SaveV2"
  op: "SaveV2"
  input: "save/Const"
  input: "save/SaveV2/tensor_names"
  input: "save/SaveV2/shape_and_slices"
  input: "beta1_power"
  input: "beta2_power"
  input: "rnn/multi_rnn_cell/cell_0/basic_rnn_cell/bias"
  input: "rnn/multi_rnn_cell/cell_0/basic_rnn_cell/bias/Adam"
  input: "rnn/multi_rnn_cell/cell_0/basic_rnn_cell/bias/Adam_1"
  input: "rnn/multi_rnn_cell/cell_0/basic_rnn_cell/kernel"
  input: "rnn/multi_rnn_cell/cell_0/basic_rnn_cell/kernel/Adam"
  input: "rnn/multi_rnn_cell/cell_0/basic_rnn_cell/kernel/Adam_1"
  input: "rnn/multi_rnn_cell/cell_1/basic_rnn_cell/bias"
  input: "rnn/multi_rnn_cell/cell_1/basic_rnn_cell/bias/Adam"
  input: "rnn/multi_rnn_cell/cell_1/basic_rnn_cell/bias/Adam_1"
  input: "rnn/multi_rnn_cell/cell_1/basic_rnn_cell/kernel"
  input: "rnn/multi_rnn_cell/cell_1/basic_rnn_cell/kernel/Adam"
  input: "rnn/multi_rnn_cell/cell_1/basic_rnn_cell/kernel/Adam_1"
  attr {
    key: "dtypes"
    value {
      list {
        type: DT_FLOAT
        type: DT_FLOAT
        type: DT_FLOAT
        type: DT_FLOAT
        type: DT_FLOAT
        type: DT_FLOAT
        type: DT_FLOAT
        type: DT_FLOAT
        type: DT_FLOAT
        type: DT_FLOAT
        type: DT_FLOAT
        type: DT_FLOAT
        type: DT_FLOAT
        type: DT_FLOAT
      }
    }
  }
}
node {
  name: "save/control_dependency"
  op: "Identity"
  input: "save/Const"
  input: "^save/SaveV2"
  attr {
    key: "T"
    value {
      type: DT_STRING
    }
  }
  attr {
    key: "_class"
    value {
      list {
        s: "loc:@save/Const"
      }
    }
  }
}
node {
  name: "save/RestoreV2/tensor_names"
  op: "Const"
  attr {
    key: "dtype"
    value {
      type: DT_STRING
    }
  }
  attr {
    key: "value"
    value {
      tensor {
        dtype: DT_STRING
        tensor_shape {
          dim {
            size: 1
          }
        }
        string_val: "beta1_power"
      }
    }
  }
}
node {
  name: "save/RestoreV2/shape_and_slices"
  op: "Const"
  attr {
    key: "dtype"
    value {
      type: DT_STRING
    }
  }
  attr {
    key: "value"
    value {
      tensor {
        dtype: DT_STRING
        tensor_shape {
          dim {
            size: 1
          }
        }
        string_val: ""
      }
    }
  }
}
node {
  name: "save/RestoreV2"
  op: "RestoreV2"
  input: "save/Const"
  input: "save/RestoreV2/tensor_names"
  input: "save/RestoreV2/shape_and_slices"
  attr {
    key: "dtypes"
    value {
      list {
        type: DT_FLOAT
      }
    }
  }
}
node {
  name: "save/Assign"
  op: "Assign"
  input: "beta1_power"
  input: "save/RestoreV2"
  attr {
    key: "T"
    value {
      type: DT_FLOAT
    }
  }
  attr {
    key: "_class"
    value {
      list {
        s: "loc:@rnn/multi_rnn_cell/cell_0/basic_rnn_cell/bias"
      }
    }
  }
  attr {
    key: "use_locking"
    value {
      b: true
    }
  }
  attr {
    key: "validate_shape"
    value {
      b: true
    }
  }
}
node {
  name: "save/RestoreV2_1/tensor_names"
  op: "Const"
  attr {
    key: "dtype"
    value {
      type: DT_STRING
    }
  }
  attr {
    key: "value"
    value {
      tensor {
        dtype: DT_STRING
        tensor_shape {
          dim {
            size: 1
          }
        }
        string_val: "beta2_power"
      }
    }
  }
}
node {
  name: "save/RestoreV2_1/shape_and_slices"
  op: "Const"
  attr {
    key: "dtype"
    value {
      type: DT_STRING
    }
  }
  attr {
    key: "value"
    value {
      tensor {
        dtype: DT_STRING
        tensor_shape {
          dim {
            size: 1
          }
        }
        string_val: ""
      }
    }
  }
}
node {
  name: "save/RestoreV2_1"
  op: "RestoreV2"
  input: "save/Const"
  input: "save/RestoreV2_1/tensor_names"
  input: "save/RestoreV2_1/shape_and_slices"
  attr {
    key: "dtypes"
    value {
      list {
        type: DT_FLOAT
      }
    }
  }
}
node {
  name: "save/Assign_1"
  op: "Assign"
  input: "beta2_power"
  input: "save/RestoreV2_1"
  attr {
    key: "T"
    value {
      type: DT_FLOAT
    }
  }
  attr {
    key: "_class"
    value {
      list {
        s: "loc:@rnn/multi_rnn_cell/cell_0/basic_rnn_cell/bias"
      }
    }
  }
  attr {
    key: "use_locking"
    value {
      b: true
    }
  }
  attr {
    key: "validate_shape"
    value {
      b: true
    }
  }
}
node {
  name: "save/RestoreV2_2/tensor_names"
  op: "Const"
  attr {
    key: "dtype"
    value {
      type: DT_STRING
    }
  }
  attr {
    key: "value"
    value {
      tensor {
        dtype: DT_STRING
        tensor_shape {
          dim {
            size: 1
          }
        }
        string_val: "rnn/multi_rnn_cell/cell_0/basic_rnn_cell/bias"
      }
    }
  }
}
node {
  name: "save/RestoreV2_2/shape_and_slices"
  op: "Const"
  attr {
    key: "dtype"
    value {
      type: DT_STRING
    }
  }
  attr {
    key: "value"
    value {
      tensor {
        dtype: DT_STRING
        tensor_shape {
          dim {
            size: 1
          }
        }
        string_val: ""
      }
    }
  }
}
node {
  name: "save/RestoreV2_2"
  op: "RestoreV2"
  input: "save/Const"
  input: "save/RestoreV2_2/tensor_names"
  input: "save/RestoreV2_2/shape_and_slices"
  attr {
    key: "dtypes"
    value {
      list {
        type: DT_FLOAT
      }
    }
  }
}
node {
  name: "save/Assign_2"
  op: "Assign"
  input: "rnn/multi_rnn_cell/cell_0/basic_rnn_cell/bias"
  input: "save/RestoreV2_2"
  attr {
    key: "T"
    value {
      type: DT_FLOAT
    }
  }
  attr {
    key: "_class"
    value {
      list {
        s: "loc:@rnn/multi_rnn_cell/cell_0/basic_rnn_cell/bias"
      }
    }
  }
  attr {
    key: "use_locking"
    value {
      b: true
    }
  }
  attr {
    key: "validate_shape"
    value {
      b: true
    }
  }
}
node {
  name: "save/RestoreV2_3/tensor_names"
  op: "Const"
  attr {
    key: "dtype"
    value {
      type: DT_STRING
    }
  }
  attr {
    key: "value"
    value {
      tensor {
        dtype: DT_STRING
        tensor_shape {
          dim {
            size: 1
          }
        }
        string_val: "rnn/multi_rnn_cell/cell_0/basic_rnn_cell/bias/Adam"
      }
    }
  }
}
node {
  name: "save/RestoreV2_3/shape_and_slices"
  op: "Const"
  attr {
    key: "dtype"
    value {
      type: DT_STRING
    }
  }
  attr {
    key: "value"
    value {
      tensor {
        dtype: DT_STRING
        tensor_shape {
          dim {
            size: 1
          }
        }
        string_val: ""
      }
    }
  }
}
node {
  name: "save/RestoreV2_3"
  op: "RestoreV2"
  input: "save/Const"
  input: "save/RestoreV2_3/tensor_names"
  input: "save/RestoreV2_3/shape_and_slices"
  attr {
    key: "dtypes"
    value {
      list {
        type: DT_FLOAT
      }
    }
  }
}
node {
  name: "save/Assign_3"
  op: "Assign"
  input: "rnn/multi_rnn_cell/cell_0/basic_rnn_cell/bias/Adam"
  input: "save/RestoreV2_3"
  attr {
    key: "T"
    value {
      type: DT_FLOAT
    }
  }
  attr {
    key: "_class"
    value {
      list {
        s: "loc:@rnn/multi_rnn_cell/cell_0/basic_rnn_cell/bias"
      }
    }
  }
  attr {
    key: "use_locking"
    value {
      b: true
    }
  }
  attr {
    key: "validate_shape"
    value {
      b: true
    }
  }
}
node {
  name: "save/RestoreV2_4/tensor_names"
  op: "Const"
  attr {
    key: "dtype"
    value {
      type: DT_STRING
    }
  }
  attr {
    key: "value"
    value {
      tensor {
        dtype: DT_STRING
        tensor_shape {
          dim {
            size: 1
          }
        }
        string_val: "rnn/multi_rnn_cell/cell_0/basic_rnn_cell/bias/Adam_1"
      }
    }
  }
}
node {
  name: "save/RestoreV2_4/shape_and_slices"
  op: "Const"
  attr {
    key: "dtype"
    value {
      type: DT_STRING
    }
  }
  attr {
    key: "value"
    value {
      tensor {
        dtype: DT_STRING
        tensor_shape {
          dim {
            size: 1
          }
        }
        string_val: ""
      }
    }
  }
}
node {
  name: "save/RestoreV2_4"
  op: "RestoreV2"
  input: "save/Const"
  input: "save/RestoreV2_4/tensor_names"
  input: "save/RestoreV2_4/shape_and_slices"
  attr {
    key: "dtypes"
    value {
      list {
        type: DT_FLOAT
      }
    }
  }
}
node {
  name: "save/Assign_4"
  op: "Assign"
  input: "rnn/multi_rnn_cell/cell_0/basic_rnn_cell/bias/Adam_1"
  input: "save/RestoreV2_4"
  attr {
    key: "T"
    value {
      type: DT_FLOAT
    }
  }
  attr {
    key: "_class"
    value {
      list {
        s: "loc:@rnn/multi_rnn_cell/cell_0/basic_rnn_cell/bias"
      }
    }
  }
  attr {
    key: "use_locking"
    value {
      b: true
    }
  }
  attr {
    key: "validate_shape"
    value {
      b: true
    }
  }
}
node {
  name: "save/RestoreV2_5/tensor_names"
  op: "Const"
  attr {
    key: "dtype"
    value {
      type: DT_STRING
    }
  }
  attr {
    key: "value"
    value {
      tensor {
        dtype: DT_STRING
        tensor_shape {
          dim {
            size: 1
          }
        }
        string_val: "rnn/multi_rnn_cell/cell_0/basic_rnn_cell/kernel"
      }
    }
  }
}
node {
  name: "save/RestoreV2_5/shape_and_slices"
  op: "Const"
  attr {
    key: "dtype"
    value {
      type: DT_STRING
    }
  }
  attr {
    key: "value"
    value {
      tensor {
        dtype: DT_STRING
        tensor_shape {
          dim {
            size: 1
          }
        }
        string_val: ""
      }
    }
  }
}
node {
  name: "save/RestoreV2_5"
  op: "RestoreV2"
  input: "save/Const"
  input: "save/RestoreV2_5/tensor_names"
  input: "save/RestoreV2_5/shape_and_slices"
  attr {
    key: "dtypes"
    value {
      list {
        type: DT_FLOAT
      }
    }
  }
}
node {
  name: "save/Assign_5"
  op: "Assign"
  input: "rnn/multi_rnn_cell/cell_0/basic_rnn_cell/kernel"
  input: "save/RestoreV2_5"
  attr {
    key: "T"
    value {
      type: DT_FLOAT
    }
  }
  attr {
    key: "_class"
    value {
      list {
        s: "loc:@rnn/multi_rnn_cell/cell_0/basic_rnn_cell/kernel"
      }
    }
  }
  attr {
    key: "use_locking"
    value {
      b: true
    }
  }
  attr {
    key: "validate_shape"
    value {
      b: true
    }
  }
}
node {
  name: "save/RestoreV2_6/tensor_names"
  op: "Const"
  attr {
    key: "dtype"
    value {
      type: DT_STRING
    }
  }
  attr {
    key: "value"
    value {
      tensor {
        dtype: DT_STRING
        tensor_shape {
          dim {
            size: 1
          }
        }
        string_val: "rnn/multi_rnn_cell/cell_0/basic_rnn_cell/kernel/Adam"
      }
    }
  }
}
node {
  name: "save/RestoreV2_6/shape_and_slices"
  op: "Const"
  attr {
    key: "dtype"
    value {
      type: DT_STRING
    }
  }
  attr {
    key: "value"
    value {
      tensor {
        dtype: DT_STRING
        tensor_shape {
          dim {
            size: 1
          }
        }
        string_val: ""
      }
    }
  }
}
node {
  name: "save/RestoreV2_6"
  op: "RestoreV2"
  input: "save/Const"
  input: "save/RestoreV2_6/tensor_names"
  input: "save/RestoreV2_6/shape_and_slices"
  attr {
    key: "dtypes"
    value {
      list {
        type: DT_FLOAT
      }
    }
  }
}
node {
  name: "save/Assign_6"
  op: "Assign"
  input: "rnn/multi_rnn_cell/cell_0/basic_rnn_cell/kernel/Adam"
  input: "save/RestoreV2_6"
  attr {
    key: "T"
    value {
      type: DT_FLOAT
    }
  }
  attr {
    key: "_class"
    value {
      list {
        s: "loc:@rnn/multi_rnn_cell/cell_0/basic_rnn_cell/kernel"
      }
    }
  }
  attr {
    key: "use_locking"
    value {
      b: true
    }
  }
  attr {
    key: "validate_shape"
    value {
      b: true
    }
  }
}
node {
  name: "save/RestoreV2_7/tensor_names"
  op: "Const"
  attr {
    key: "dtype"
    value {
      type: DT_STRING
    }
  }
  attr {
    key: "value"
    value {
      tensor {
        dtype: DT_STRING
        tensor_shape {
          dim {
            size: 1
          }
        }
        string_val: "rnn/multi_rnn_cell/cell_0/basic_rnn_cell/kernel/Adam_1"
      }
    }
  }
}
node {
  name: "save/RestoreV2_7/shape_and_slices"
  op: "Const"
  attr {
    key: "dtype"
    value {
      type: DT_STRING
    }
  }
  attr {
    key: "value"
    value {
      tensor {
        dtype: DT_STRING
        tensor_shape {
          dim {
            size: 1
          }
        }
        string_val: ""
      }
    }
  }
}
node {
  name: "save/RestoreV2_7"
  op: "RestoreV2"
  input: "save/Const"
  input: "save/RestoreV2_7/tensor_names"
  input: "save/RestoreV2_7/shape_and_slices"
  attr {
    key: "dtypes"
    value {
      list {
        type: DT_FLOAT
      }
    }
  }
}
node {
  name: "save/Assign_7"
  op: "Assign"
  input: "rnn/multi_rnn_cell/cell_0/basic_rnn_cell/kernel/Adam_1"
  input: "save/RestoreV2_7"
  attr {
    key: "T"
    value {
      type: DT_FLOAT
    }
  }
  attr {
    key: "_class"
    value {
      list {
        s: "loc:@rnn/multi_rnn_cell/cell_0/basic_rnn_cell/kernel"
      }
    }
  }
  attr {
    key: "use_locking"
    value {
      b: true
    }
  }
  attr {
    key: "validate_shape"
    value {
      b: true
    }
  }
}
node {
  name: "save/RestoreV2_8/tensor_names"
  op: "Const"
  attr {
    key: "dtype"
    value {
      type: DT_STRING
    }
  }
  attr {
    key: "value"
    value {
      tensor {
        dtype: DT_STRING
        tensor_shape {
          dim {
            size: 1
          }
        }
        string_val: "rnn/multi_rnn_cell/cell_1/basic_rnn_cell/bias"
      }
    }
  }
}
node {
  name: "save/RestoreV2_8/shape_and_slices"
  op: "Const"
  attr {
    key: "dtype"
    value {
      type: DT_STRING
    }
  }
  attr {
    key: "value"
    value {
      tensor {
        dtype: DT_STRING
        tensor_shape {
          dim {
            size: 1
          }
        }
        string_val: ""
      }
    }
  }
}
node {
  name: "save/RestoreV2_8"
  op: "RestoreV2"
  input: "save/Const"
  input: "save/RestoreV2_8/tensor_names"
  input: "save/RestoreV2_8/shape_and_slices"
  attr {
    key: "dtypes"
    value {
      list {
        type: DT_FLOAT
      }
    }
  }
}
node {
  name: "save/Assign_8"
  op: "Assign"
  input: "rnn/multi_rnn_cell/cell_1/basic_rnn_cell/bias"
  input: "save/RestoreV2_8"
  attr {
    key: "T"
    value {
      type: DT_FLOAT
    }
  }
  attr {
    key: "_class"
    value {
      list {
        s: "loc:@rnn/multi_rnn_cell/cell_1/basic_rnn_cell/bias"
      }
    }
  }
  attr {
    key: "use_locking"
    value {
      b: true
    }
  }
  attr {
    key: "validate_shape"
    value {
      b: true
    }
  }
}
node {
  name: "save/RestoreV2_9/tensor_names"
  op: "Const"
  attr {
    key: "dtype"
    value {
      type: DT_STRING
    }
  }
  attr {
    key: "value"
    value {
      tensor {
        dtype: DT_STRING
        tensor_shape {
          dim {
            size: 1
          }
        }
        string_val: "rnn/multi_rnn_cell/cell_1/basic_rnn_cell/bias/Adam"
      }
    }
  }
}
node {
  name: "save/RestoreV2_9/shape_and_slices"
  op: "Const"
  attr {
    key: "dtype"
    value {
      type: DT_STRING
    }
  }
  attr {
    key: "value"
    value {
      tensor {
        dtype: DT_STRING
        tensor_shape {
          dim {
            size: 1
          }
        }
        string_val: ""
      }
    }
  }
}
node {
  name: "save/RestoreV2_9"
  op: "RestoreV2"
  input: "save/Const"
  input: "save/RestoreV2_9/tensor_names"
  input: "save/RestoreV2_9/shape_and_slices"
  attr {
    key: "dtypes"
    value {
      list {
        type: DT_FLOAT
      }
    }
  }
}
node {
  name: "save/Assign_9"
  op: "Assign"
  input: "rnn/multi_rnn_cell/cell_1/basic_rnn_cell/bias/Adam"
  input: "save/RestoreV2_9"
  attr {
    key: "T"
    value {
      type: DT_FLOAT
    }
  }
  attr {
    key: "_class"
    value {
      list {
        s: "loc:@rnn/multi_rnn_cell/cell_1/basic_rnn_cell/bias"
      }
    }
  }
  attr {
    key: "use_locking"
    value {
      b: true
    }
  }
  attr {
    key: "validate_shape"
    value {
      b: true
    }
  }
}
node {
  name: "save/RestoreV2_10/tensor_names"
  op: "Const"
  attr {
    key: "dtype"
    value {
      type: DT_STRING
    }
  }
  attr {
    key: "value"
    value {
      tensor {
        dtype: DT_STRING
        tensor_shape {
          dim {
            size: 1
          }
        }
        string_val: "rnn/multi_rnn_cell/cell_1/basic_rnn_cell/bias/Adam_1"
      }
    }
  }
}
node {
  name: "save/RestoreV2_10/shape_and_slices"
  op: "Const"
  attr {
    key: "dtype"
    value {
      type: DT_STRING
    }
  }
  attr {
    key: "value"
    value {
      tensor {
        dtype: DT_STRING
        tensor_shape {
          dim {
            size: 1
          }
        }
        string_val: ""
      }
    }
  }
}
node {
  name: "save/RestoreV2_10"
  op: "RestoreV2"
  input: "save/Const"
  input: "save/RestoreV2_10/tensor_names"
  input: "save/RestoreV2_10/shape_and_slices"
  attr {
    key: "dtypes"
    value {
      list {
        type: DT_FLOAT
      }
    }
  }
}
node {
  name: "save/Assign_10"
  op: "Assign"
  input: "rnn/multi_rnn_cell/cell_1/basic_rnn_cell/bias/Adam_1"
  input: "save/RestoreV2_10"
  attr {
    key: "T"
    value {
      type: DT_FLOAT
    }
  }
  attr {
    key: "_class"
    value {
      list {
        s: "loc:@rnn/multi_rnn_cell/cell_1/basic_rnn_cell/bias"
      }
    }
  }
  attr {
    key: "use_locking"
    value {
      b: true
    }
  }
  attr {
    key: "validate_shape"
    value {
      b: true
    }
  }
}
node {
  name: "save/RestoreV2_11/tensor_names"
  op: "Const"
  attr {
    key: "dtype"
    value {
      type: DT_STRING
    }
  }
  attr {
    key: "value"
    value {
      tensor {
        dtype: DT_STRING
        tensor_shape {
          dim {
            size: 1
          }
        }
        string_val: "rnn/multi_rnn_cell/cell_1/basic_rnn_cell/kernel"
      }
    }
  }
}
node {
  name: "save/RestoreV2_11/shape_and_slices"
  op: "Const"
  attr {
    key: "dtype"
    value {
      type: DT_STRING
    }
  }
  attr {
    key: "value"
    value {
      tensor {
        dtype: DT_STRING
        tensor_shape {
          dim {
            size: 1
          }
        }
        string_val: ""
      }
    }
  }
}
node {
  name: "save/RestoreV2_11"
  op: "RestoreV2"
  input: "save/Const"
  input: "save/RestoreV2_11/tensor_names"
  input: "save/RestoreV2_11/shape_and_slices"
  attr {
    key: "dtypes"
    value {
      list {
        type: DT_FLOAT
      }
    }
  }
}
node {
  name: "save/Assign_11"
  op: "Assign"
  input: "rnn/multi_rnn_cell/cell_1/basic_rnn_cell/kernel"
  input: "save/RestoreV2_11"
  attr {
    key: "T"
    value {
      type: DT_FLOAT
    }
  }
  attr {
    key: "_class"
    value {
      list {
        s: "loc:@rnn/multi_rnn_cell/cell_1/basic_rnn_cell/kernel"
      }
    }
  }
  attr {
    key: "use_locking"
    value {
      b: true
    }
  }
  attr {
    key: "validate_shape"
    value {
      b: true
    }
  }
}
node {
  name: "save/RestoreV2_12/tensor_names"
  op: "Const"
  attr {
    key: "dtype"
    value {
      type: DT_STRING
    }
  }
  attr {
    key: "value"
    value {
      tensor {
        dtype: DT_STRING
        tensor_shape {
          dim {
            size: 1
          }
        }
        string_val: "rnn/multi_rnn_cell/cell_1/basic_rnn_cell/kernel/Adam"
      }
    }
  }
}
node {
  name: "save/RestoreV2_12/shape_and_slices"
  op: "Const"
  attr {
    key: "dtype"
    value {
      type: DT_STRING
    }
  }
  attr {
    key: "value"
    value {
      tensor {
        dtype: DT_STRING
        tensor_shape {
          dim {
            size: 1
          }
        }
        string_val: ""
      }
    }
  }
}
node {
  name: "save/RestoreV2_12"
  op: "RestoreV2"
  input: "save/Const"
  input: "save/RestoreV2_12/tensor_names"
  input: "save/RestoreV2_12/shape_and_slices"
  attr {
    key: "dtypes"
    value {
      list {
        type: DT_FLOAT
      }
    }
  }
}
node {
  name: "save/Assign_12"
  op: "Assign"
  input: "rnn/multi_rnn_cell/cell_1/basic_rnn_cell/kernel/Adam"
  input: "save/RestoreV2_12"
  attr {
    key: "T"
    value {
      type: DT_FLOAT
    }
  }
  attr {
    key: "_class"
    value {
      list {
        s: "loc:@rnn/multi_rnn_cell/cell_1/basic_rnn_cell/kernel"
      }
    }
  }
  attr {
    key: "use_locking"
    value {
      b: true
    }
  }
  attr {
    key: "validate_shape"
    value {
      b: true
    }
  }
}
node {
  name: "save/RestoreV2_13/tensor_names"
  op: "Const"
  attr {
    key: "dtype"
    value {
      type: DT_STRING
    }
  }
  attr {
    key: "value"
    value {
      tensor {
        dtype: DT_STRING
        tensor_shape {
          dim {
            size: 1
          }
        }
        string_val: "rnn/multi_rnn_cell/cell_1/basic_rnn_cell/kernel/Adam_1"
      }
    }
  }
}
node {
  name: "save/RestoreV2_13/shape_and_slices"
  op: "Const"
  attr {
    key: "dtype"
    value {
      type: DT_STRING
    }
  }
  attr {
    key: "value"
    value {
      tensor {
        dtype: DT_STRING
        tensor_shape {
          dim {
            size: 1
          }
        }
        string_val: ""
      }
    }
  }
}
node {
  name: "save/RestoreV2_13"
  op: "RestoreV2"
  input: "save/Const"
  input: "save/RestoreV2_13/tensor_names"
  input: "save/RestoreV2_13/shape_and_slices"
  attr {
    key: "dtypes"
    value {
      list {
        type: DT_FLOAT
      }
    }
  }
}
node {
  name: "save/Assign_13"
  op: "Assign"
  input: "rnn/multi_rnn_cell/cell_1/basic_rnn_cell/kernel/Adam_1"
  input: "save/RestoreV2_13"
  attr {
    key: "T"
    value {
      type: DT_FLOAT
    }
  }
  attr {
    key: "_class"
    value {
      list {
        s: "loc:@rnn/multi_rnn_cell/cell_1/basic_rnn_cell/kernel"
      }
    }
  }
  attr {
    key: "use_locking"
    value {
      b: true
    }
  }
  attr {
    key: "validate_shape"
    value {
      b: true
    }
  }
}
node {
  name: "save/restore_all"
  op: "NoOp"
  input: "^save/Assign"
  input: "^save/Assign_1"
  input: "^save/Assign_2"
  input: "^save/Assign_3"
  input: "^save/Assign_4"
  input: "^save/Assign_5"
  input: "^save/Assign_6"
  input: "^save/Assign_7"
  input: "^save/Assign_8"
  input: "^save/Assign_9"
  input: "^save/Assign_10"
  input: "^save/Assign_11"
  input: "^save/Assign_12"
  input: "^save/Assign_13"
}
node {
  name: "init"
  op: "NoOp"
  input: "^rnn/multi_rnn_cell/cell_0/basic_rnn_cell/kernel/Assign"
  input: "^rnn/multi_rnn_cell/cell_0/basic_rnn_cell/bias/Assign"
  input: "^rnn/multi_rnn_cell/cell_1/basic_rnn_cell/kernel/Assign"
  input: "^rnn/multi_rnn_cell/cell_1/basic_rnn_cell/bias/Assign"
  input: "^beta1_power/Assign"
  input: "^beta2_power/Assign"
  input: "^rnn/multi_rnn_cell/cell_0/basic_rnn_cell/kernel/Adam/Assign"
  input: "^rnn/multi_rnn_cell/cell_0/basic_rnn_cell/kernel/Adam_1/Assign"
  input: "^rnn/multi_rnn_cell/cell_0/basic_rnn_cell/bias/Adam/Assign"
  input: "^rnn/multi_rnn_cell/cell_0/basic_rnn_cell/bias/Adam_1/Assign"
  input: "^rnn/multi_rnn_cell/cell_1/basic_rnn_cell/kernel/Adam/Assign"
  input: "^rnn/multi_rnn_cell/cell_1/basic_rnn_cell/kernel/Adam_1/Assign"
  input: "^rnn/multi_rnn_cell/cell_1/basic_rnn_cell/bias/Adam/Assign"
  input: "^rnn/multi_rnn_cell/cell_1/basic_rnn_cell/bias/Adam_1/Assign"
}
node {
  name: "save_1/Const"
  op: "Const"
  attr {
    key: "dtype"
    value {
      type: DT_STRING
    }
  }
  attr {
    key: "value"
    value {
      tensor {
        dtype: DT_STRING
        tensor_shape {
        }
        string_val: "model"
      }
    }
  }
}
node {
  name: "save_1/SaveV2/tensor_names"
  op: "Const"
  attr {
    key: "dtype"
    value {
      type: DT_STRING
    }
  }
  attr {
    key: "value"
    value {
      tensor {
        dtype: DT_STRING
        tensor_shape {
          dim {
            size: 14
          }
        }
        string_val: "beta1_power"
        string_val: "beta2_power"
        string_val: "rnn/multi_rnn_cell/cell_0/basic_rnn_cell/bias"
        string_val: "rnn/multi_rnn_cell/cell_0/basic_rnn_cell/bias/Adam"
        string_val: "rnn/multi_rnn_cell/cell_0/basic_rnn_cell/bias/Adam_1"
        string_val: "rnn/multi_rnn_cell/cell_0/basic_rnn_cell/kernel"
        string_val: "rnn/multi_rnn_cell/cell_0/basic_rnn_cell/kernel/Adam"
        string_val: "rnn/multi_rnn_cell/cell_0/basic_rnn_cell/kernel/Adam_1"
        string_val: "rnn/multi_rnn_cell/cell_1/basic_rnn_cell/bias"
        string_val: "rnn/multi_rnn_cell/cell_1/basic_rnn_cell/bias/Adam"
        string_val: "rnn/multi_rnn_cell/cell_1/basic_rnn_cell/bias/Adam_1"
        string_val: "rnn/multi_rnn_cell/cell_1/basic_rnn_cell/kernel"
        string_val: "rnn/multi_rnn_cell/cell_1/basic_rnn_cell/kernel/Adam"
        string_val: "rnn/multi_rnn_cell/cell_1/basic_rnn_cell/kernel/Adam_1"
      }
    }
  }
}
node {
  name: "save_1/SaveV2/shape_and_slices"
  op: "Const"
  attr {
    key: "dtype"
    value {
      type: DT_STRING
    }
  }
  attr {
    key: "value"
    value {
      tensor {
        dtype: DT_STRING
        tensor_shape {
          dim {
            size: 14
          }
        }
        string_val: ""
        string_val: ""
        string_val: ""
        string_val: ""
        string_val: ""
        string_val: ""
        string_val: ""
        string_val: ""
        string_val: ""
        string_val: ""
        string_val: ""
        string_val: ""
        string_val: ""
        string_val: ""
      }
    }
  }
}
node {
  name: "save_1/SaveV2"
  op: "SaveV2"
  input: "save_1/Const"
  input: "save_1/SaveV2/tensor_names"
  input: "save_1/SaveV2/shape_and_slices"
  input: "beta1_power"
  input: "beta2_power"
  input: "rnn/multi_rnn_cell/cell_0/basic_rnn_cell/bias"
  input: "rnn/multi_rnn_cell/cell_0/basic_rnn_cell/bias/Adam"
  input: "rnn/multi_rnn_cell/cell_0/basic_rnn_cell/bias/Adam_1"
  input: "rnn/multi_rnn_cell/cell_0/basic_rnn_cell/kernel"
  input: "rnn/multi_rnn_cell/cell_0/basic_rnn_cell/kernel/Adam"
  input: "rnn/multi_rnn_cell/cell_0/basic_rnn_cell/kernel/Adam_1"
  input: "rnn/multi_rnn_cell/cell_1/basic_rnn_cell/bias"
  input: "rnn/multi_rnn_cell/cell_1/basic_rnn_cell/bias/Adam"
  input: "rnn/multi_rnn_cell/cell_1/basic_rnn_cell/bias/Adam_1"
  input: "rnn/multi_rnn_cell/cell_1/basic_rnn_cell/kernel"
  input: "rnn/multi_rnn_cell/cell_1/basic_rnn_cell/kernel/Adam"
  input: "rnn/multi_rnn_cell/cell_1/basic_rnn_cell/kernel/Adam_1"
  attr {
    key: "dtypes"
    value {
      list {
        type: DT_FLOAT
        type: DT_FLOAT
        type: DT_FLOAT
        type: DT_FLOAT
        type: DT_FLOAT
        type: DT_FLOAT
        type: DT_FLOAT
        type: DT_FLOAT
        type: DT_FLOAT
        type: DT_FLOAT
        type: DT_FLOAT
        type: DT_FLOAT
        type: DT_FLOAT
        type: DT_FLOAT
      }
    }
  }
}
node {
  name: "save_1/control_dependency"
  op: "Identity"
  input: "save_1/Const"
  input: "^save_1/SaveV2"
  attr {
    key: "T"
    value {
      type: DT_STRING
    }
  }
  attr {
    key: "_class"
    value {
      list {
        s: "loc:@save_1/Const"
      }
    }
  }
}
node {
  name: "save_1/RestoreV2/tensor_names"
  op: "Const"
  attr {
    key: "dtype"
    value {
      type: DT_STRING
    }
  }
  attr {
    key: "value"
    value {
      tensor {
        dtype: DT_STRING
        tensor_shape {
          dim {
            size: 1
          }
        }
        string_val: "beta1_power"
      }
    }
  }
}
node {
  name: "save_1/RestoreV2/shape_and_slices"
  op: "Const"
  attr {
    key: "dtype"
    value {
      type: DT_STRING
    }
  }
  attr {
    key: "value"
    value {
      tensor {
        dtype: DT_STRING
        tensor_shape {
          dim {
            size: 1
          }
        }
        string_val: ""
      }
    }
  }
}
node {
  name: "save_1/RestoreV2"
  op: "RestoreV2"
  input: "save_1/Const"
  input: "save_1/RestoreV2/tensor_names"
  input: "save_1/RestoreV2/shape_and_slices"
  attr {
    key: "dtypes"
    value {
      list {
        type: DT_FLOAT
      }
    }
  }
}
node {
  name: "save_1/Assign"
  op: "Assign"
  input: "beta1_power"
  input: "save_1/RestoreV2"
  attr {
    key: "T"
    value {
      type: DT_FLOAT
    }
  }
  attr {
    key: "_class"
    value {
      list {
        s: "loc:@rnn/multi_rnn_cell/cell_0/basic_rnn_cell/bias"
      }
    }
  }
  attr {
    key: "use_locking"
    value {
      b: true
    }
  }
  attr {
    key: "validate_shape"
    value {
      b: true
    }
  }
}
node {
  name: "save_1/RestoreV2_1/tensor_names"
  op: "Const"
  attr {
    key: "dtype"
    value {
      type: DT_STRING
    }
  }
  attr {
    key: "value"
    value {
      tensor {
        dtype: DT_STRING
        tensor_shape {
          dim {
            size: 1
          }
        }
        string_val: "beta2_power"
      }
    }
  }
}
node {
  name: "save_1/RestoreV2_1/shape_and_slices"
  op: "Const"
  attr {
    key: "dtype"
    value {
      type: DT_STRING
    }
  }
  attr {
    key: "value"
    value {
      tensor {
        dtype: DT_STRING
        tensor_shape {
          dim {
            size: 1
          }
        }
        string_val: ""
      }
    }
  }
}
node {
  name: "save_1/RestoreV2_1"
  op: "RestoreV2"
  input: "save_1/Const"
  input: "save_1/RestoreV2_1/tensor_names"
  input: "save_1/RestoreV2_1/shape_and_slices"
  attr {
    key: "dtypes"
    value {
      list {
        type: DT_FLOAT
      }
    }
  }
}
node {
  name: "save_1/Assign_1"
  op: "Assign"
  input: "beta2_power"
  input: "save_1/RestoreV2_1"
  attr {
    key: "T"
    value {
      type: DT_FLOAT
    }
  }
  attr {
    key: "_class"
    value {
      list {
        s: "loc:@rnn/multi_rnn_cell/cell_0/basic_rnn_cell/bias"
      }
    }
  }
  attr {
    key: "use_locking"
    value {
      b: true
    }
  }
  attr {
    key: "validate_shape"
    value {
      b: true
    }
  }
}
node {
  name: "save_1/RestoreV2_2/tensor_names"
  op: "Const"
  attr {
    key: "dtype"
    value {
      type: DT_STRING
    }
  }
  attr {
    key: "value"
    value {
      tensor {
        dtype: DT_STRING
        tensor_shape {
          dim {
            size: 1
          }
        }
        string_val: "rnn/multi_rnn_cell/cell_0/basic_rnn_cell/bias"
      }
    }
  }
}
node {
  name: "save_1/RestoreV2_2/shape_and_slices"
  op: "Const"
  attr {
    key: "dtype"
    value {
      type: DT_STRING
    }
  }
  attr {
    key: "value"
    value {
      tensor {
        dtype: DT_STRING
        tensor_shape {
          dim {
            size: 1
          }
        }
        string_val: ""
      }
    }
  }
}
node {
  name: "save_1/RestoreV2_2"
  op: "RestoreV2"
  input: "save_1/Const"
  input: "save_1/RestoreV2_2/tensor_names"
  input: "save_1/RestoreV2_2/shape_and_slices"
  attr {
    key: "dtypes"
    value {
      list {
        type: DT_FLOAT
      }
    }
  }
}
node {
  name: "save_1/Assign_2"
  op: "Assign"
  input: "rnn/multi_rnn_cell/cell_0/basic_rnn_cell/bias"
  input: "save_1/RestoreV2_2"
  attr {
    key: "T"
    value {
      type: DT_FLOAT
    }
  }
  attr {
    key: "_class"
    value {
      list {
        s: "loc:@rnn/multi_rnn_cell/cell_0/basic_rnn_cell/bias"
      }
    }
  }
  attr {
    key: "use_locking"
    value {
      b: true
    }
  }
  attr {
    key: "validate_shape"
    value {
      b: true
    }
  }
}
node {
  name: "save_1/RestoreV2_3/tensor_names"
  op: "Const"
  attr {
    key: "dtype"
    value {
      type: DT_STRING
    }
  }
  attr {
    key: "value"
    value {
      tensor {
        dtype: DT_STRING
        tensor_shape {
          dim {
            size: 1
          }
        }
        string_val: "rnn/multi_rnn_cell/cell_0/basic_rnn_cell/bias/Adam"
      }
    }
  }
}
node {
  name: "save_1/RestoreV2_3/shape_and_slices"
  op: "Const"
  attr {
    key: "dtype"
    value {
      type: DT_STRING
    }
  }
  attr {
    key: "value"
    value {
      tensor {
        dtype: DT_STRING
        tensor_shape {
          dim {
            size: 1
          }
        }
        string_val: ""
      }
    }
  }
}
node {
  name: "save_1/RestoreV2_3"
  op: "RestoreV2"
  input: "save_1/Const"
  input: "save_1/RestoreV2_3/tensor_names"
  input: "save_1/RestoreV2_3/shape_and_slices"
  attr {
    key: "dtypes"
    value {
      list {
        type: DT_FLOAT
      }
    }
  }
}
node {
  name: "save_1/Assign_3"
  op: "Assign"
  input: "rnn/multi_rnn_cell/cell_0/basic_rnn_cell/bias/Adam"
  input: "save_1/RestoreV2_3"
  attr {
    key: "T"
    value {
      type: DT_FLOAT
    }
  }
  attr {
    key: "_class"
    value {
      list {
        s: "loc:@rnn/multi_rnn_cell/cell_0/basic_rnn_cell/bias"
      }
    }
  }
  attr {
    key: "use_locking"
    value {
      b: true
    }
  }
  attr {
    key: "validate_shape"
    value {
      b: true
    }
  }
}
node {
  name: "save_1/RestoreV2_4/tensor_names"
  op: "Const"
  attr {
    key: "dtype"
    value {
      type: DT_STRING
    }
  }
  attr {
    key: "value"
    value {
      tensor {
        dtype: DT_STRING
        tensor_shape {
          dim {
            size: 1
          }
        }
        string_val: "rnn/multi_rnn_cell/cell_0/basic_rnn_cell/bias/Adam_1"
      }
    }
  }
}
node {
  name: "save_1/RestoreV2_4/shape_and_slices"
  op: "Const"
  attr {
    key: "dtype"
    value {
      type: DT_STRING
    }
  }
  attr {
    key: "value"
    value {
      tensor {
        dtype: DT_STRING
        tensor_shape {
          dim {
            size: 1
          }
        }
        string_val: ""
      }
    }
  }
}
node {
  name: "save_1/RestoreV2_4"
  op: "RestoreV2"
  input: "save_1/Const"
  input: "save_1/RestoreV2_4/tensor_names"
  input: "save_1/RestoreV2_4/shape_and_slices"
  attr {
    key: "dtypes"
    value {
      list {
        type: DT_FLOAT
      }
    }
  }
}
node {
  name: "save_1/Assign_4"
  op: "Assign"
  input: "rnn/multi_rnn_cell/cell_0/basic_rnn_cell/bias/Adam_1"
  input: "save_1/RestoreV2_4"
  attr {
    key: "T"
    value {
      type: DT_FLOAT
    }
  }
  attr {
    key: "_class"
    value {
      list {
        s: "loc:@rnn/multi_rnn_cell/cell_0/basic_rnn_cell/bias"
      }
    }
  }
  attr {
    key: "use_locking"
    value {
      b: true
    }
  }
  attr {
    key: "validate_shape"
    value {
      b: true
    }
  }
}
node {
  name: "save_1/RestoreV2_5/tensor_names"
  op: "Const"
  attr {
    key: "dtype"
    value {
      type: DT_STRING
    }
  }
  attr {
    key: "value"
    value {
      tensor {
        dtype: DT_STRING
        tensor_shape {
          dim {
            size: 1
          }
        }
        string_val: "rnn/multi_rnn_cell/cell_0/basic_rnn_cell/kernel"
      }
    }
  }
}
node {
  name: "save_1/RestoreV2_5/shape_and_slices"
  op: "Const"
  attr {
    key: "dtype"
    value {
      type: DT_STRING
    }
  }
  attr {
    key: "value"
    value {
      tensor {
        dtype: DT_STRING
        tensor_shape {
          dim {
            size: 1
          }
        }
        string_val: ""
      }
    }
  }
}
node {
  name: "save_1/RestoreV2_5"
  op: "RestoreV2"
  input: "save_1/Const"
  input: "save_1/RestoreV2_5/tensor_names"
  input: "save_1/RestoreV2_5/shape_and_slices"
  attr {
    key: "dtypes"
    value {
      list {
        type: DT_FLOAT
      }
    }
  }
}
node {
  name: "save_1/Assign_5"
  op: "Assign"
  input: "rnn/multi_rnn_cell/cell_0/basic_rnn_cell/kernel"
  input: "save_1/RestoreV2_5"
  attr {
    key: "T"
    value {
      type: DT_FLOAT
    }
  }
  attr {
    key: "_class"
    value {
      list {
        s: "loc:@rnn/multi_rnn_cell/cell_0/basic_rnn_cell/kernel"
      }
    }
  }
  attr {
    key: "use_locking"
    value {
      b: true
    }
  }
  attr {
    key: "validate_shape"
    value {
      b: true
    }
  }
}
node {
  name: "save_1/RestoreV2_6/tensor_names"
  op: "Const"
  attr {
    key: "dtype"
    value {
      type: DT_STRING
    }
  }
  attr {
    key: "value"
    value {
      tensor {
        dtype: DT_STRING
        tensor_shape {
          dim {
            size: 1
          }
        }
        string_val: "rnn/multi_rnn_cell/cell_0/basic_rnn_cell/kernel/Adam"
      }
    }
  }
}
node {
  name: "save_1/RestoreV2_6/shape_and_slices"
  op: "Const"
  attr {
    key: "dtype"
    value {
      type: DT_STRING
    }
  }
  attr {
    key: "value"
    value {
      tensor {
        dtype: DT_STRING
        tensor_shape {
          dim {
            size: 1
          }
        }
        string_val: ""
      }
    }
  }
}
node {
  name: "save_1/RestoreV2_6"
  op: "RestoreV2"
  input: "save_1/Const"
  input: "save_1/RestoreV2_6/tensor_names"
  input: "save_1/RestoreV2_6/shape_and_slices"
  attr {
    key: "dtypes"
    value {
      list {
        type: DT_FLOAT
      }
    }
  }
}
node {
  name: "save_1/Assign_6"
  op: "Assign"
  input: "rnn/multi_rnn_cell/cell_0/basic_rnn_cell/kernel/Adam"
  input: "save_1/RestoreV2_6"
  attr {
    key: "T"
    value {
      type: DT_FLOAT
    }
  }
  attr {
    key: "_class"
    value {
      list {
        s: "loc:@rnn/multi_rnn_cell/cell_0/basic_rnn_cell/kernel"
      }
    }
  }
  attr {
    key: "use_locking"
    value {
      b: true
    }
  }
  attr {
    key: "validate_shape"
    value {
      b: true
    }
  }
}
node {
  name: "save_1/RestoreV2_7/tensor_names"
  op: "Const"
  attr {
    key: "dtype"
    value {
      type: DT_STRING
    }
  }
  attr {
    key: "value"
    value {
      tensor {
        dtype: DT_STRING
        tensor_shape {
          dim {
            size: 1
          }
        }
        string_val: "rnn/multi_rnn_cell/cell_0/basic_rnn_cell/kernel/Adam_1"
      }
    }
  }
}
node {
  name: "save_1/RestoreV2_7/shape_and_slices"
  op: "Const"
  attr {
    key: "dtype"
    value {
      type: DT_STRING
    }
  }
  attr {
    key: "value"
    value {
      tensor {
        dtype: DT_STRING
        tensor_shape {
          dim {
            size: 1
          }
        }
        string_val: ""
      }
    }
  }
}
node {
  name: "save_1/RestoreV2_7"
  op: "RestoreV2"
  input: "save_1/Const"
  input: "save_1/RestoreV2_7/tensor_names"
  input: "save_1/RestoreV2_7/shape_and_slices"
  attr {
    key: "dtypes"
    value {
      list {
        type: DT_FLOAT
      }
    }
  }
}
node {
  name: "save_1/Assign_7"
  op: "Assign"
  input: "rnn/multi_rnn_cell/cell_0/basic_rnn_cell/kernel/Adam_1"
  input: "save_1/RestoreV2_7"
  attr {
    key: "T"
    value {
      type: DT_FLOAT
    }
  }
  attr {
    key: "_class"
    value {
      list {
        s: "loc:@rnn/multi_rnn_cell/cell_0/basic_rnn_cell/kernel"
      }
    }
  }
  attr {
    key: "use_locking"
    value {
      b: true
    }
  }
  attr {
    key: "validate_shape"
    value {
      b: true
    }
  }
}
node {
  name: "save_1/RestoreV2_8/tensor_names"
  op: "Const"
  attr {
    key: "dtype"
    value {
      type: DT_STRING
    }
  }
  attr {
    key: "value"
    value {
      tensor {
        dtype: DT_STRING
        tensor_shape {
          dim {
            size: 1
          }
        }
        string_val: "rnn/multi_rnn_cell/cell_1/basic_rnn_cell/bias"
      }
    }
  }
}
node {
  name: "save_1/RestoreV2_8/shape_and_slices"
  op: "Const"
  attr {
    key: "dtype"
    value {
      type: DT_STRING
    }
  }
  attr {
    key: "value"
    value {
      tensor {
        dtype: DT_STRING
        tensor_shape {
          dim {
            size: 1
          }
        }
        string_val: ""
      }
    }
  }
}
node {
  name: "save_1/RestoreV2_8"
  op: "RestoreV2"
  input: "save_1/Const"
  input: "save_1/RestoreV2_8/tensor_names"
  input: "save_1/RestoreV2_8/shape_and_slices"
  attr {
    key: "dtypes"
    value {
      list {
        type: DT_FLOAT
      }
    }
  }
}
node {
  name: "save_1/Assign_8"
  op: "Assign"
  input: "rnn/multi_rnn_cell/cell_1/basic_rnn_cell/bias"
  input: "save_1/RestoreV2_8"
  attr {
    key: "T"
    value {
      type: DT_FLOAT
    }
  }
  attr {
    key: "_class"
    value {
      list {
        s: "loc:@rnn/multi_rnn_cell/cell_1/basic_rnn_cell/bias"
      }
    }
  }
  attr {
    key: "use_locking"
    value {
      b: true
    }
  }
  attr {
    key: "validate_shape"
    value {
      b: true
    }
  }
}
node {
  name: "save_1/RestoreV2_9/tensor_names"
  op: "Const"
  attr {
    key: "dtype"
    value {
      type: DT_STRING
    }
  }
  attr {
    key: "value"
    value {
      tensor {
        dtype: DT_STRING
        tensor_shape {
          dim {
            size: 1
          }
        }
        string_val: "rnn/multi_rnn_cell/cell_1/basic_rnn_cell/bias/Adam"
      }
    }
  }
}
node {
  name: "save_1/RestoreV2_9/shape_and_slices"
  op: "Const"
  attr {
    key: "dtype"
    value {
      type: DT_STRING
    }
  }
  attr {
    key: "value"
    value {
      tensor {
        dtype: DT_STRING
        tensor_shape {
          dim {
            size: 1
          }
        }
        string_val: ""
      }
    }
  }
}
node {
  name: "save_1/RestoreV2_9"
  op: "RestoreV2"
  input: "save_1/Const"
  input: "save_1/RestoreV2_9/tensor_names"
  input: "save_1/RestoreV2_9/shape_and_slices"
  attr {
    key: "dtypes"
    value {
      list {
        type: DT_FLOAT
      }
    }
  }
}
node {
  name: "save_1/Assign_9"
  op: "Assign"
  input: "rnn/multi_rnn_cell/cell_1/basic_rnn_cell/bias/Adam"
  input: "save_1/RestoreV2_9"
  attr {
    key: "T"
    value {
      type: DT_FLOAT
    }
  }
  attr {
    key: "_class"
    value {
      list {
        s: "loc:@rnn/multi_rnn_cell/cell_1/basic_rnn_cell/bias"
      }
    }
  }
  attr {
    key: "use_locking"
    value {
      b: true
    }
  }
  attr {
    key: "validate_shape"
    value {
      b: true
    }
  }
}
node {
  name: "save_1/RestoreV2_10/tensor_names"
  op: "Const"
  attr {
    key: "dtype"
    value {
      type: DT_STRING
    }
  }
  attr {
    key: "value"
    value {
      tensor {
        dtype: DT_STRING
        tensor_shape {
          dim {
            size: 1
          }
        }
        string_val: "rnn/multi_rnn_cell/cell_1/basic_rnn_cell/bias/Adam_1"
      }
    }
  }
}
node {
  name: "save_1/RestoreV2_10/shape_and_slices"
  op: "Const"
  attr {
    key: "dtype"
    value {
      type: DT_STRING
    }
  }
  attr {
    key: "value"
    value {
      tensor {
        dtype: DT_STRING
        tensor_shape {
          dim {
            size: 1
          }
        }
        string_val: ""
      }
    }
  }
}
node {
  name: "save_1/RestoreV2_10"
  op: "RestoreV2"
  input: "save_1/Const"
  input: "save_1/RestoreV2_10/tensor_names"
  input: "save_1/RestoreV2_10/shape_and_slices"
  attr {
    key: "dtypes"
    value {
      list {
        type: DT_FLOAT
      }
    }
  }
}
node {
  name: "save_1/Assign_10"
  op: "Assign"
  input: "rnn/multi_rnn_cell/cell_1/basic_rnn_cell/bias/Adam_1"
  input: "save_1/RestoreV2_10"
  attr {
    key: "T"
    value {
      type: DT_FLOAT
    }
  }
  attr {
    key: "_class"
    value {
      list {
        s: "loc:@rnn/multi_rnn_cell/cell_1/basic_rnn_cell/bias"
      }
    }
  }
  attr {
    key: "use_locking"
    value {
      b: true
    }
  }
  attr {
    key: "validate_shape"
    value {
      b: true
    }
  }
}
node {
  name: "save_1/RestoreV2_11/tensor_names"
  op: "Const"
  attr {
    key: "dtype"
    value {
      type: DT_STRING
    }
  }
  attr {
    key: "value"
    value {
      tensor {
        dtype: DT_STRING
        tensor_shape {
          dim {
            size: 1
          }
        }
        string_val: "rnn/multi_rnn_cell/cell_1/basic_rnn_cell/kernel"
      }
    }
  }
}
node {
  name: "save_1/RestoreV2_11/shape_and_slices"
  op: "Const"
  attr {
    key: "dtype"
    value {
      type: DT_STRING
    }
  }
  attr {
    key: "value"
    value {
      tensor {
        dtype: DT_STRING
        tensor_shape {
          dim {
            size: 1
          }
        }
        string_val: ""
      }
    }
  }
}
node {
  name: "save_1/RestoreV2_11"
  op: "RestoreV2"
  input: "save_1/Const"
  input: "save_1/RestoreV2_11/tensor_names"
  input: "save_1/RestoreV2_11/shape_and_slices"
  attr {
    key: "dtypes"
    value {
      list {
        type: DT_FLOAT
      }
    }
  }
}
node {
  name: "save_1/Assign_11"
  op: "Assign"
  input: "rnn/multi_rnn_cell/cell_1/basic_rnn_cell/kernel"
  input: "save_1/RestoreV2_11"
  attr {
    key: "T"
    value {
      type: DT_FLOAT
    }
  }
  attr {
    key: "_class"
    value {
      list {
        s: "loc:@rnn/multi_rnn_cell/cell_1/basic_rnn_cell/kernel"
      }
    }
  }
  attr {
    key: "use_locking"
    value {
      b: true
    }
  }
  attr {
    key: "validate_shape"
    value {
      b: true
    }
  }
}
node {
  name: "save_1/RestoreV2_12/tensor_names"
  op: "Const"
  attr {
    key: "dtype"
    value {
      type: DT_STRING
    }
  }
  attr {
    key: "value"
    value {
      tensor {
        dtype: DT_STRING
        tensor_shape {
          dim {
            size: 1
          }
        }
        string_val: "rnn/multi_rnn_cell/cell_1/basic_rnn_cell/kernel/Adam"
      }
    }
  }
}
node {
  name: "save_1/RestoreV2_12/shape_and_slices"
  op: "Const"
  attr {
    key: "dtype"
    value {
      type: DT_STRING
    }
  }
  attr {
    key: "value"
    value {
      tensor {
        dtype: DT_STRING
        tensor_shape {
          dim {
            size: 1
          }
        }
        string_val: ""
      }
    }
  }
}
node {
  name: "save_1/RestoreV2_12"
  op: "RestoreV2"
  input: "save_1/Const"
  input: "save_1/RestoreV2_12/tensor_names"
  input: "save_1/RestoreV2_12/shape_and_slices"
  attr {
    key: "dtypes"
    value {
      list {
        type: DT_FLOAT
      }
    }
  }
}
node {
  name: "save_1/Assign_12"
  op: "Assign"
  input: "rnn/multi_rnn_cell/cell_1/basic_rnn_cell/kernel/Adam"
  input: "save_1/RestoreV2_12"
  attr {
    key: "T"
    value {
      type: DT_FLOAT
    }
  }
  attr {
    key: "_class"
    value {
      list {
        s: "loc:@rnn/multi_rnn_cell/cell_1/basic_rnn_cell/kernel"
      }
    }
  }
  attr {
    key: "use_locking"
    value {
      b: true
    }
  }
  attr {
    key: "validate_shape"
    value {
      b: true
    }
  }
}
node {
  name: "save_1/RestoreV2_13/tensor_names"
  op: "Const"
  attr {
    key: "dtype"
    value {
      type: DT_STRING
    }
  }
  attr {
    key: "value"
    value {
      tensor {
        dtype: DT_STRING
        tensor_shape {
          dim {
            size: 1
          }
        }
        string_val: "rnn/multi_rnn_cell/cell_1/basic_rnn_cell/kernel/Adam_1"
      }
    }
  }
}
node {
  name: "save_1/RestoreV2_13/shape_and_slices"
  op: "Const"
  attr {
    key: "dtype"
    value {
      type: DT_STRING
    }
  }
  attr {
    key: "value"
    value {
      tensor {
        dtype: DT_STRING
        tensor_shape {
          dim {
            size: 1
          }
        }
        string_val: ""
      }
    }
  }
}
node {
  name: "save_1/RestoreV2_13"
  op: "RestoreV2"
  input: "save_1/Const"
  input: "save_1/RestoreV2_13/tensor_names"
  input: "save_1/RestoreV2_13/shape_and_slices"
  attr {
    key: "dtypes"
    value {
      list {
        type: DT_FLOAT
      }
    }
  }
}
node {
  name: "save_1/Assign_13"
  op: "Assign"
  input: "rnn/multi_rnn_cell/cell_1/basic_rnn_cell/kernel/Adam_1"
  input: "save_1/RestoreV2_13"
  attr {
    key: "T"
    value {
      type: DT_FLOAT
    }
  }
  attr {
    key: "_class"
    value {
      list {
        s: "loc:@rnn/multi_rnn_cell/cell_1/basic_rnn_cell/kernel"
      }
    }
  }
  attr {
    key: "use_locking"
    value {
      b: true
    }
  }
  attr {
    key: "validate_shape"
    value {
      b: true
    }
  }
}
node {
  name: "save_1/restore_all"
  op: "NoOp"
  input: "^save_1/Assign"
  input: "^save_1/Assign_1"
  input: "^save_1/Assign_2"
  input: "^save_1/Assign_3"
  input: "^save_1/Assign_4"
  input: "^save_1/Assign_5"
  input: "^save_1/Assign_6"
  input: "^save_1/Assign_7"
  input: "^save_1/Assign_8"
  input: "^save_1/Assign_9"
  input: "^save_1/Assign_10"
  input: "^save_1/Assign_11"
  input: "^save_1/Assign_12"
  input: "^save_1/Assign_13"
}
versions {
  producer: 24
}
